test_models/100epoch_5fold_2conv_non_normalized_focal_weightnone_model10.pt (torch, 414783 bytes, 6 tensors)

conv1.weight f4 [8, 3, 3, 3]
000000 eb f9 f1 3d 2a b0 02 3e b2 8c 46 be 0a 32 cc 3e
       0.11815246 0.12762514 -0.19389609 0.39881927
000010 16 21 32 3e 83 76 23 bd 60 9d 2b 3e 1a a6 80 be
       0.17395434 -0.039907943 0.16759253 -0.25126725
000020 3e f0 c5 be eb 92 14 be de 5d 96 bb ed a8 b5 bd
       -0.38659853 -0.1450917 -0.0045888266 -0.08870111
000030 4c 94 ac 3e 70 20 2c 3e 20 18 26 be 10 ea 52 3e
       0.33706892 0.16809249 -0.1622014 0.205971
000040 b3 36 19 be c2 bf 93 be 6d 74 29 bd a7 3b 2e 3d
       -0.14962272 -0.28857237 -0.041370798 0.042537358
000050 23 f0 ac 3d 4d 2f b9 3d fb 24 20 be b7 64 80 be
       0.0844424 0.09042225 -0.15639107 -0.2507684
000060 c9 07 14 3d 41 5d c7 3d 49 24 34 3d 58 81 08 be
       0.036140237 0.09734584 0.043979917 -0.1333059
000070 59 b6 6c bd a3 e0 6b bd 31 64 62 be 6c 4d 4f 3d
       -0.057791088 -0.057587277 -0.22108532 0.050610945
000080 3a f4 d7 3d 9c 04 f6 ba 37 bc 6a be a9 a1 c5 3c
       0.105446294 -0.0018769684 -0.22923361 0.024124937
000090 65 ac 99 3c f1 56 82 bc e6 59 f9 bd 85 84 04 be
       0.018758962 -0.015910598 -0.1217535 -0.12941177
0000a0 7b cf 2e be e9 0b 75 be 60 28 35 be 2a a0 42 be
       -0.17071335 -0.23930325 -0.17691183 -0.1900641
0000b0 58 10 29 be 09 30 9c 3c a9 12 9f 3d 0c 13 47 bd
       -0.16510141 0.019065874 0.07767231 -0.04860215
0000c0 e6 48 c4 bd 11 a6 e5 3d 4c 63 4f 3d 1c dc 07 3e
       -0.09584217 0.11213315 0.050631806 0.13267559
0000d0 4f f6 cc bc 95 36 b8 bd ce 19 d5 bd 11 32 b3 3c
       -0.025019793 -0.08994786 -0.104053125 0.02187446
0000e0 7b b1 6c bd 53 f5 ee 3c 9d 76 8d bc d0 95 63 3c
       -0.057786446 0.029169714 -0.017268473 0.013890699
0000f0 83 50 11 bf 3a 93 29 be 81 23 21 3d 9d 46 ed 3d
       -0.56763476 -0.16560069 0.0393405 0.11585734
000100 18 0b a5 3d 56 3c 16 3d e6 f1 f2 bd c0 b5 5a 3d
       0.080587566 0.036678635 -0.11862545 0.053395987
000110 c2 0c bb bc 5a 51 0c bf 9f 4a ea be 06 c4 0f bd
       -0.022833232 -0.5481163 -0.45760056 -0.035099052
000120 3a 26 00 bd 5b a9 9a 3b dc 8c bd 3d a5 aa 7b 3e
       -0.031286456 0.004719896 0.092553824 0.24576814
000130 aa 40 89 bc 24 55 24 3e 16 fb b7 be 1b 59 7e be
       -0.016754467 0.16048104 -0.3593375 -0.24838679
000140 10 3c 13 be fb 42 b0 bd 45 62 b4 3d dd 15 82 3d
       -0.14378381 -0.086065255 0.08807806 0.06351826
000150 de 7d eb 3d 60 17 50 3e fa 2b 6f 3e c7 0f 88 be
       0.11498617 0.20321417 0.2335662 -0.26574537
000160 be d5 39 be 58 95 22 3e e5 45 08 3e 52 bf 91 bd
       -0.18147942 0.15877283 0.13307913 -0.071165696
000170 c2 81 12 3e ff 37 0f 3e 76 a8 26 3e 7d 3a dc bd
       0.14307311 0.13986205 0.162752 -0.10753343
000180 39 f0 27 be f4 83 7d be 23 0a ef 3d ff 2d 98 3c
       -0.16400231 -0.24757367 0.11671855 0.01857662
000190 f9 67 0b bc 3c a7 b2 3c 07 52 35 be 57 e9 6d be
       -0.008508676 0.02180826 -0.17707072 -0.23233543
0001a0 f1 df 9d ba 0d c8 01 be b5 80 0c be b3 8f 37 be
       -0.0012044889 -0.1267397 -0.13720973 -0.1792591
0001b0 f3 d2 ab 3d ff b7 2d be b1 86 d6 bd 04 aa 05 3d
       0.08389845 -0.1696472 -0.10474909 0.032632843
0001c0 8b 50 dc 3c 77 28 6f 3d 08 3b 6c be eb b1 17 be
       0.026893875 0.0583882 -0.23069394 -0.14813964
0001d0 e0 43 3b 3c d3 01 a3 bd 1f 76 2f bb 39 90 55 be
       0.011429757 -0.07959332 -0.0026773287 -0.20855798
0001e0 bf 17 fc 3d e0 51 8f bd cd e7 6c bd 72 11 0f bd
       0.12309217 -0.06998038 -0.05783825 -0.034928747
0001f0 42 5a fc 3b af 73 cf bd 49 9c f9 3b 41 d5 04 3e
       0.0077011893 -0.10129487 0.0076175076 0.12971975
000200 07 75 92 bd cf 38 45 be 5a cb 1a 3e 24 dc 06 be
       -0.071512274 -0.19259952 0.15116635 -0.13169914
000210 75 33 35 bd 28 c7 51 3d b1 f5 f9 bd 84 5a 00 3d
       -0.044238526 0.05121532 -0.12205065 0.031336322
000220 20 b5 00 3e 63 fc 8d 3d 3f 8d 44 3e 2a 2c 97 3d
       0.12569094 0.069329046 0.19194506 0.073814705
000230 12 7b ab 3c 6d 38 35 bd 01 3e 85 3b 56 fb 43 3b
       0.020932708 -0.044243265 0.0040662293 0.0029904447
000240 3b 20 69 3e 2b 07 39 3e ed 6a af 3d ea c3 24 bd
       0.22766201 0.1806914 0.08565316 -0.0402259
000250 d6 cc a7 bd f1 d6 03 3e 61 f4 1e be d4 7d 3e bd
       -0.08193366 0.12874962 -0.1552291 -0.046506718
000260 ab d4 0a 3e f4 00 49 3e ea 76 2f 3e f2 4d 5b 3d
       0.13557689 0.1962927 0.17135206 0.05354113
000270 dd 14 3c 3e 37 d9 0d be 01 09 10 be af 0b 67 3d
       0.18367334 -0.13852392 -0.14065935 0.056407627
000280 0f af 6b 3d d6 b0 95 bd b8 a3 25 3c 85 e3 47 be
       0.057539996 -0.073091194 0.010109834 -0.19520386
000290 22 5f d2 bd 4d 77 0e be ab 42 eb be ac bf d4 be
       -0.102720514 -0.13912697 -0.459493 -0.41552484
0002a0 4b 82 2a be 5d 45 3a 3e 9d ca 4f 3e 2b f8 d7 bd
       -0.16651265 0.18190522 0.20292135 -0.10545381
0002b0 f7 3d 69 bd e6 68 21 3d 08 bf 4a 3e 20 fb c7 be
       -0.05694386 0.03940668 0.19799435 -0.3905878
0002c0 e5 11 c8 be 25 c9 bc 3c 9c 2b 03 3e 8f 11 53 3e
       -0.39076152 0.023045132 0.12809604 0.20612167
0002d0 69 5f 5b 3d 7b ae 62 be 5c e1 18 bd ec 80 97 3d
       0.053557787 -0.22136872 -0.037324294 0.07397637
0002e0 fe 44 0f be dc e5 18 be d6 c2 1c be 3c 0e b3 3e
       -0.13991162 -0.14931434 -0.15308699 0.34971797
0002f0 57 73 4d 3e 8d 16 89 3c bb d5 01 3e ec 21 36 3d
       0.2006353 0.016734386 0.12679188 0.044465944
000300 41 7f 9c 3d 82 20 06 3e 04 3e 91 bd 89 b1 b1 bd
       0.07641459 0.13098338 -0.07091907 -0.0867644
000310 16 5c 0b be 35 97 d9 3d 20 93 47 be 98 f2 06 be
       -0.13609347 0.106245436 -0.19489717 -0.1317848
000320 bc b2 e2 3c 11 c5 44 be b0 f4 14 be 92 b0 1a 3e
       0.027673118 -0.192158 -0.14546466 0.15106419
000330 7f f7 24 be 9e 63 20 3e 4d 15 af bc f8 a2 a8 3d
       -0.16110037 0.15663001 -0.021372462 0.08234209
000340 51 14 21 be bf d1 a2 39 b8 a7 11 be b1 1e 58 be
       -0.15730406 0.0003105532 -0.14224136 -0.21105458
000350 10 65 54 be 11 0e bb 3c e3 89 d0 bd af 60 79 3d
       -0.20741677 0.022833856 -0.1018255 0.06088322

conv1.bias f4 [8]
000000 e4 1d ad 3b a5 ed 8b 3e c4 1e 5c 3e ad de 56 3e
       0.0052831043 0.27329746 0.21496111 0.20983382
000010 6a 57 44 be c5 68 bb be 69 9a 7a 3e 53 a5 24 be
       -0.19173971 -0.3660337 0.24472965 -0.16078691

conv2.weight f4 [16, 8, 3, 3]
000000 72 01 ab be 2d f4 a3 bc 96 ed d3 bd 54 85 30 3d
       -0.3339954 -0.020013893 -0.1034805 0.0430959
000010 d8 7a eb bb e2 dd 13 3e b7 01 c7 bd 24 ef 26 be
       -0.007186275 0.1444011 -0.09717124 -0.16302162
000020 4e 79 10 bb d3 63 d7 bc 64 db 05 3c 60 5d e7 bd
       -0.002204496 -0.026292717 0.008169983 -0.11297107
000030 62 57 20 be fb cd 62 bd 58 85 f0 bd c3 f2 08 3d
       -0.15658334 -0.05537222 -0.11744183 0.03343464
000040 90 73 99 bb 67 8c d3 bd df eb 82 bc dc 69 2c bd
       -0.0046829656 -0.10329514 -0.015981613 -0.042093143
000050 c7 0b d8 bc 41 27 df 3d 44 04 c9 3d 10 0e d9 bd
       -0.026372803 0.10896159 0.09815267 -0.10598385
000060 36 59 e6 3d 17 09 da 3c 1f cb c0 3d 54 c2 d8 be
       0.112474844 0.026615663 0.09413742 -0.4233576
000070 66 36 89 be df e3 6a be 79 b1 e7 3d b0 34 4f 3e
       -0.26799315 -0.22938488 0.11313147 0.20234942
000080 20 7f 66 be b4 b6 75 be cf 18 22 be a1 b0 9e 3c
       -0.22509432 -0.23995477 -0.15829776 0.019371333
000090 21 1a b6 bd 0b bf 91 3d 26 0c c2 bd d1 8b e3 3c
       -0.088917024 0.07116517 -0.094749734 0.02777663
0000a0 81 a4 a7 3d 69 ab d8 bd 64 6e eb bc 2b 60 10 bc
       0.081856735 -0.10579569 -0.028739162 -0.008811991
0000b0 84 ca 9b 3d 7d 93 8e bd f2 81 4c bd 2e 08 05 3d
       0.07606986 -0.06961725 -0.049928613 0.032478504
0000c0 92 a2 a5 3d 53 be 24 3e 89 65 56 3e 57 3a f4 3d
       0.080876485 0.16088228 0.2093717 0.1192519
0000d0 bc ec 90 ba 31 c8 0b 3d b4 a4 b8 bd 6f c5 78 3e
       -0.001105688 0.034126464 -0.0901579 0.24294065
0000e0 7c df 6b 3e 35 79 27 3e 23 ef 5a bd 61 7d 07 be
       0.23034471 0.1635483 -0.053450715 -0.13231422
0000f0 9f 22 82 3e 8c ec 9b 3e 5e 27 90 3e bb 9a c4 bd
       0.2541704 0.30453908 0.28155035 -0.09599825
000100 e1 fc 08 3c bc dd a7 bd 1b 6a 5e 3d e3 5c 74 bd
       0.008361072 -0.08196589 0.05430041 -0.059658896
000110 c3 e1 5f 3d 25 36 95 bd 5a 37 d6 3d 6d 63 6a bd
       0.054658663 -0.07285718 0.10459776 -0.057223726
000120 06 91 39 be f9 a3 a5 bd 83 3e af bc 3c bf 37 be
       -0.18121728 -0.08087916 -0.021392113 -0.17944044
000130 83 54 87 bd 71 ad 18 bd 4a 33 93 bd c0 c6 99 bd
       -0.06607916 -0.03727478 -0.07187517 -0.07508612
000140 27 78 65 3d 67 09 4c 3d 84 9d 99 bd 9e d0 cf bd
       0.05602279 0.049813654 -0.07500747 -0.101472124
000150 57 74 44 bd 8b b3 f5 3d 03 29 83 3d fc 81 81 3d
       -0.047962513 0.11997136 0.06404307 0.06323621
000160 0f 52 2b 3c c8 96 59 bc 7d f4 9c bd ab 77 61 be
       0.010456576 -0.013280578 -0.0766382 -0.22018306
000170 82 9d 8b bd ac 25 82 bd 04 74 2b bd 0c 26 15 3d
       -0.068171516 -0.063548416 -0.041858688 0.036413237
000180 fd ed 22 3e 51 2d 4b 3d 81 64 a4 3d 46 49 ce 3d
       0.15911098 0.049603764 0.08026982 0.100725695
000190 32 ca 07 3e 5b e3 8d bd 67 93 8f be 4a 74 fc be
       0.13260725 -0.0692813 -0.28042147 -0.49307472
0001a0 7d 2f e1 be 60 73 a4 be 0e 9c 04 bf 49 44 c5 be
       -0.43981543 -0.32119274 -0.5180062 -0.3852866
0001b0 06 fc ef 3d e2 5b 4b 3d e1 1d 57 3d b8 45 dc 3c
       0.117179915 0.049648173 0.05251873 0.026888713
0001c0 04 24 67 3b 8d a6 4f bd 1a d3 e8 bd 81 41 23 bd
       0.003526927 -0.050695945 -0.113683894 -0.03985739
0001d0 ad 95 ba 3d 8e 12 61 be bf a7 af be b9 fc 59 be
       0.0911058 -0.21979734 -0.34307668 -0.21287812
0001e0 f7 b0 83 bc 44 10 c6 bd c0 84 ee bd 0e 5e 1f 3e
       -0.016075594 -0.09671071 -0.11646414 0.15563223
0001f0 8a 4f 98 3d 62 8e 18 3e ce 72 8a be f5 0d be be
       0.07437046 0.14898065 -0.27040714 -0.37120023
000200 22 ed 4a be 17 6a fa be c9 c5 df be 56 9d d0 be
       -0.19817021 -0.48909065 -0.43705586 -0.40745038
000210 72 26 7e 3d 5c 7b 26 3e a7 cf fa bb 19 c0 9b 3d
       0.062048383 0.16257995 -0.0076541486 0.07604999
000220 60 67 9e bc 6e d0 90 3d 6e 99 67 bd 2f 54 93 3d
       -0.019336402 0.07071005 -0.056542806 0.07193791
000230 36 e1 9a 3b c5 8c a1 3d 38 84 25 bd 4a c9 78 ba
       0.0047265543 0.07888178 -0.040409297 -0.00094904436
000240 ce 7e cb 3c 1a 29 65 bd bc 49 c9 bd 00 d0 8a 3c
       0.024840739 -0.0559474 -0.09828517 0.016944885
000250 a3 1d b7 bd b4 8b db bd b8 fb 4d bd ca f1 92 3c
       -0.089412 -0.10720006 -0.050288886 0.01793756
000260 43 a9 76 bc 57 5a 9f bc 9f e1 ec bd dc 90 62 3b
       -0.015055004 -0.019452257 -0.11566471 0.0034571206
000270 b1 02 f1 3c 11 10 74 bd 23 31 28 bd fe 4c ed 3c
       0.029420229 -0.059585635 -0.041062485 0.028967377
000280 bf fd c3 3d 85 c1 48 3d 1c f7 98 bd 5a 7e 98 bc
       0.095698826 0.04901268 -0.074690074 -0.018614937
000290 df 35 57 3d 85 fc 7c bd b5 b8 82 3d d0 42 cb bc
       0.05254161 -0.06176426 0.06382886 -0.024812132
0002a0 1b b1 84 3d e4 3c ac 3d 4a 74 48 bd a5 c2 f3 bd
       0.06479093 0.084100515 -0.048939027 -0.1190236
0002b0 96 77 ad bd b5 08 01 be 39 9a 2d 3b 3f d4 2a bd
       -0.08470075 -0.12600978 0.002648963 -0.04170632
0002c0 4b 62 b1 3c a7 27 ad bc fa 22 df bd 1a 17 ce 39
       0.021653315 -0.021137072 -0.10895343 0.00039308594
0002d0 69 02 aa bd 1e 52 44 bd bf 20 de bd cb 3d 84 bd
       -0.08301241 -0.047929876 -0.108460896 -0.064570986
0002e0 dc 41 9c bd 88 ed e7 bc d1 47 2d 3d 51 d2 a0 3c
       -0.07629749 -0.028311506 0.042304818 0.019631537
0002f0 5f 62 c6 bd ba 21 e0 3c 2d 96 3f bb 6f 9d 92 bb
       -0.096867315 0.027359832 -0.00292338 -0.004474334
000300 33 d9 f2 bd 40 ee 70 3c 15 3b ca bd 9c 12 ee bd
       -0.11857834 0.014705241 -0.0987455 -0.11624643
000310 6b d7 95 3c 7c 3a 76 3d e4 fe ed 3c 9f 37 68 bd
       0.018291196 0.06011437 0.029052205 -0.05669367
000320 bb 1b 07 bd 86 6b f7 bc 3c c5 dd 3c 5b 11 25 3d
       -0.03298543 -0.030202638 0.027071588 0.040299755
000330 21 01 bd bd e2 6e b3 bd 3f c7 a6 3d 51 d8 9c 3b
       -0.09228731 -0.087613836 0.08143472 0.004786529
000340 ac 3a ba bd 31 b3 65 bd e7 d4 79 bd e7 29 0f 3d
       -0.09093222 -0.056079093 -0.060994055 0.03495207
000350 4f 90 1b bd fb 05 42 3d 8e d0 a6 3d 72 f9 92 3d
       -0.03797942 0.047368985 0.081452474 0.07176484
000360 51 07 7c 3c cb 86 99 3c 81 54 46 bd 66 59 8a 3d
       0.015382604 0.018741032 -0.048420433 0.06755333
000370 22 2e 9b bd 58 39 93 bd 5b 07 b2 bc e8 8a 02 be
       -0.075771585 -0.07188672 -0.021732023 -0.12748301
000380 f2 e1 e3 bd 83 02 7f bd 41 a5 7a bc 5d 71 59 bd
       -0.1112708 -0.062258255 -0.015298189 -0.053086627
000390 89 75 5c 3d f8 40 09 be 0b 95 b2 3b e5 f5 2e 3d
       0.053823028 -0.1340369 0.005449896 0.042714972
0003a0 5b 5e 75 bd b7 a2 a5 bd 3c fc 87 bd ea 01 be 3d
       -0.059904438 -0.08087676 -0.06639907 0.09277709
0003b0 e6 f3 fb bd f0 e7 85 bd 1d 85 8d bc 07 62 83 3d
       -0.12302379 -0.06538379 -0.017275387 0.064151816
0003c0 cd 9b 6a bd 7d 3c 03 bc db 6d ea bd bb 2d 97 bd
       -0.05727749 -0.008010027 -0.114467345 -0.07381769
0003d0 b1 e8 05 be b3 7f 8d bd 9e a5 f9 bc 4b ab 07 bb
       -0.13077046 -0.06909122 -0.03047448 -0.0020701464
0003e0 7d 11 6a bc b7 7d 8f 3c 48 71 cf bc be 33 9c 3d
       -0.014286396 0.017516 -0.025322571 0.076270565
0003f0 f1 60 ca 3d 01 52 81 3d f4 ec a1 3c e2 15 b4 3d
       0.09881771 0.06314469 0.019766308 0.08793236

conv2.bias f4 [16]
000000 f8 4b 5d be 78 15 c7 3e 20 39 27 3d 50 42 0b be
       -0.21611011 0.38883567 0.040825963 -0.13599515
000010 50 ce de bd c6 62 36 3d 21 ea 1a 3e 14 09 3c bd
       -0.10879195 0.04452779 0.15128376 -0.045907095
000020 42 df 13 3e 5d 8d 66 be 5d 97 0e 3c 81 4a c4 bd
       0.14440635 -0.22514863 0.00870308 -0.09584523
000030 e6 df ad bd 27 ed b0 3e a8 61 01 be 8d 05 a7 3d
       -0.08489971 0.34555933 -0.12634909 0.081553556

fc2.weight f4 [12, 8464]
000000 ac b3 ec bd 4f 9f 2f bd be 12 05 be 9b 74 8a bd
       -0.11557707 -0.042876538 -0.12995431 -0.06760522
000010 14 27 bf bd bf 55 97 bd b9 e6 bd bd d3 7c d7 bd
       -0.093336254 -0.07389402 -0.092725225 -0.10521855
000020 79 be 11 bd 39 21 9e bd 16 4e 22 be cf a4 01 be
       -0.03558204 -0.077211805 -0.158501 -0.12660526
000030 7e 9c f0 3c 39 08 89 3c 63 ad 87 bd 05 7e ed bd
       0.029371496 0.016727554 -0.06624868 -0.11596302
000040 9f 39 19 bd 79 be 11 bd fa 7f 69 bd da d1 07 3d
       -0.037408467 -0.03558204 -0.057006814 0.033159114
000050 bb c8 dd bd cd 3e 09 bd 96 23 9a bc 3c 4b ce 3c
       -0.10829302 -0.033507157 -0.018815797 0.025182359
000060 46 e8 5b 3b 00 25 84 bd 9e dc 25 bd 36 30 a5 bd
       0.0033555194 -0.0645237 -0.0404936 -0.08065836
000070 e2 e8 ad 3c 36 f4 90 bd c7 56 bc bd 36 35 45 3d
       0.021229211 -0.070778295 -0.09196239 0.04814645
000080 74 3d 25 be 41 c5 dd bd b8 e2 84 bc 86 e2 2e be
       -0.16136724 -0.10828639 -0.01622139 -0.170786
000090 60 3f b8 3a bc 65 7d bd 77 9f 5d bd 5a 43 1e 3e
       0.0014056973 -0.0618646 -0.054107156 0.1545538
0000a0 91 ff d3 3c d6 14 6c 3d b9 ba d9 bd 06 4b d2 bd
       0.0258787 0.05763706 -0.10631318 -0.10268216
0000b0 9e f4 8b bd bb 08 94 3d 73 06 79 bd 35 21 14 be
       -0.068337664 0.07228228 -0.060797166 -0.14465792
0000c0 03 86 04 3d f4 f1 1e 3e 72 f4 2b 3d e6 81 19 bd
       0.032354366 0.15521985 0.041981168 -0.037477396
0000d0 c5 1b bd 3b 96 b6 1e be c8 5d 96 3d 63 b1 45 3e
       0.0057711327 -0.15499339 0.07342106 0.19305949
0000e0 06 31 3b 3e 54 ce 43 3e 85 37 6c 3e 4f e7 85 3d
       0.1828042 0.19121677 0.23068054 0.06538259
0000f0 fa 36 ca 3d 43 47 94 3c ec 08 01 3d 8d c8 b2 bd
       0.09873767 0.018100386 0.03150265 -0.08729658
000100 e7 23 fc bc 5d 67 92 3d 80 db 9c bd f7 35 a3 bd
       -0.030778838 0.07148621 -0.07659054 -0.07969277
000110 ab d2 ec bd e3 dc 9b bd 0f c6 b4 bc c2 f6 a2 ba
       -0.11563619 -0.0761049 -0.022067098 -0.0012433159
000120 45 6c 9f bb cf 59 85 3d cf 2c e7 3d 29 a6 21 3d
       -0.0048652017 0.0651127 0.112878434 0.039465103
000130 9b 6d 0f 3e 73 25 0b 3e 62 40 b9 3d 5c f4 13 3d
       0.14006655 0.13588504 0.09045483 0.03612171
000140 f9 c0 bd 3c b4 97 40 bd 4f a0 35 3d 87 22 26 3e
       0.023163306 -0.047019675 0.044342335 0.16224109
000150 01 33 01 3d 98 5f e2 3c 4f 61 5e 3d 02 58 d4 bd
       0.03154278 0.027633473 0.05429202 -0.10368349
000160 4b 3c 6b 3d 14 bf 2e bc 3d c6 9b bd 9b c5 1c be
       0.057430547 -0.010665674 -0.0760617 -0.15309756
000170 90 bd a3 3c 46 c1 2a bd 8e 39 00 3d ed 1d 41 3d
       0.019987851 -0.041688226 0.03130489 0.04714768
000180 4e 8e 91 bc 67 e1 b3 3d d0 6f ab 3d d8 6e ef 3d
       -0.017768051 0.087832265 0.08370936 0.11691064
000190 c2 96 40 bd 83 86 5c bd 22 f4 5b 3d d6 35 f1 3b
       -0.047018774 -0.053839218 0.05369962 0.007361154
0001a0 2d 50 41 3d 80 4c 86 bd d8 99 6d 3d ee e1 00 3e
       0.047195602 -0.0655756 0.058008045 0.12586185
0001b0 c8 7a 53 3e 43 f9 47 3e e3 27 9e 3c 9f 16 96 3d
       0.20652306 0.1952868 0.019306129 0.073285334
0001c0 21 c8 02 3d 56 ff bc bc 9f f3 5c bd a5 d1 d3 bc
       0.03192914 -0.023070972 -0.053943273 -0.025856802
0001d0 a0 87 96 bd f1 fa 80 3d 16 36 3a 3d 76 92 c8 3d
       -0.07350087 0.06297863 0.045461737 0.0979356
0001e0 e4 8e c3 bc 70 81 64 bd 0c 34 cc 3b 5e 87 bc 3d
       -0.023871846 -0.055787504 0.0062317904 0.09205507
0001f0 12 6f d5 3d 49 40 d7 3d 25 96 26 3e 1e 67 36 3e
       0.104215756 0.10510308 0.16268213 0.17812774
000200 c2 a3 dc 3d 13 31 d2 3d 7a 7e e6 3d d8 34 6c bc
       0.10773422 0.102632664 0.11254592 -0.014416896
000210 9a ff e3 3c fd 2f 13 3e af 89 22 3e bf aa fd 3c
       0.027831841 0.14373775 0.15872835 0.030965207
000220 57 1e a0 3d 5d 8e 25 3d 8c b1 47 3d fb 9c 29 3d
       0.07818287 0.04041897 0.048753306 0.041409474
000230 5d 07 f9 3c 5d 99 f0 bc 5b 90 37 3d 00 7f c6 bc
       0.030399019 -0.029370004 0.044815402 -0.02423048
000240 92 1f 41 3d 53 7e fe 3d 9c d7 e4 3d 8e 35 be 3d
       0.04714925 0.12426438 0.11173937 0.092875585
000250 07 1b 9f 3d fd 99 c2 3d d2 e3 1a 3e c8 4f 3c 3b
       0.07768827 0.09502027 0.15125969 0.0028734077
000260 26 40 5e 3d 2a ee fc 3c 12 45 50 3d 65 3b 0c bb
       0.054260395 0.030875284 0.05084712 -0.0021397707
000270 28 ed b8 3c d5 47 74 bc 7f c9 04 3d ca d8 0f bd
       0.022574022 -0.014909704 0.032418724 -0.035118856
000280 5a 81 e7 3c 0a 64 b1 3c eb e2 c1 3c 96 8d 2a be
       0.028259922 0.021654148 0.023667773 -0.16655573
000290 b2 de a6 3c e5 52 34 3d f8 16 35 3d 98 06 14 3d
       0.020369861 0.044024367 0.044211358 0.0361391
0002a0 f8 ab 26 3e 1d 3e bf 3d aa 7d f7 3c db ab 92 3c
       0.16276538 0.09338019 0.030211288 0.017904213
0002b0 70 4c 19 bd a6 dd 94 3c 1b 33 3a 3d 76 65 2c 3e
       -0.037426412 0.018172096 0.045458894 0.1683558
0002c0 48 6e f7 3d c1 44 8f 3d 5f 72 fd bc 6b f9 ac 3d
       0.12081581 0.06995536 -0.030938325 0.0844601
0002d0 9c e2 ea bc ab a7 aa bd 7c f0 89 bd e9 6e d8 3b
       -0.028672509 -0.083327614 -0.06735322 0.0066050184
0002e0 5a e0 1e bd 9c c8 e3 3b 1a 3a 54 3d d4 57 76 bc
       -0.038788177 0.0069514047 0.051813222 -0.015035588
0002f0 ac 9e 88 3c 4b cc 1a 3d 9d 32 0c bc be da 3e 3e
       0.016677223 0.037792485 -0.008556989 0.18638131
000300 82 4f 47 3e f9 f5 0e 3e a2 77 7b 3d e1 a8 34 bc
       0.19463924 0.13961019 0.061393388 -0.011026592
000310 05 64 83 3c b2 8a 61 3e f0 4a ce 3d 1c 12 23 3e
       0.016038904 0.22025564 0.10072887 0.15924877
000320 1a ec fb 3d 5a ff d4 3d a8 2c d3 3b 8b c2 1d 3d
       0.12300892 0.10400267 0.0064445324 0.03851561
000330 fc b9 3f bd a5 5b d9 bd 2c 81 de bd f2 ad ad bc
       -0.046808228 -0.10613183 -0.10864481 -0.021201108
000340 5d c7 84 3b 39 37 c0 3d 94 83 89 3d b7 65 9e 3d
       0.0040520863 0.09385533 0.0671455 0.07734244
000350 87 6c 02 3e ff 93 1e 3e 32 1b 25 3e f3 0a 1e 3e
       0.12736712 0.15486144 0.16123655 0.15433864
000360 25 61 35 3e 3f d1 1a 3e 86 27 8f 3c a7 18 8b 3d
       0.17712839 0.15118884 0.0174749 0.067918114
000370 72 00 01 3d 10 93 5d bd 69 ab ec 3d 00 10 cc 3d
       0.031494565 -0.054095328 0.115561314 0.09963989
000380 56 f5 37 3c 83 38 46 3d 0c 6c 97 3d 18 ba 02 3e
       0.011227926 0.048393738 0.07393655 0.12766302
000390 ea 94 a8 3d cb 09 22 3d d4 40 83 3d 17 62 34 bd
       0.08231528 0.03956012 0.06408849 -0.04403886
0003a0 b1 c6 cc 3d aa 5f f9 3d 9b 06 b7 3d bd 77 31 3d
       0.09998835 0.121764496 0.08936807 0.043327082
0003b0 b1 9c 05 3e 10 8e 7b 3d 17 97 18 be 43 5c ea be
       0.13048054 0.06141478 -0.14901386 -0.45773515
0003c0 d2 37 01 bf 1b 40 5d bf 16 cd 29 bf 54 1c c3 be
       -0.504758 -0.8642594 -0.6632856 -0.3810755
0003d0 42 4a 93 bd 7d 85 8a 3b 76 3e b3 bd 67 eb b7 3c
       -0.07191898 0.004227339 -0.08752148 0.022451116
0003e0 23 18 0e 3e f4 51 a1 3c 23 e4 95 bd d5 cc 74 3c
       0.13876395 0.019692399 -0.07318904 0.014941414
0003f0 6f 7a cd bc d9 a5 04 3d ed e8 b3 bb 4a da 73 3d
       -0.025082795 0.032384727 -0.0054904134 0.05953435

fc2.bias f4 [12]
000000 d0 5c 65 bd 42 ab 89 bc 6c 3b d3 bd 13 69 89 bd
       -0.055996716 -0.016805295 -0.10314068 -0.067094944
000010 01 9c 09 be 8e 1a 24 3d 9d 66 aa bc 71 bb 70 3e
       -0.13438417 0.040064387 -0.020800883 0.23509003
000020 16 3a 8c bd da a2 8b bc 7b aa 96 3d 86 2f 76 3d
       -0.068470165 -0.017045427 0.07356735 0.060103916
