test_models/100epoch_5fold_2conv_normalized_focal_model10.pt (torch, 414599 bytes, 6 tensors)

conv1.weight f4 [8, 3, 3, 3]
-0.09393794 0.057806958 0.08623379 0.1033539 -0.18121049 -0.022122223 -0.05193448 -0.11509032
0.06595157 -0.16523893 0.0245834 0.10248076 0.11288165 -0.22547191 0.07803234 -0.0016486843
0.035980362 -0.033616837 -0.041521642 0.15765654 0.16565335 -0.12336913 0.16525966 -0.04589285
-0.047976762 0.050257698 -0.1599377 0.0365374 0.10347233 0.056292627 0.07370097 0.043111823
0.034767047 0.028745698 -0.16531464 0.15371533 0.14233099 0.005805282 0.14655145 -0.019049749
0.042844847 0.053651333 0.17426465 0.16952392 0.006557409 0.07316385 -0.028829513 0.065812185
0.1517267 0.13236082 0.03601142 0.009764089 0.00563137 0.131172 -0.26062188 0.06005013
0.03804473 0.09022656 0.10047897 0.078185424 -0.033951167 -0.21866582 -0.21195316 -0.14799413
0.047756836 -0.022053584 -0.115997314 -0.18851751 -0.05856053 -0.003915012 -0.17661542 -0.2626717
0.16767593 0.18322016 0.22885253 0.20578973 0.19721495 0.2669622 -0.115211174 0.053687416
0.22323 -0.13575555 -0.18175833 -0.21279553 0.02904763 -0.18380147 -0.015430811 -0.020988984
0.09051131 0.0015737364 -0.09424903 -0.0058982414 0.10686356 0.040269848 0.26822 -0.17359738
0.108670406 0.21204248 0.022945503 -0.014123869 -0.15321948 -0.20434277 -0.005159166 0.19499552
0.21179625 0.22309195 -0.08731777 -0.12539692 -0.036687844 0.2566434 0.020866312 0.1521266
0.29482925 -0.028916271 -0.011551389 0.23541556 -0.01335949 -0.011287969 -0.053377893 -0.047487427
-0.023069665 0.13663237 -0.09440173 0.029397774 -0.059508782 0.022161603 -0.18619063 -0.17622058
-0.27057403 -0.060702987 -0.20651051 -0.11423439 -0.15577075 0.08146019 0.11167383 0.23619378
-0.14424211 -0.26411894 0.018531105 0.036477163 0.1275537 0.16884413 0.08626056 -0.2452656
0.23670074 -0.08555588 -0.0676803 -0.107379094 -0.12577853 -0.06552286 0.23739432 -0.0531589
-0.10115006 -0.10152645 0.055942915 0.0506124 0.19284418 -0.014009246 -0.20848827 -0.10592344
-0.041506995 0.19831698 -0.22007072 -0.14642286 -0.022661703 0.030887805 -0.044468384 -0.24016146
0.020844173 -0.07897373 -0.15586656 0.14177668 0.0011896972 -0.18148036 -0.07022015 -0.122578524
-0.135814 -0.12085629 0.02199003 -0.086594395 -0.04943815 0.092388354 -0.16596913 -0.0372509
-0.09621374 -0.12689528 -0.06602225 0.18207343 -0.081134 0.29717162 -0.35595152 0.05932533
-0.090562284 -0.37674302 -0.28936672 0.084613584 0.31853914 0.20604305 0.23769292 -0.21083973
0.18207607 -0.11526682 -0.22238988 0.011841752 0.030342653 0.168081 0.081525795 0.050963502
-0.024698317 0.052035138 0.05424155 0.03947456 -0.06970527 -0.02573333 -0.13345808 -0.091600835
00000000: 8962 c0bd fdc6 6c3d 579b b03d 36ab d33d
00000010: 3e8f 39be aa39 b5bc 40b9 54bd 79b4 ebbd
00000020: 9e11 873d 6534 29be 2063 c93c 6fe1 d13d
00000030: 7f2e e73d 1ce2 66be 6bcf 9f3d aa18 d8ba
00000040: 2560 133d cfb1 09bd 9912 2abd b770 213e
00000050: 08a1 293e f4a8 fcbd d439 293e 24fa 3bbd
00000060: 4883 44bd 04db 4d3d b5c6 23be 3ea8 153d
00000070: 4de9 d33d 1993 663d 89f0 963d 0696 303d
00000080: e467 0e3d 197c eb3c 3e48 29be 8d67 1d3e
00000090: 37bf 113e 3c3a be3b 9511 163e 380e 9cbc
000000a0: 147e 2f3d 80c1 5b3d 6f72 323e ae97 2d3e
000000b0: 89df d63b eed6 953d df2b ecbc 8ac8 863d
000000c0: 3e5e 1b3e 9889 073e b680 133d 8ff9 1f3c
000000d0: 5b87 b83b f451 063e 3b70 85be 20f7 753d
000000e0: cad4 1b3d b4c8 b83d ebc7 cd3d ae1f a03d
000000f0: 6110 0bbd efe9 5fbe 400a 59be c68b 17be
00000100: ac9c 433d b8a9 b4bc 0090 edbd bc0a 41be
00000110: 2bdd 6fbd 8049 80bb acda 34be e87c 86be
00000120: 3db3 2b3e 119e 3b3e 5158 6a3e 8bba 523e
00000130: b7f2 493e 45af 883e d6f3 ebbd 56e7 5b3d
00000140: 6896 643e 8103 0bbe db1e 3abe 12e7 59be
00000150: 4cf5 ed3c 7436 3cbe 83d1 7cbc 17f1 abbc
00000160: fe5d b93d d545 ce3a a305 c1bd 0946 c1bb
00000170: 48db da3d fff1 243d 2254 893e 83c3 31be
00000180: 978e de3d aa21 593e 35f8 bb3c cd67 67bc
00000190: 91e5 1cbe 3b3f 51be 390e a9bb e8ac 473e
000001a0: 1ee1 583e 3772 643e a9d3 b2bd 0d68 00be
000001b0: fe45 16bd c466 833e d4ef aa3c 13c7 1b3e
000001c0: dcf3 963e d1e1 ecbc 0942 3dbc c710 713e
000001d0: c3e1 5abc 2cf1 38bc c7a2 5abd 2d82 42bd
000001e0: 98fc bcbc 5be9 0b3e b255 c1bd 9ad3 f03c
000001f0: 7bbf 73bd 408c b53c c2a8 3ebe 2b73 34be
00000200: ae88 8abe b2a3 78bd 7e77 53be b8f3 e9bd
00000210: 5e82 1fbe 9ad4 a63d 40b5 e43d c8dc 713e
00000220: 34b4 13be 993a 87be 8bce 973c 1469 153d
00000230: 709d 023e 7ae5 2c3e 60a9 b03d e826 7bbe
00000240: ae61 723e ec37 afbd f89b 8abd 92e9 dbbd
00000250: 16cc 00be d930 86bd 7f17 733e 26bd 59bd
00000260: c327 cfbd 19ed cfbd 6624 653d f34e 4f3d
00000270: f278 453e 0987 65bc f37d 55be 63ee d8bd
00000280: 3d03 2abd 9b13 4b3e 385a 61be e0ef 15be
00000290: 09a5 b9bc 6c08 fd3c 7b24 36bd e3ec 75be
000002a0: 66c1 aa3c fbbc a1bd 7c9b 1fbe e82d 113e
000002b0: 9def 9b3a fdd5 39be 95cf 8fbd 730a fbbd
000002c0: d312 0bbe 8183 f7bd 6f24 b43c 6758 b1bd
000002d0: a87f 4abd 1b36 bd3d d0f3 29be 6694 18bd
000002e0: b60b c5bd d6f0 01be ac36 87bd 7571 3a3e
000002f0: 9529 a6bd e126 983e 473f b6be 1eff 723d
00000300: b878 b9bd 76e4 c0be e027 94be e349 ad3d
00000310: 9017 a33e f3fc 523e c665 733e 5fe6 57be
00000320: 2672 3a3e 0311 ecbd 2cba 63be e803 423c
00000330: 2891 f83c 6d1d 2c3e fff6 a63d 1bbf 503d
00000340: 2054 cabc cc22 553d 632c 5e3d 14b0 213d
00000350: a3c1 8ebd b4ce d2bc 3ca9 08be 3899 bbbd

conv1.bias f4 [8]
-0.19490269 -0.37411168 0.22190358 -0.22516412 0.009526956 -0.21071851 -0.39546606 -0.088378884
00000000: 9294 47be 918b bfbe b13a 633e 6c91 66be
00000010: f316 1c3c 98c6 57be 877a cabe fdff b4bd

conv2.weight f4 [16, 8, 3, 3]
0.11467068 0.1321113 0.25378615 -0.08848907 -0.092022456 -0.019884394 -0.010471048 0.034364518
-0.14346647 -0.15697986 -0.24107817 -0.12207399 -0.21068095 -0.05994617 -0.14871395 0.08955857
0.124231204 -0.100257166 0.064635254 -0.14485945 -0.053506985 -0.22712912 -0.078198165 -0.1438867
0.14915921 0.15448138 0.043581646 -0.09771297 -0.18914308 -0.10749521 0.085913144 0.09339017
-0.07348312 0.32858664 0.24233927 0.16492331 -0.1508472 -0.14153737 0.098720714 0.028797485
0.095897146 0.07978519 0.11110551 0.030582568 -0.11834051 0.2545698 0.01564167 0.28729942
0.073202856 -0.08005286 0.15499404 0.12861551 0.15259668 0.09156875 -0.27807257 -0.25401804
-0.110196576 -0.04265984 -0.24222547 -0.13069291 -0.12595528 0.04167393 -0.15682963 0.20138855
0.0136132445 0.25865543 0.24655129 -0.09304423 0.101017036 0.19286263 -0.14943759 0.04968333
0.16870451 0.0846103 0.041876137 -0.20214061 -0.14004834 0.06287547 -0.13942719 -0.06567237
-0.072981045 -0.21203278 -0.1896909 -0.21640907 -0.15421662 -0.024636101 -0.01591332 0.08718761
0.07207912 0.03642982 -0.053571906 -0.20508465 -0.031068427 -0.33321714 -0.21241099 0.024278095
-0.21719228 -0.004341894 0.0070259804 0.055686377 0.16101485 0.12871379 -0.0646057 -0.19631778
-0.002500324 -0.12629272 0.02430093 -0.14878872 0.11802442 0.098658696 -0.05640733 0.014023893
0.03337055 -0.07402689 0.12147054 -0.054530364 -0.064659394 -0.06424909 0.14429204 0.049143694
-0.09708935 0.009427929 0.060273193 0.073863626 -0.09133589 -0.008354769 0.03927427 0.17312045
0.036725994 -0.1747526 -0.034533728 -0.11061625 -0.016330082 -0.15191396 -0.20672317 0.009993003
0.052301537 0.15645546 0.042516485 -0.1325539 -0.22572008 0.13025297 -0.0610863 -0.054524884
-0.1170136 -0.17323181 -0.13356537 -0.28033504 -0.38820654 -0.052861385 0.029729595 -0.081098706
-0.26001483 -0.13891806 -0.40272886 -0.23067793 -0.18067116 -0.33070427 -0.2061433 0.17789051
0.20876208 0.3175026 -0.16641358 -0.04308643 -0.04394159 -0.008762345 0.17143013 -0.0010367377
0.04627814 -0.21087728 -0.16091605 -0.16305529 -0.3968809 -0.36637795 -0.14306815 -0.30663177
-0.46291178 -0.023805449 0.05246034 0.13514756 -0.10884415 -0.03902645 -0.19781984 -0.048937526
-0.2600479 -0.09383318 -0.028910644 0.06437263 0.09969911 0.04832257 0.18035936 -0.07116194
-0.072637595 0.036197707 -0.085390486 0.019867612 -0.10595147 -0.030319197 -0.34358045 -0.33768153
-0.17094891 -0.24148837 -0.18726408 -0.16100022 -0.032334846 -0.06394313 -0.048837103 0.11368357
0.0038328632 -0.1029727 -0.21244343 -0.05220982 -0.048968833 0.15433325 0.014743758 0.07526056
-0.37951106 -0.27508378 -0.3968068 -0.1810393 -0.04244668 -0.2052345 -0.046565298 -0.20599276
-0.07571824 -0.12999381 -0.099021815 -0.17623076 0.041996144 0.04481905 -0.031227628 0.2091996
0.16619182 0.118390925 -0.14396177 -0.11782952 -0.020091994 -0.27825376 -0.27260113 -0.2110922
-0.14711726 -0.21448526 -0.11868354 -0.18365219 -0.10583046 -0.21482928 -0.057987984 -0.079851046
-0.07317598 -0.13668166 -0.07263327 -0.09085983 0.05480121 0.039331574 0.118090495 0.09695471
00000000: 76d8 ea3d 2f48 073e 42f0 813e c239 b5bd
00000010: 4576 bcbd 99e4 a2bc c28e 2bbc cfc1 0c3d
00000020: e0e8 12be 54bf 20be 32dd 76be ee01 fabd
00000030: bfbc 57be 1d8a 75bd 7848 18be 7c6a b73d
00000040: ee6c fe3d a153 cdbd 7d5f 843d 0956 14be
00000050: 242a 5bbd 8994 68be 5c26 a0bd 0957 13be
00000060: 31bd 183e 5e30 1e3e ab82 323d bd1d c8bd
00000070: b9ae 41be 7326 dcbd 3bf3 af3d 5843 bf3d
00000080: 517e 96bd 823c a83e c927 783e a8e1 283e
00000090: b077 1abe 2cef 10be 162e ca3d b4e8 eb3c
000000a0: b965 c43d 6b66 a33d 498b e33d 4b88 fa3c
000000b0: 825c f2bd f956 823e f622 803c e918 933e
000000c0: 61eb 953d c1f2 a3bd c2b6 1e3e c9b3 033e
000000d0: 4e42 1c3e 6688 bb3d 875f 8ebe a70e 82be
000000e0: beae e1bd 16bc 2ebd f409 78be 5dd4 05be
000000f0: 6cfa 00be 48b2 2a3d f297 20be cd38 4e3e
00000100: 160a 5f3c 7c6e 843e f177 7c3e f98d bebd
00000110: 05e2 ce3d c87d 453e 2b06 19be bf80 4b3d
00000120: e0c0 2c3e 2a48 ad3d 5086 2b3d f3fd 4ebe
00000130: d568 0fbe dbc4 803d 00c6 0ebe 3c7f 86bd
00000140: 1677 95bd 1f1f 59be 553e 42be 579a 5dbe
00000150: f6ea 1dbe a6d1 c9bc a75c 82bc 6b8f b23d
00000160: 389e 933d 6f37 153d 376e 5bbd b601 52be
00000170: 3783 febc 709b aabe 4482 59be dbe2 c63c
00000180: a767 5ebe 7246 8ebb 323a e63b 6617 643d
00000190: 14e1 243e 8ccd 033e fe4f 84bd 8707 49be
000001a0: 7adc 23bb e152 01be be12 c73c 125c 18be
000001b0: cab6 f13d 920d ca3d 5f0b 67bd 78c4 653c
000001c0: 8faf 083d 699b 97bd 8cc5 f83d 3b5b 5fbd
000001d0: 256c 84bd 0795 83bd 4bc1 133e e64a 493d
000001e0: c8d6 c6bd 9a77 1a3c 06e1 763d d045 973d
000001f0: 500e bbbd 71e2 08bc 0fde 203d 7d46 313e
00000200: ff6d 163d 58f2 32be 3d73 0dbd c68a e2bd
00000210: aac6 85bc 558f 1bbe 3daf 53be b1b9 233c
00000220: 233a 563d dc35 203e c425 2e3d 36bc 07be
00000230: 2a23 67be 0961 053e a135 7abd 7c55 5fbd
00000240: d4a4 efbd ae63 31be 5cc5 08be 1388 8fbe
00000250: 02c3 c6be 2e85 58bd 7b8b f33c 1417 a6bd
00000260: aa20 85be 8940 0ebe 7a32 cebe d636 6cbe
00000270: dc01 39be 1252 a9be 3b17 53be ee28 363e
00000280: bac5 553e b38f a23e 5268 2abe 657b 30bd
00000290: 19fc 33bd f08f 0fbc 618b 2f3e 25e3 87ba
000002a0: 268e 3d3d 37f0 57be 2dc7 24be f7f7 26be
000002b0: f933 cbbe e495 bbbe 7580 12be d7fe 9cbe
000002c0: c602 edbe a503 c3bc a7e0 563d 1f64 0a3e
000002d0: afe9 debd 33da 1fbd 4991 4abe b772 48bd
000002e0: 0025 85be 9c2b c0bd 04d6 ecbc ccd5 833d
000002f0: 0c2f cc3d e3ed 453d 20b0 383e 5abd 91bd
00000300: 05c3 94bd 0c44 143d 35e1 aebd 67c1 a23c
00000310: 16fd d8bd f75f f8bc c7e9 afbe 98e4 acbe
00000320: 3b0d 2fbe ba48 77be 28c2 3fbe 3edd 24be
00000330: 8b71 04bd 9ef4 82bd 6a09 48bd eed2 e83d
00000340: c630 7b3b 5ae3 d2bd c58a 59be f7d9 55bd
00000350: 8b93 48bd 8909 1e3e ce8f 713c 3522 9a3d
00000360: 464f c2be c8d7 8cbe 432a cbbe 5e62 39be
00000370: 92dc 2dbd fe28 52be 41bb 3ebd c4ef 52be
00000380: 2a12 9bbd 191d 05be f3cb cabd d675 34be
00000390: 2604 2c3d 2e94 373d 15d1 ffbc 6c38 563e
000003a0: 302e 2a3e f176 f23d b76a 13be 9a50 f1bd
000003b0: f797 a4bc 4777 8ebe 6092 8bbe 8e28 58be
000003c0: e8a5 16be 06a2 5bbe 5b10 f3bd 520f 3cbe
000003d0: a4bd d8bd 35fc 5bbe cf84 6dbd f288 a3bd
000003e0: 4add 95bd 47f6 0bbe c0c0 94bd b814 babd
000003f0: 3c77 603d 251a 213d 6ed9 f13d 3190 c63d

conv2.bias f4 [16]
-0.010436149 0.1640516 0.15052067 -0.13147931 0.24896356 0.089419544 -0.075900085 0.0025834972
0.2906216 0.0037951956 0.04923688 -0.1753083 0.28472328 0.12413756 -0.21132599 -0.12260455
00000000: 62fc 2abc 25fd 273e 1722 1a3e 83a2 06be
00000010: 4ef0 7e3e 9821 b73d 8171 9bbd e44f 293b
00000020: 5bcc 943e d1b8 783b 9cac 493d 0584 33be
00000030: 40c7 913e d53b fe3d d765 58be 1818 fbbd

fc2.weight f4 [12, 8464]
-0.05102118 -0.12582488 -0.07324799 0.050309785 -0.08655471 -0.00623 0.04172505 -0.029918289
0.11375145 -0.18482079 -0.09899542 -0.12191625 -0.13150904 -0.19360925 -0.089864984 0.04901091
0.01246444 -0.010260739 -0.018348012 0.01574211 0.013612741 0.059534688 -0.044612937 0.004234037
-0.07836406 -0.022383254 -0.11278954 0.008999412 0.007701209 0.026649244 -0.018372891 -0.06379982
-0.057056427 -0.0041180816 -0.13264056 -0.0671435 -0.12517166 -0.050742384 0.028078964 0.046304815
0.079336405 0.052857783 0.004675615 0.02300367 0.06790814 0.040807616 -0.03663193 -0.047251035
-0.048913565 -0.017205868 0.08442827 -0.08523996 -0.08079215 -0.11089428 -0.027730288 0.0072115827
0.042653237 0.10371138 0.10234681 0.083296284 0.041071583 -0.10571271 -0.021771528 -0.04237825
0.08745449 0.089430384 -0.004833537 0.14243428 0.052085333 -0.096450344 -0.098874286 0.060171366
0.12713048 -0.037597135 -0.01155015 0.061526466 0.05174879 0.010419155 0.09323509 0.12314857
0.22358231 0.20635274 0.22642305 0.15700014 0.07123923 0.014210566 -0.015990235 0.1030942
0.076248325 -0.011882032 -0.04491005 -0.0655866 0.14618987 0.03526964 0.08560396 0.0067276293
0.078120254 0.14546092 0.192183 0.051456004 0.050099224 0.091587566 -0.037790135 0.052666564
0.031391677 0.0513419 -0.004254408 0.13240175 0.16288619 0.054144748 0.0745686 0.08785873
0.11504646 0.0135101 -0.050745096 -0.047721 0.11931694 0.08705361 0.04573778 0.006584197
-0.021724736 -0.048745427 0.024557352 -0.009523187 0.009660228 0.08090423 0.050712798 -0.06500656
0.037951313 0.047792528 0.04394658 0.18434459 0.04284582 -0.04991908 0.06750709 0.08533937
0.07698731 -0.02055519 0.13080063 0.11102119 0.01173652 0.063744195 0.020348832 0.09364209
-0.020279633 0.08844428 0.033070292 0.050046377 0.022100288 0.04761558 0.02368154 0.034686536
-0.02682951 0.070288226 0.08382056 0.013542448 0.11129334 0.13025212 0.24104469 -0.0431316
-0.011410985 0.035994753 0.05555604 0.064144395 0.025682231 0.1374021 0.06455739 0.032389056
0.032678816 0.049440842 0.15689334 0.09814432 -0.019734982 0.088325344 0.054397035 0.07942831
-0.06744467 0.02800563 0.07151841 0.10367013 -0.08091326 0.2675782 0.12038742 0.045550525
0.015145769 0.046901222 0.15328385 0.053333726 -0.050802063 0.027008599 -0.02299153 0.030251775
0.15371065 0.08293488 0.104595795 0.3088337 0.15455203 0.11746498 0.13757934 0.001921039
0.25365838 0.12984075 0.095531315 -0.01761553 0.09099989 0.1519382 0.037941214 0.052443475
0.15159969 0.13847443 -0.026804557 0.004974799 0.08650174 -0.06586576 -0.013435863 -0.027317757
-0.104738526 -0.023586657 -0.04534891 -0.19706708 -0.17988484 -0.0012612896 0.047504723 0.07446551
0.07230235 -0.023361942 -0.06774997 0.07038753 0.1252294 0.05436961 0.16328298 0.17891125
0.052857522 -0.044417366 -0.038890902 0.07043993 0.03684976 0.06260368 -0.26085532 -0.35801715
-0.3837043 -0.14999534 -0.3346085 -0.2723999 -0.1263349 -0.105979756 0.09153613 0.093646556
0.088532984 -0.076237276 -0.09189781 0.12899442 0.1619834 -0.015815003 0.0031806899 -0.07893213
00000000: 96fb 50bd 3dd8 00be 0b03 96bd a211 4e3d
00000010: 9943 b1bd 0725 ccbb e3e7 2a3d 3317 f5bc
00000020: 85f6 e83d a941 3dbe 1cbe cabd 3aaf f9bd
00000030: 4eaa 06be 8141 46be 220b b8bd aabf 483d
00000040: a737 4c3c a91c 28bc 924e 96bc 99f5 803c
00000050: f907 5f3c a5da 733d 0ebc 36bd adbd 8a3b
00000060: 567d a0bd 165d b7bc 34fe e6bd 4572 133c
00000070: 6c5a fc3b 844f da3c bf82 96bc 7ba9 82bd
00000080: 00b4 69bd f9f0 86bb edd2 07be 8882 89bd
00000090: 002d 00be 3fd7 4fbd db05 e63c 1eaa 3d3d
000000a0: 207b a23d 6781 583d e735 993b 3172 bc3c
000000b0: 6c13 8b3d e325 273d 5d0b 16bd 4d8a 41bd
000000c0: 9759 48bd 52f3 8cbc bbe8 ac3d 4a92 aebd
000000d0: 5b76 a5bd 8a1c e3bd a12a e3bc 244f ec3b
000000e0: 29b5 2e3d a266 d43d 349b d13d 3e97 aa3d
000000f0: ad3a 283d e87f d8bd 345a b2bc d194 2dbd
00000100: 571b b33d 4727 b73d a662 9ebb 4bda 113e
00000110: 6e57 553d c287 c5bd 9a7e cabd 4076 763d
00000120: 7e2e 023e 74ff 19bd d73c 3dbc 2d03 7c3d
00000130: 8af6 533d 1ab5 2a3c 0af2 be3d 5135 fc3d
00000140: c3f2 643e 224e 533e 72db 673e a5c4 203e
00000150: e0e5 913d 6fd3 683c f4fd 82bc 0d23 d33d
00000160: 1528 9c3d dbac 42bc 9af3 37bd 4452 86bd
00000170: ccb2 153e e676 103d 2151 af3d 7273 dc3b
00000180: 83fd 9f3d b5f3 143e 9fcb 443e 88c3 523d
00000190: d834 4d3d 4392 bb3d d4c9 1abd e5b8 573d
000001a0: 8f94 003d e24b 523d 9068 8bbb 5394 073e
000001b0: a3cb 263e e2c6 5d3d 6cb7 983d 47ef b33d
000001c0: 7a9d eb3d 7759 5d3c 17da 4fbd 1877 43bd
000001d0: 715c f43d 2a49 b23d 8a57 3b3d 3fc0 d73b
000001e0: 13f8 b1bc 49a9 47bd 802c c93c 2407 1cbc
000001f0: ef45 1e3c 1eb1 a53d 39b8 4f3d 2922 85bd
00000200: d672 1b3d 19c2 433d 5401 343d d4c4 3c3e
00000210: 197f 2f3d f377 4cbd 2841 8a3d 68c6 ae3d
00000220: 86ab 9d3d 5c63 a8bc 9af0 053e 145f e33d
00000230: 884a 403c 518c 823d 98b2 a63c 6dc7 bf3d
00000240: 7921 a6bc 4622 b53d b774 073d 6efd 4c3d
00000250: aa0b b53c 8e08 433d caff c13c 7813 0e3d
00000260: 90c9 dbbc 46f3 8f3d 1daa ab3d 25e1 5d3c
00000270: c3ed e33d d060 053e 6bd4 763e c3aa 30bd
00000280: 24f5 3abc 3c6f 133d bb8e 633d 235e 833d
00000290: 8b63 d23c 23b3 0c3e aa36 843d 63aa 043d
000002a0: 39da 053d 7b82 4a3d a6a8 203e e4ff c83d
000002b0: 42ab a1bc ebe3 b43d 6dcf 5e3d 4fab a23d
000002c0: 6e20 8abd 106c e53c 3f78 923d 0151 d43d
000002d0: dab5 a5bd 0300 893e ae8d f63d 3093 3a3d
000002e0: f625 783c 7f1b 403d 71f6 1c3e 7774 5a3d
000002f0: d315 50bd 2341 dd3c bc58 bcbc 92d2 f73c
00000300: 5366 1d3e c3d9 a93d 5236 d63d 731f 9e3e
00000310: e342 1e3e 7b91 f03d 99e1 0c3e 5fcb fb3a
00000320: 83df 813e f9f4 043e eca5 c33d 724e 90bc
00000330: 265e ba3d b095 1b3e 3f68 1b3d f8ce 563d
00000340: f33c 1b3e 3ecc 0d3e 3b95 dbbc a403 a33b
00000350: d327 b13d a1e4 86bd 1822 5cbc 7dc9 dfbc
00000360: 2781 d6bd ce38 c1bc c7bf 39bd f4cb 49be
00000370: bb33 38be db51 a5ba 5094 423d 6081 983d
00000380: 4113 943d 8b61 bfbc 7fc0 8abd 5627 903d
00000390: 233c 003e abb2 5e3d a733 273e 8334 373e
000003a0: 2181 583d fcee 35bd 114c 1fbd cf42 903d
000003b0: c6ef 163d 5c36 803d d48e 85be 064e b7be
000003c0: e474 c4be 6198 19be ce51 abbe 0078 8bbe
000003d0: f05d 01be ea0b d9bd 4b77 bb3d c4c9 bf3d
000003e0: c850 b53d 4a22 9cbd eb34 bcbd 1d17 043e
000003f0: fade 253e 778e 81bc 1f73 503b 2ba7 a1bd

fc2.bias f4 [12]
-0.20087698 0.04550018 -0.11379543 -0.09410346 -0.0030663763 0.04143094 -0.04348053 0.27870798
0.007524877 -0.051330455 0.15998717 -0.054733757
00000000: b2b2 4dbe 665e 3a3d 940d e9bd 51b9 c0bd
00000010: 42f5 48bb 7db3 293d a418 32bd d0b2 8e3e
00000020: 3e93 f63b e23f 52bd add3 233e 8130 60bd
