test_models/100epoch_5fold_2conv_normalized_model04.pt (torch, 414335 bytes, 6 tensors)

conv1.weight f4 [8, 3, 3, 3]
-0.1358899 0.18098846 0.08929333 0.07092475 -0.12389573 -0.11665362 -0.16321112 -0.24163704
-0.07774931 -0.043820743 0.09386222 -0.13108867 -0.006393355 -0.20714833 0.0064454796 -0.2036957
-0.024526207 -0.03119856 -0.077922754 -0.035826113 0.04963167 0.04119499 -0.12240581 0.09842361
-0.08299657 0.008262557 -0.10536569 0.2441335 0.31197888 -0.06278978 0.361111 -0.08918314
0.18767995 -0.041260134 -0.048853103 -0.06153607 0.16135105 -0.0042424807 0.32111198 0.057855345
-0.06636532 -0.10693824 0.12502226 -0.022034304 0.26822263 -0.27220958 -0.31526735 -0.27473527
-0.3401252 -0.28893882 -0.07240768 -0.013992954 -0.15200572 -0.08904596 0.03837736 -0.14305472
0.25537798 -0.34814522 -0.08452571 -0.049676403 0.07194361 0.30925524 0.06849871 0.16954027
-0.21207473 0.070217274 -0.29775417 0.013539002 0.02253367 -0.008379789 0.0937487 0.11604511
0.027322479 0.063602336 0.089131355 -0.29955322 -0.040639583 0.029671632 -0.019591212 0.13944325
-0.12646443 -0.06668159 -0.124701455 0.2307884 0.15694296 -0.25799528 -0.23086947 0.07673664
-0.2048012 0.023052983 -0.13840196 0.27854905 0.22393896 -0.072268285 -0.029374095 0.13609482
-0.050013945 -0.15670039 -0.009951901 0.13584943 -0.05811874 -0.12942985 0.0968698 -0.041393004
0.083617926 0.09128772 0.09006881 -0.1541849 -0.070118695 -0.21125779 0.002616012 -0.066093475
-0.13069564 0.021892566 -0.07199882 -0.03914103 -0.19799 0.035547983 0.15531398 0.025823252
0.115169846 0.06781757 0.18604152 0.016294416 -0.0836361 0.2113066 0.20512924 0.22225122
0.27612934 0.08942182 0.24698626 0.24096133 0.027938316 0.2243236 0.1653584 -0.21023501
-0.20807357 -0.16246797 -0.093259685 -0.14243335 -0.009472343 -0.2881751 -0.25106323 -0.3223133
-0.08983225 -0.16458263 -0.19148514 0.078437775 0.09963301 -0.061590087 -0.10465996 -0.028380422
-0.07697116 0.10749403 -0.03760696 0.14517207 0.24471809 0.07126876 0.44741324 0.21419992
0.17384847 0.25506335 0.12710562 -0.11691774 0.14655256 -0.019056184 -0.009992456 -0.23888236
-0.24553172 -0.21377869 -0.18472306 0.19770044 0.08317301 0.031471856 -0.18683141 0.08186425
0.049206004 -0.09144413 -0.16347289 -0.14266458 0.19095804 -0.03520978 0.28966084 0.15531603
-0.031300124 -0.054753628 -0.16428918 -0.12764886 -0.24195044 0.26824722 0.10072234 0.12864795
0.20467219 0.083438724 0.18015544 0.19384485 0.046897475 0.18787742 -0.07630605 0.12829782
0.08418589 0.13331047 0.10536253 -0.13705137 -0.0035228922 -0.11741959 -0.078611545 -0.03254693
-0.04447854 -0.24860187 -0.080339685 -0.23121718 -0.090334825 -0.02252414 0.0066144504 -0.07293491
00000000: b926 0bbe 0a55 393e 6cdf b63d ff40 913d
00000010: 0bbd fdbd 18e8 eebd d120 27be b36f 77be
00000020: 083b 9fbd 617d 33bd d63a c03d 1c3c 06be
00000030: 597f d1bb b11e 54be 9a34 d33b 9b95 50be
00000040: 2feb c8bc 1f94 ffbc f795 9fbd 67be 12bd
00000050: 944a 4b3d 14bc 283d e6af fabd 5192 c93d
00000060: 1bfa a9bd ad5f 073c f8c9 d7bd 22fe 793e
00000070: b2bb 9f3e ee97 80bd 8ae3 b83e a6a5 b6bd
00000080: 2c2f 403e 6300 29bd 311a 48bd 3f0d 7cbd
00000090: 3639 253e 8204 8bbb ca68 a43e baf9 6c3d
000000a0: 8aea 87bd 7002 dbbd d605 003e 4981 b4bc
000000b0: 7a54 893e 0e5f 8bbe b96a a1be 1aaa 8cbe
000000c0: e424 aebe caef 93be 7a4a 94bd b442 65bc
000000d0: 63a7 1bbe ba5d b6bd 9431 1d3d f07c 12be
000000e0: e7c0 823e 1740 b2be d11b adbd 7c79 4bbd
000000f0: 2c57 933d b456 9e3e 0d49 8c3d f79b 2d3e
00000100: 1e2a 59be 13ce 8f3d 3c73 98be b1d2 5d3c
00000110: 8898 b83c 624b 09bc 52ff bf3d 0fa9 ed3d
00000120: 64d3 df3c f141 823d 808a b63d 0a5f 99be
00000130: b175 26bd ec11 f33c c07d a0bc 36ca 0e3e
00000140: e47f 01be 5c90 88bd 7a63 ffbd cb53 6c3e
00000150: a8b5 203e f517 84be 0c69 6cbe 1928 9d3d
00000160: 68b7 51be 9cd9 bc3c 3eb9 0dbe fb9d 8e3e
00000170: 4150 653e 6501 94bd f1a1 f0bc 715c 0b3e
00000180: 6cdb 4cbd 1176 20be 4c0d 23bc 1d1c 0b3e
00000190: ea0d 6ebd 4289 04be ac63 c63d b68b 29bd
000001a0: e03f ab3d 0ef5 ba3d ff75 b83d a5e2 1dbe
000001b0: 649a 8fbd f653 58be 6671 2b3b 045c 87bd
000001c0: 14d5 05be 0a58 b33c 1e74 93bd 5852 20bd
000001d0: e4bd 4abe c39a 113d a10a 1f3e 498b d33c
000001e0: 2bde eb3d f0e3 8a3d ab81 3e3e de7b 853c
000001f0: 6749 abbd c260 583e 660d 523e d395 633e
00000200: d360 8d3e ca22 b73d f7e9 7c3e 91be 763e
00000210: e5de e43c 16b5 653e b653 293e d947 57be
00000220: 3d11 55be 015e 26be effe bebd 0cda 11be
00000230: e331 1bbc b08b 93be 5c8b 80be 4006 a5be
00000240: f8f9 b7bd 5988 28be ae14 44be fca3 a03d
00000250: 640c cc3d e345 7cbd f657 d6bd 0f7e e8bc
00000260: 0ea3 9dbd d425 dc3d c109 1abd fda7 143e
00000270: 6197 7a3e 5bf5 913d 5913 e53e 3957 5b3e
00000280: 5505 323e aa97 823e fa27 023e 9172 efbd
00000290: e011 163e b71b 9cbc 66b7 23bc 949d 74be
000002a0: ab6c 7bbe cde8 5abe 0b28 3dbe fc71 4a3e
000002b0: 9c56 aa3d a2e8 003d bc50 3fbe 72a8 a73d
000002c0: 3c8c 493d 0f47 bbbd 7065 27be aa16 12be
000002d0: 818a 433e 2138 10bd 6d4e 943e 2a0b 1f3e
000002e0: 8f34 00bd 5745 60bd 6c3b 28be 62b6 02be
000002f0: dbc1 77be b357 893e 8447 ce3d 4abc 033e
00000300: 9695 513e ece1 aa3d ab7a 383e 447f 463e
00000310: 9117 403d f062 403e 5946 9cbd 8160 033e
00000320: a769 ac3d 8a82 083e 4fc8 d73d 3257 0cbe
00000330: 53e0 66bb af79 f0bd 17ff a0bd ee4f 05bd
00000340: 212f 36bd 7d91 7ebe 2289 a4bd 32c4 6cbe
00000350: 7701 b9bd 8c84 b8bc 08be d83b e65e 95bd

conv1.bias f4 [8]
0.07821689 -0.13659245 -0.18327883 0.18112114 -0.3299742 -0.040502317 -0.31123883 -0.16191551
00000000: 2d30 a03d e4de 0bbe 72ad 3bbe d277 393e
00000010: 61f2 a8be c2e5 25bd b25a 9fbe 2ecd 25be

conv2.weight f4 [16, 8, 3, 3]
-0.401081 -0.08876731 -0.44171837 -0.30790344 -0.32738262 -0.50858665 -0.06029584 -0.21477662
-0.27238077 0.2509722 0.18704051 0.28664765 0.026715824 -0.03835748 0.13337053 0.10522614
0.15882085 0.12207182 -0.12792315 -0.29835555 -0.15996344 -0.12527667 -0.2816712 -0.29703808
-0.24020578 -0.38639182 -0.49379387 0.2111275 -0.049725898 0.06015588 0.009361154 -0.122129954
-0.039363828 0.068621226 -0.08432448 -0.17917241 0.15667365 0.008188675 0.20758267 -0.09835763
-0.100611106 -0.058011506 -0.30576178 -0.27841088 -0.17783509 -0.3849966 -0.28329057 -0.5184967
0.009417179 -0.08727362 -0.047911618 -0.10237018 -0.2632644 -0.3825064 -0.12584586 -0.032594457
-0.14377192 -0.1740321 -0.081372 -0.20288286 -0.23906162 -0.39772445 -0.40956628 -0.0055484995
0.14392501 0.13270372 -0.0026612366 0.029692218 0.061982185 -0.25523487 -0.0832092 -0.07319711
0.03801753 0.098549224 0.12731297 0.19470814 0.10598325 -0.100853264 -0.11013013 0.079597436
-0.15595938 -0.0405747 0.059898086 0.22643258 -0.37185255 -0.61733806 -0.47551602 -0.06885654
-0.16834001 -0.13810004 -0.14857794 -0.03424819 -0.09342559 -0.031797793 0.02617555 -0.19806793
-0.1372449 -0.03371672 -0.1691683 0.14576387 -0.026825555 0.073979735 -0.0361746 -0.04697754
0.10217844 -0.2667038 -0.19429824 -0.097251974 -0.111748695 -0.14826962 -0.03785016 0.024812883
-0.10756723 -0.15854667 0.1781924 0.16678846 0.018644968 -0.009564926 0.12539852 -0.16148087
-0.44173646 -0.38667086 -0.5077045 -0.2320004 -0.2943638 -0.5230842 -0.04100345 -0.24964944
-0.30456728 -0.13623582 -0.3867734 -0.29554647 -0.408479 -0.20525056 -0.107145295 0.06984019
0.06323056 -0.10884651 0.044173684 -0.052797027 -0.047143318 0.1782431 0.16047908 0.1503078
-0.022578485 -0.04748322 -0.059764422 -0.079323225 0.08886593 -0.1116401 0.00970719 -0.04735345
0.011491707 0.088943325 0.07938878 0.04490397 -0.06516122 0.049852446 -0.10128679 -0.1478474
-0.06140725 -0.12367805 -0.12672752 0.06714819 0.00091551954 0.11909819 0.029226735 0.12647636
-0.031783868 -0.08436 -0.049743887 -0.02759462 0.025712961 -0.008901669 -0.073418684 -0.11130225
-0.013351975 -0.06424141 0.047797162 0.056208648 -0.060618285 -0.10595966 0.08437418 0.06540901
0.07479787 -0.029214097 -0.11223054 -0.18327102 -0.14110456 0.057294395 0.053194504 -0.116196945
-0.124919005 -0.010351144 -0.105438605 -0.0029960517 -0.049118765 -0.0902139 -0.10293829 0.060255107
-0.028659828 0.12862553 -0.104100496 -0.12158628 0.053339798 0.090753034 -0.09467706 -0.0280784
0.018456692 -0.12753609 -0.042281635 -0.1086692 -0.14230895 -0.08062327 -0.17093286 0.030866543
0.30818585 -0.07862708 -0.39702332 0.2447601 -0.25238886 -0.30022773 0.17209278 -0.089315325
-0.28840095 -0.16503131 -0.2510946 -0.16758956 -0.10038997 -0.13693541 0.13810627 -0.11641805
0.0028849076 0.14054087 0.21536438 0.052736666 -0.021692548 0.008047208 0.010493607 -0.106104776
0.09307665 -0.020476116 0.10489049 0.0114868805 -0.23517291 -0.4060272 0.075581275 -0.45981705
-0.17638612 -0.06297997 -0.3558735 -0.08434792 -0.21124417 -0.09697765 -0.121413715 -0.032208055
00000000: 7d5a cdbe a3cb b5bd e928 e2be 85a5 9dbe
00000010: b29e a7be bc32 02bf c5f8 76bd 67ee 5bbe
00000020: 7e75 8bbe 6e7f 803e 8c87 3f3e 7bc3 923e
00000030: 25db da3c bc1c 1dbd 4992 083e cd80 d73d
00000040: efa1 223e ca00 fa3d 49fe 02be 0fc2 98be
00000050: 75cd 23be 8748 00be 3537 90be 6015 98be
00000060: 81f8 75be 26d5 c5be 8dd2 fcbe cf31 583e
00000070: 62ad 4bbd 0366 763d 875f 193c 451f fabd
00000080: f73b 21bd 4989 8c3d 50b2 acbd f978 37be
00000090: 0f6f 203e cb29 063c 8d90 543e ba6f c9bd
000000a0: 320d cebd 799d 6dbd cf8c 9cbe df8b 8ebe
000000b0: 671a 36be 461e c5be 760b 91be 33bc 04bf
000000c0: 834a 1a3c 83bc b2bd f93e 44bd 75a7 d1bd
000000d0: 97ca 86be e1d7 c3be bddd 00be c481 05bd
000000e0: f238 13be 7935 32be 5da6 a6bd 86c0 4fbe
000000f0: 92cc 74be 8aa2 cbbe acb2 d1be 30d0 b5bb
00000100: 1461 133e 7ce3 073e 2468 2ebb 183d f33c
00000110: 08e1 7d3d 25ae 82be 9669 aabd 5ee8 95bd
00000120: 45b8 1b3d 2dd4 c93d 555e 023e 9261 473e
00000130: bf0d d93d 288c cebd e88b e1bd fb03 a33d
00000140: d1b3 1fbe a831 26bd b257 753d f1dd 673e
00000150: 7563 bebe de09 1ebf d676 f3be a804 8dbd
00000160: 5361 2cbe 196a 0dbe d124 18be d447 0cbd
00000170: ea55 bfbd 673e 02bd 1b6e d63c 52d2 4abe
00000180: ed89 0cbe 8b1a 0abd 743a 2dbe 2043 153e
00000190: 44c1 dbbc b082 973d d12b 14bd 856b 40bd
000001a0: ee42 d13d 678d 88be 1ef6 46be 0b2c c7bd
000001b0: 80dc e4bd fed3 17be c508 1bbd 6344 cb3c
000001c0: 354c dcbd 0f5a 22be 1278 363e 98ca 2a3e
000001d0: 55bd 983c 35b6 1cbc 7868 003e 3e5b 25be
000001e0: 482b e2be b9f9 c5be ecf8 01bf 8391 6dbe
000001f0: dab6 96be d9e8 05bf 3cf3 27bd 1aa4 7fbe
00000200: 3ef0 9bbe 6781 0bbe 2a07 c6be de51 97be
00000210: 2924 d1be 342d 52be fe6e dbbd 6008 8f3d
00000220: 067f 813d ebea debd 77ef 343d b241 58bd
00000230: 5a19 41bd 5c85 363e a154 243e 4aea 193e
00000240: 84f6 b8bc c47d 42bd 8acb 74bd 3774 a2bd
00000250: 57ff b53d 91a3 e4bd e80a 1f3c b1f5 41bd
00000260: b647 3c3c eb27 b63d 9696 a23d 3aed 373d
00000270: 3f73 85bd 1432 4c3d 736f cfbd 4f65 17be
00000280: 2b86 7bbd eb4a fdbd dcc4 01be fe84 893d
00000290: 7aff 6f3a c0e9 f33d e86c ef3c 0583 013e
000002a0: cd2f 02bd f0c4 acbd 3fc0 4bbd 1d0e e2bc
000002b0: fda3 d23c 4ed8 11bc 895c 96bd 6ff2 e3bd
000002c0: 3ec2 5abc 0091 83bd f5c6 433d 0a3b 663d
000002d0: e14a 78bd 6101 d9bd 5fcc ac3d 29f5 853d
000002e0: a02f 993d 6752 efbc 20d9 e5bd 66ab 3bbe
000002f0: b77d 10be 87ad 6a3d 7be2 593d aaf8 edbd
00000300: 89d5 ffbd d897 29bc 32f0 d7bd 6859 44bb
00000310: c230 49bd 11c2 b8bd 4fd1 d2bd 0fce 763d
00000320: 04c8 eabc 69b6 033e a432 d5bd 3a02 f9bd
00000330: d57a 5a3d badc b93d 0ce6 c1bd ac04 e6bc
00000340: 7d32 973c d298 02be 822f 2dbd f58d debd
00000350: 70b9 11be d01d a5bd 0609 2fbe d5db fc3c
00000360: 89ca 9d3e 3c07 a1bd a446 cbbe 64a2 7a3e
00000370: 1d39 81be 73b7 99be 1739 303e f4ea b6bd
00000380: 4aa9 93be f8fd 28be 798f 80be 999c 2bbe
00000390: 4299 cdbd cc38 0cbe bb6b 0d3e 966c eebd
000003a0: b810 3d3b f2e9 0f3e 7b88 5c3e 6702 583d
000003b0: 92b4 b1bc 70d8 033c 61ed 2b3c 764d d9bd
000003c0: f89e be3d 87bd a7bc d3d0 d63d 7833 3c3c
000003d0: 2bd1 70be cce2 cfbe 5bca 9a3d 246d ebbe
000003e0: 909e 34be a4fb 80bd 0d35 b6be 9abe acbd
000003f0: 6450 58be 389c c6bd c1a7 f8bd 98ec 03bd

conv2.bias f4 [16]
0.17138495 0.06964904 -0.1007264 0.039646886 0.08435525 0.0037802344 -0.2737125 -0.08832521
-0.23120326 0.081765845 0.15189219 0.4023356 -0.10883636 -0.06645811 0.3812135 0.11571692
00000000: 897f 2f3e 28a4 8e3d a549 cebd c664 223d
00000010: 72c2 ac3d cfbd 773b 0b24 8cbe d9e3 b4bd
00000020: 8cc0 6cbe da74 a73d a089 1b3e effe cd3e
00000030: 99e5 debd 311b 88bd 6a2e c33e fefc ec3d

fc2.weight f4 [12, 8464]
-0.10663518 -0.09866498 -0.09227226 -0.066970274 0.009080949 -0.012290519 0.073923446 0.13379014
0.14309725 0.22222556 0.23679247 0.08479244 0.19095838 0.08040043 0.23322351 0.20756401
0.16441664 -0.006188105 -0.026570074 -0.036023572 -0.10881695 -0.12628429 -0.2290421 -0.10916812
-0.04287511 0.0962081 0.10709011 0.031637233 0.12893386 0.05938509 0.0027286194 0.17891622
0.11731691 0.107595846 0.069670804 0.07222343 0.043147117 0.06027985 0.13218069 0.10905083
0.062361024 0.13257764 0.021412011 0.062648736 -0.0069235777 -0.15220933 -0.10545454 0.08314659
0.1235909 0.18604061 0.21903801 0.0872228 -0.012631481 0.067325264 0.10266754 0.13977733
0.021794328 0.097707756 0.095113106 -0.00134441 0.102603056 0.17670709 0.18557657 0.12428882
0.12374263 0.039241508 0.048417233 -0.067189075 -0.085053 0.06691934 0.11315346 -0.0036136347
0.13101189 0.15238392 0.13835694 0.07192738 -0.02887594 0.08633017 0.07712336 -0.028258212
-0.07293119 0.08983981 0.11498624 -0.0060384306 -0.05018559 0.1412231 0.083523 0.13978244
0.13802171 0.03181957 0.06530324 0.09875629 0.01415311 0.13655783 -0.099852584 0.16007374
0.064960614 0.037974313 0.047719225 -0.041250966 0.0355731 -0.007007612 0.011454197 -0.085696146
0.069093 0.12612134 0.004136645 0.006357021 0.13038056 0.0010811776 0.1149489 0.08941569
0.063493274 0.07858785 0.1491796 -0.039527867 0.085270405 0.04305362 0.09662812 0.15023014
-0.0055962256 0.055888776 0.13837323 0.01626294 -0.08358358 0.12249289 0.12229175 0.06919986
0.13258784 0.12266734 0.01081964 0.002264334 0.018411644 0.029623536 -0.0025407197 0.18019766
0.116608605 0.03884573 0.07458855 0.07781497 0.053300172 0.049222875 -0.031999454 0.09712848
0.067511335 0.07253892 -0.051777523 0.074002504 0.091999516 0.06384515 0.105759956 0.0021203104
-0.093677424 -0.0014623981 -0.021363297 -0.008604037 0.03159995 0.15707414 0.09157829 0.062910624
0.10732782 0.07224962 0.07915249 0.11871798 -0.055354625 0.035364576 0.082684375 0.08938858
0.09847727 0.16183881 0.1383978 0.23309056 0.18379278 0.21624695 0.18466969 -0.029614823
0.042643048 0.069127895 -0.011590338 -0.03658633 0.0286904 0.1159999 0.089278415 0.072507404
0.1505142 0.0050616213 -0.06855221 0.02632442 -0.04064329 0.006408032 0.03492316 -0.0119601395
0.083443664 0.2351454 0.191966 0.1392955 0.13753551 0.1220784 0.12138972 -0.034442827
0.057675477 -0.0669102 -0.013449329 -0.020102048 0.03803287 0.04149101 0.0058882623 0.06659221
0.10973827 0.13015535 0.06687473 0.0894392 0.024117682 0.005799582 0.043261454 0.123701096
0.11618678 0.07489213 0.06921271 0.09676369 0.0607612 0.0659444 0.039336234 -0.010914691
0.09400049 0.033993855 0.03207172 -0.030041452 0.056687802 0.09536793 0.15906525 0.20489746
0.06382427 -0.10954848 0.089634456 0.012408204 0.08886785 0.10094117 0.04049981 0.06006419
0.072872 -0.07744117 -0.091896445 0.013017611 0.056932453 0.050624914 -0.05576994 0.044666637
0.17815329 0.12076005 -0.0002416219 0.059251197 0.11416182 0.050002877 0.15936472 0.012375236
00000000: 8c63 dabd dd10 cabd 3df9 bcbd b627 89bd
00000010: 43c8 143c 2c5e 49bc 2d65 973d 4800 093e
00000020: 1688 123e 198f 633e ba79 723e a9a7 ad3d
00000030: 988a 433e fba8 a43d 25d2 6e3e a98b 543e
00000040: d65c 283e 96c5 cabb 7ca9 d9bc 748d 13bd
00000050: 6cdb debd ab50 01be 038a 6abe 8993 dfbd
00000060: d09d 2fbd c108 c53d 0f52 db3d 0b96 013d
00000070: 3d07 043e c83d 733d a3d2 323b d035 373e
00000080: d943 f03d 365b dc3d 91af 8e3d e1e9 933d
00000090: 08bb 303d 01e8 763d 605a 073e 0b56 df3d
000000a0: 466e 7f3d 6fc2 073e 3e68 af3c fb4d 803d
000000b0: 2edf e2bb c3dc 1bbe 8df8 d7bd c248 aa3d
000000c0: 3a1d fd3d 6e81 3e3e 804b 603e dea1 b23d
000000d0: 45f4 4ebc d4e1 893d 5c43 d23d ca21 0f3e
000000e0: 058a b23c 011b c83d a9ca c23d ea36 b0ba
000000f0: 8d21 d23d b4f2 343e c907 3e3e 238b fe3d
00000100: c76c fd3d b4bb 203d 2651 463d 6d9a 89bd
00000110: 4430 aebd 020d 893d 00bd e73d bbd2 6cbb
00000120: fb27 063e 880a 1c3e 71ad 0d3e aa4e 933d
00000130: 3c8d ecbc dfcd b03d daf2 9d3d c47d e7bc
00000140: f35c 95bd effd b73d e87d eb3d 07de c5bb
00000150: 688f 4dbd ca9c 103e 1b0e ab3d 2123 0f3e
00000160: 9055 0d3e 3d55 023d b5bd 853d bd40 ca3d
00000170: 72e2 673c d1d5 0b3e 837f ccbd 5fea 233e
00000180: 120a 853d f48a 1b3d 3c75 433d c6f6 28bd
00000190: 19b5 113d 1ca0 e5bb 62aa 3b3c 7681 afbd
000001a0: a180 8d3d f425 013e b18c 873b 8f4e d03b
000001b0: 7b82 053e 4db6 8d3a 546a eb3d 931f b73d
000001c0: c308 823d abf2 a03d 89c2 183e f9e7 21bd
000001d0: 40a2 ae3d fe58 303d f7e4 c53d eed5 193e
000001e0: 8b60 b7bb a1eb 643d b6b1 0d3e db39 853c
000001f0: de2d abbd 8ddd fa3d 1974 fa3d a8b8 8d3d
00000200: 1bc5 073e 0439 fb3d dc44 313c 3865 143b
00000210: 04d4 963c 0fad f23c 3482 26bb bc85 383e
00000220: 7ed0 ee3d b31c 1f3d e2c1 983d 745d 9f3d
00000230: 4851 5a3d ed9d 493d dc11 03bd 4ceb c63d
00000240: 6243 8a3d 498f 943d ab14 54bd a08e 973d
00000250: 3e6a bc3d 3fc1 823d ad98 d83d e8f4 0a3b
00000260: f3d9 bfbd f0ad bfba 1502 afbc f2f7 0cbc
00000270: f36e 013d 0bd8 203e 668d bb3d 49d7 803d
00000280: b0ce db3d 9cf7 933d b31a a23d 6a22 f33d
00000290: 88bb 62bd 72da 103d 6d56 a93d 5c11 b73d
000002a0: 73ae c93d 13b9 253e 27b8 0d3e 4baf 6e3e
000002b0: 2d34 3c3e d76f 5d3e 0d1a 3d3e c99a f2bc
000002c0: 7aaa 2e3d ed92 8d3d 67e5 3dbc 8cdb 15bd
000002d0: 2108 eb3c 5b91 ed3d 9ad7 b63d c37e 943d
000002e0: 6520 1a3e f5db a53b 1a65 8cbd 4fa6 d73c
000002f0: 9479 26bd 78fa d13b 960b 0f3d 76f4 43bc
00000300: 83e4 aa3d f5c9 703e bc92 443e 7ba3 0e3e
00000310: 1cd6 0c3e 3d04 fa3d 2c9b f83d ec13 0dbd
00000320: 1f3d 6c3d 3708 89bd 935a 5cbc 0dad a4bc
00000330: 5bc8 1b3d 7af2 293d 53f2 c03b 7f61 883d
00000340: 75be e03d 7247 053e 9ef5 883d e62b b73d
00000350: 7292 c53c 6c0a be3b ec32 313d 0057 fd3d
00000360: 56f3 ed3d 0c61 993d 65bf 8d3d 0b2c c63d
00000370: bce0 783d dc0d 873d 081f 213d 88d3 32bc
00000380: 5483 c03d 243d 0b3d a35d 033d 7e19 f6bc
00000390: 7831 683d 4350 c33d 00e2 223e a4d0 513e
000003a0: 4db6 823d f45a e0bd 4592 b73d c84b 4b3c
000003b0: 5900 b63d 3eba ce3d 21e3 253d de05 763d
000003c0: ea3d 953d 7a99 9ebd 3434 bcbd d147 553c
000003d0: 0132 693d 125c 4f3d 056f 64bd 5df4 363d
000003e0: d16d 363e 0c51 f73d e35b 7db9 62b1 723d
000003f0: accd e93d d1cf 4c3d 8130 233e 80c1 4a3c

fc2.bias f4 [12]
-0.20560957 -0.09037598 -0.18745846 -0.036609296 0.016364448 -0.0139706675 -0.16760994 0.22996767
0.016921427 -0.08790309 0.21035585 -0.022087175
00000000: 518b 52be 0b17 b9bd 1cf5 3fbe a1f3 15bd
00000010: bc0e 863c 3ae5 64bc f1a1 2bbe a57c 6b3e
00000020: ce9e 8a3c 8906 b4bd 8667 573e 2af0 b4bc
