test_models/100epoch_5fold_2conv_normalized_weighted_model08.pt (torch, 414623 bytes, 6 tensors)

conv1.weight f4 [8, 3, 3, 3]
000000 3b 05 f3 bd 25 01 a1 bd b2 3b 80 3d 13 ba ae 3c
       -0.11866232 -0.078615464 0.06261386 0.021328961
000010 c0 ee 02 be 87 e9 85 bd 0f 26 83 bd a3 7e 10 be
       -0.12786388 -0.065386824 -0.064037435 -0.14110808
000020 c3 ac 0f 3d 5e 31 63 be b6 6e 76 be c4 95 26 3e
       0.035076868 -0.22186801 -0.2406567 0.16268069
000030 cf 33 88 be df aa 5b be d3 23 ee bd 66 bf 44 bc
       -0.26602027 -0.21451901 -0.11627927 -0.012008524
000040 00 0d 4c bd b8 0b 42 3e ea e1 f2 3d 08 34 03 3e
       -0.049817085 0.18949783 0.11859496 0.12812817
000050 e9 07 92 b9 79 fb 24 3e 5b 5e 72 3e 24 b2 21 3d
       -0.00027853184 0.16111554 0.23668806 0.03947653
000060 a9 eb 0e bd 19 2f 3a 3e 6c 9d 03 3e 05 8c 42 3e
       -0.03489271 0.18182029 0.1285302 0.18998726
000070 c0 e0 bd bc 76 62 b9 bc 9a 04 43 3e 01 c1 b4 3d
       -0.023178458 -0.022629958 0.19044724 0.08825875
000080 25 61 30 be 0f cd 3e 3e 41 6f e4 bd c1 45 86 3e
       -0.17224558 0.18632911 -0.111540325 0.26225093
000090 90 5e 14 3e 61 c7 5e 3d df 6d 90 3e bd df de 3d
       0.14489198 0.05438936 0.28208825 0.108825184
0000a0 54 42 bd 3d 71 d9 69 3c 9b f5 dc 3d 71 e5 bf bc
       0.09241167 0.0142730335 0.10789033 -0.023424836
0000b0 5a 67 99 3c f5 90 ac be 42 32 3d be 01 4e 88 be
       0.01872604 -0.33704343 -0.18476203 -0.26622012
0000c0 8a 40 b6 be 4d dd 65 be a3 44 c1 bd 47 8c b4 be
       -0.35596114 -0.22447701 -0.094369195 -0.35263273
0000d0 40 cf e5 bc 3b 9e 48 be 16 7c ea bd 4b 81 01 bd
       -0.028052926 -0.1959161 -0.11449449 -0.031617444
0000e0 06 35 20 be cd 7b 18 bd e3 54 4a be 61 2c 95 be
       -0.15645227 -0.03722744 -0.19758944 -0.2913542
0000f0 dd 67 7e 3c e7 47 03 bd eb de 80 be 05 15 9f bd
       0.015527693 -0.032050993 -0.25170073 -0.07767681
000100 d1 9b 4d 3e 50 b6 25 be 8d a8 85 be a4 97 01 be
       0.2007897 -0.16182828 -0.26105157 -0.12655503
000110 33 d0 72 bd 44 1a 32 be 0e 7f cc bd 5e 3c 92 3c
       -0.059280585 -0.17392832 -0.09985171 0.017851051
000120 18 6e ff 3d c6 1c 8d 3e e0 b1 c7 bd c9 32 80 be
       0.124721706 0.27561015 -0.09750724 -0.25038746
000130 f1 c0 68 be 67 30 4e be ac be 24 3e 0a 65 0e 3e
       -0.22729851 -0.20135652 0.1608836 0.13905731
000140 f4 2b 9f bd e2 ef 05 bd 8e f3 00 3e 3e e2 1e be
       -0.07772055 -0.032699473 0.12592909 -0.15515992
000150 5a 04 39 3e fe 97 88 3d 0f e5 87 bd 2e 3f a4 3d
       0.18068066 0.06669615 -0.06635486 0.08019863
000160 e2 79 dd bb 79 07 23 be 34 97 4a 3e bd 3c 0a bd
       -0.0067589143 -0.1592082 0.19784242 -0.03374933
000170 58 e4 31 3e 6a a0 57 3d 41 d3 af bd bd c1 07 be
       0.17372262 0.052643217 -0.08585215 -0.13257499
000180 18 de 08 be 0b af 1c bd db 43 64 bc 08 26 6d 3e
       -0.13365972 -0.03825287 -0.013932194 0.23159039
000190 84 ee ea 3d f3 78 54 be 8a df fa bc 71 54 02 3e
       0.114712745 -0.20749263 -0.03062417 0.12727524
0001a0 cf 8a a7 bd b6 30 0b 3e 27 0a 1c be 7c 2c 6d be
       -0.081807725 0.135928 -0.15238248 -0.231615
0001b0 50 61 45 be a3 c0 4f be c3 22 84 3e e6 9d 6e 3e
       -0.19275403 -0.20288329 0.2580777 0.23302421
0001c0 41 e5 45 3e 3e 36 3b bd 1a f6 62 be 6e 4a 26 3e
       0.19325735 -0.045706026 -0.22164193 0.1623933
0001d0 72 16 cf be ea b5 09 be 8e c0 81 3d 39 36 ad 3e
       -0.40446812 -0.13448301 0.06335555 0.3383043
0001e0 1d d6 e0 3c 06 d6 6d bd 9a d7 f0 bd 32 96 f5 3c
       0.027445847 -0.058065437 -0.11759873 0.029978845
0001f0 c0 09 d3 3d 2c 9e 27 be 55 9a ca 3d a2 dd c9 3d
       0.10304594 -0.16368932 0.09892718 0.09856726
000200 01 1f 80 b9 06 5a 7c bd 54 db 5d 3d 18 1e c6 bd
       -0.00024437162 -0.06160929 0.054164246 -0.09673709
000210 0a 5e 95 bd 98 74 d6 3a fa 09 90 bd ec 30 32 3e
       -0.07293327 0.0016361652 -0.07033153 0.17401475
000220 21 24 d0 3d 9a 75 27 3e 84 c0 12 3e 9d 90 8c 3e
       0.10163141 0.16353455 0.14331251 0.2745408
000230 97 43 87 3e ff 27 01 3e a9 80 63 3e d9 e5 aa bc
       0.26418754 0.12612914 0.22217049 -0.020861553
000240 aa 57 2d 3d f8 16 ca bd d2 67 b7 bc bd c8 31 3e
       0.04231993 -0.09867662 -0.022388373 0.17361732
000250 88 2f cd 3d 6c 7f 16 be a3 ef f7 bd 57 ad ed bd
       0.100188315 -0.14697045 -0.12106254 -0.116053276
000260 0a 55 d8 bd cc ca c6 bd df 90 83 be 1d 9a df bb
       -0.10563095 -0.09706649 -0.25696465 -0.0068237917
000270 bf e5 a8 ba 40 64 bc bd 99 11 12 be 74 6e 7c bd
       -0.0012885852 -0.09198809 -0.14264525 -0.061628774
000280 87 97 6d bc 3b 60 f0 bd a8 9b 34 3d 6f b2 4d 3d
       -0.014501459 -0.117371045 0.044093758 0.050218996
000290 a9 b8 a6 bd 5f d8 bf bd 70 6d 4b bd ca b6 aa 3e
       -0.0814069 -0.093674414 -0.049664915 0.33342582
0002a0 30 52 a2 bd c4 ab a7 be 07 f2 d5 3d 00 07 68 3d
       -0.07925832 -0.32748234 0.10446554 0.0566473
0002b0 05 e3 e8 bd 8c c7 1c 3e fc 44 2c 3e 7d eb 50 bc
       -0.113714255 0.15310496 0.1682319 -0.012751457
0002c0 b1 a6 a3 3d 69 ca 85 be ac ff 2c be 50 61 5b bd
       0.07990778 -0.2613099 -0.16894406 -0.0535596
0002d0 c7 a6 81 bd 1d 69 41 3e 76 f2 e4 bb 32 ef dd bd
       -0.063306384 0.18887754 -0.0069869114 -0.108366385
0002e0 09 9f 8c bd 21 fc c0 3d e3 e3 09 3e 07 71 03 be
       -0.06866271 0.0942309 0.13465838 -0.12836085
0002f0 4e f5 9f 3d 26 20 94 3d 0b c8 0f 3e f2 d5 d0 bd
       0.0781046 0.07232694 0.14041154 -0.10197057
000300 31 98 e0 bd af 9b 8c 3d 23 64 80 3d 8c 70 1a be
       -0.10966528 0.06865632 0.062690996 -0.15081996
000310 e9 a6 a3 3d 32 b5 bb 3d 16 20 da bb 46 aa 06 be
       0.0799082 0.0916542 -0.006656657 -0.13150892
000320 57 a1 05 bd c1 52 24 3e da 6c 4f bd 50 2e 2a 3e
       -0.03262457 0.16047193 -0.05064092 0.1661923
000330 77 3a 63 3e 70 6e 3b 3e 4c b7 d3 3c c6 a1 ce bd
       0.22190271 0.18303847 0.025844239 -0.100894496
000340 f6 79 4b bd 5d 8a 00 3d ce 8c 3c bd 92 63 a0 bc
       -0.049676858 0.031381954 -0.04603272 -0.019578729
000350 e2 62 ce 3d ac 41 9a 3e 28 b8 07 3e 95 65 a3 3d
       0.10077454 0.3012823 0.13253844 0.079783596

conv1.bias f4 [8]
000000 ae 6f ca 3e 4b 9f ec 3d 98 62 b4 be 6c ac c9 bd
       0.3953833 0.1155382 -0.3523147 -0.0984734
000010 8a a4 c0 bc 27 d3 65 bd ab 4c 16 3e 92 ab db be
       -0.023515958 -0.056109574 0.14677684 -0.42904335

conv2.weight f4 [16, 8, 3, 3]
000000 1e 41 44 bd eb 0e df 3c d8 a3 3b 3e 6c a6 4a 3d
       -0.047913663 0.027228793 0.1832422 0.04947512
000010 9a 60 72 3c a6 05 01 3e ef 78 35 3d 5a a5 ff bc
       0.014793539 0.12599811 0.044304784 -0.031206775
000020 1f 7a 91 3d 02 39 51 bc 2e d2 09 be 4f 48 8a 3c
       0.07103371 -0.012769939 -0.13459083 0.016880183
000030 cd 91 ce bd 1d 9d fd 3a 08 75 a8 bc c5 81 12 be
       -0.10086403 0.0019349192 -0.020563617 -0.14307316
000040 b9 99 04 3c 60 9b 00 be 9a 44 72 be 2b f2 d2 be
       0.008093291 -0.12559271 -0.23658982 -0.41200384
000050 51 ac 82 be 00 b0 86 be ec c5 b6 be 40 23 d8 be
       -0.25522092 -0.26306152 -0.35697877 -0.42214394
000060 71 9b 72 be 9c 97 49 be 0a 6e ae be 69 84 82 3e
       -0.23692109 -0.1968674 -0.34068328 0.25491646
000070 fc 42 97 bb 55 c3 e1 bd 7f d8 c3 3d f1 71 68 be
       -0.0046161395 -0.11023585 0.09562778 -0.22699715
000080 26 3c a0 be fc f9 b7 3c 1e 7b d3 bd 9c 3c 08 3c
       -0.3129589 0.022458069 -0.10326217 0.008315232
000090 32 54 10 3e c3 29 2f 3e ab 7e 03 3e fd cb c1 bd
       0.14094618 0.17105775 0.12841289 -0.09462736
0000a0 7b 00 5f be fc 0c ba bd d6 e5 e1 bc fa b1 f6 3d
       -0.21777527 -0.09084508 -0.027575415 0.12045665
0000b0 28 e4 52 3e d6 16 88 3d ce 26 33 bd fc 86 04 be
       0.20594847 0.066449806 -0.04373818 -0.12942117
0000c0 4b ec 8c 3d 9a cd 9e bc 0f 6c 04 3e 79 a3 31 3d
       0.06881007 -0.019385148 0.12931846 0.04336879
0000d0 d3 90 de 3d 70 f9 ea 3d f0 ec bb bd 5b 02 d1 bc
       0.10867467 0.11473358 -0.091760516 -0.025513818
0000e0 f5 79 46 3e b6 5e 4d bd b8 56 99 bd 2a d8 2f bd
       0.1938246 -0.05013915 -0.074872434 -0.04293076
0000f0 83 b0 ff 3c fa b3 db 3d a9 70 bf 3d 66 52 02 be
       0.031212097 0.10727687 0.0934766 -0.12726745
000100 58 5b ca be 98 dc bd be fd 0e 4c be 17 fd d6 be
       -0.39522815 -0.37082362 -0.19927593 -0.41989967
000110 ca 85 a8 be 07 2e a7 bc d7 a5 71 be af 5c 35 be
       -0.32914573 -0.02040769 -0.23598419 -0.17711137
000120 a2 7b d5 3c cf 80 07 3c 96 4c 22 3d 0e 16 e0 bd
       0.02605993 0.008270456 0.03962382 -0.109417066
000130 98 c8 c0 bd 49 e1 51 bb 87 3c 33 be cf a4 dc bd
       -0.0941326 -0.003202515 -0.17503558 -0.10773622
000140 39 05 88 bc 28 35 b2 be 16 c6 bc be 2e 20 6d 3c
       -0.016604053 -0.3480618 -0.36869878 0.014473004
000150 87 3e b9 be 4b 29 58 be 5b 2b 4d bd 6a 4b 94 3c
       -0.36180517 -0.21109502 -0.050090175 0.018102366
000160 e9 f9 9d 3b 8c c6 61 3e 72 9c 8d be eb 2e 36 be
       0.0048210514 0.22048396 -0.2765842 -0.17791335
000170 f5 44 b0 bd 66 fe dd 3c 02 85 51 be e8 11 33 be
       -0.086069025 0.027098846 -0.20460895 -0.174873
000180 29 2c 13 be 65 27 a0 be 05 e3 02 be ef 33 0d bd
       -0.14372315 -0.31280056 -0.12781914 -0.034473356
000190 f9 cb 85 3c 2a 58 83 bd 74 c1 5e 3d 28 d8 24 bc
       0.016332613 -0.064133 0.05438371 -0.010061301
0001a0 37 f3 39 bd 18 43 34 3d f5 8e d7 3d df 1a 2b 3c
       -0.045397963 0.044009298 0.10525314 0.010443418
0001b0 93 ae 5b be 20 db 59 be 1a 7d 84 be 58 e8 cf bc
       -0.21453314 -0.21274996 -0.25876695 -0.025379345
0001c0 c9 47 e7 3a 2c 4e 57 bc 72 6f fe 3d 47 1b cd bd
       0.0017645295 -0.013141196 0.124236 -0.10014968
0001d0 b8 47 b9 bd 75 2e 95 bd ff 77 7c bd 9d 57 49 3d
       -0.090468824 -0.072842516 -0.061637875 0.04915582
0001e0 cd 6c e1 bc c7 3c 95 3d 22 57 75 3b 8a 78 bf 3c
       -0.0275177 0.07286983 0.0037435968 0.023372907
0001f0 89 84 2b 3e a4 77 a6 3d 02 41 e2 be d0 9a 48 bf
       0.16749777 0.081282884 -0.44190222 -0.78361225
000200 ed 92 f2 be 1f 89 06 bf 3b 76 33 be 2d 7e 38 be
       -0.4737772 -0.5255298 -0.1752557 -0.18016882
000210 0d 1d 71 bd b3 e1 dd bc 19 e3 9f bd ae af bc 3d
       -0.058865596 -0.02708516 -0.07806987 0.09213196
000220 1c 9a 4f 3d cb b8 92 bd 64 59 fc 3d d1 55 81 bd
       0.05068408 -0.07164153 0.123217374 -0.06315196
000230 c5 80 11 bd 71 1e 1d bd 6b 45 f6 bd ce 9f 92 bd
       -0.035523195 -0.03835911 -0.12024959 -0.071593866
000240 06 fa 5d be ae 14 be be 9a cd 4b be 13 6e a4 be
       -0.21677408 -0.37125152 -0.1990265 -0.3211523
000250 3e 3f e1 be 45 95 93 be e5 05 97 be e4 a8 f6 be
       -0.43993562 -0.2882482 -0.29496685 -0.48175728
000260 2a 5d f2 be 37 5f 88 3e d7 53 67 3e c4 20 72 3e
       -0.47336704 0.26635143 0.22590576 0.23645312
000270 20 6b 2e 3e 2f b1 e4 3d 8b 0f 5b 3e 9c 6e fa 3d
       0.17033052 0.111666076 0.21392648 0.12228128
000280 4d b3 33 3e f0 8b 3b 3e 4b c8 0c 3e 3a 84 4d bd
       0.17548867 0.183151 0.1374828 -0.05017493
000290 0e 5c c7 bc d6 6e d4 3d 79 4d a1 3d 69 15 07 bd
       -0.024335887 0.10372703 0.07876105 -0.032979403
0002a0 4c cd fc 3d 5e b6 ed 3d 7c 0c 50 be 10 8f 6b bb
       0.12343845 0.116070494 -0.20317262 -0.0035943426
0002b0 69 6c e4 bd a7 22 c9 3c b2 f9 1a be c2 98 82 bb
       -0.1115349 0.024552656 -0.15134314 -0.0039854953
0002c0 2f 8a 7c 3d 41 96 8f bd 42 3b 86 3d 8b 13 d3 bd
       0.06165522 -0.070110805 0.06554271 -0.10306462
0002d0 d2 ab 1d 3c ad 6b e2 bd 7a 5b 13 3d 57 c6 9f 3d
       0.009623485 -0.11055694 0.03597591 0.07801502
0002e0 83 29 47 bd b8 7a 93 3d a9 4c 7a 3e 01 4b a5 3d
       -0.048623573 0.07201141 0.24443306 0.080709465
0002f0 f7 e3 e4 3d 04 3b 1d 3d ad 63 bd bb 81 a5 b1 bc
       0.11176293 0.03838636 -0.0057797045 -0.021685364
000300 d4 c5 b9 bc f3 ea 66 3c 78 18 f0 bc e0 d9 fe 3b
       -0.02267734 0.014094102 -0.029308543 0.0077774376
000310 7d 8c c6 3c 23 17 c2 3d 89 a6 43 be 09 42 89 be
       0.024236912 0.09477069 -0.19106497 -0.26808193
000320 96 02 26 be dc 6a 68 bd 0f 96 40 be 4e fe 66 be
       -0.16211924 -0.056742534 -0.18807243 -0.22557947
000330 db 8f 2f be 8c ee 2f be 37 14 04 be 9a c8 3c be
       -0.1714472 -0.17180842 -0.12898336 -0.18435898
000340 bc 8c a5 3d 50 f9 95 3d 44 0f 7e bd fe ad b0 bd
       0.080834836 0.07322943 -0.062026277 -0.086269364
000350 52 45 34 3b 53 6d 86 be b2 b1 3b 3c 3c cb 9f 3c
       0.0027507138 -0.26255283 0.01145594 0.01950609
000360 c6 0a 86 bd 6d 31 bd 3d f3 26 f3 3d 2b 5e 07 bd
       -0.065450236 0.09237943 0.11872663 -0.03304879
000370 64 57 c7 3d 94 1b 8c 3d b9 2b 1b be 9c f3 00 be
       0.09733465 0.068411976 -0.15153398 -0.1259293
000380 8d 79 8b 3d 0a c1 40 3d 62 ae df bc c8 49 85 3d
       0.06810293 0.047059096 -0.027304832 0.06508213
000390 35 d3 f4 bd 42 6b 36 3d 65 46 5d bd d9 43 d6 bd
       -0.11954347 0.044535883 -0.05402221 -0.1046216
0003a0 1b 5d cf 3d 96 72 9c 3d 58 10 60 3d 4c 69 04 bd
       0.1012518 0.07639043 0.054703087 -0.03232698
0003b0 e2 0e ba 3c 37 83 b0 3d 06 65 b9 3d 88 b0 7b 3d
       0.022712175 0.08618777 0.09052472 0.06144765
0003c0 2e 28 13 be 16 ac f0 bd d7 30 af 3d 16 92 97 3d
       -0.14370796 -0.11751573 0.08554237 0.074009106
0003d0 96 b0 30 be 5d 9a 32 bd 80 fb 27 3d 0b 95 f4 bc
       -0.17254862 -0.043604244 0.041011333 -0.029856225
0003e0 42 0c d4 bd 32 68 1d 3d fc fc e6 3d a8 02 52 3e
       -0.103539005 0.038429447 0.11278722 0.20508826
0003f0 00 a3 42 3c c2 0f 11 be d2 df 27 bd 95 3d 9a bd
       0.011879683 -0.14166167 -0.040984936 -0.07531277

conv2.bias f4 [16]
000000 05 b3 98 3e 95 f6 47 3e 12 47 f8 bd dd fd 51 3b
       0.2982408 0.19527657 -0.121229306 0.0032042183
000010 4c 86 79 3e 46 14 ef 3c e6 8a 04 be ce 3b c9 3d
       0.24367636 0.029184472 -0.1294361 0.0982586
000020 aa d1 9b bc 32 0e bc 3d 53 cc 45 be d7 ec 60 bd
       -0.019020874 0.09182395 -0.19316225 -0.054913368
000030 2a b5 24 3e 97 df 56 3e 93 04 00 be 06 66 1f 3e
       0.16084734 0.2098373 -0.12501745 0.15566263

fc2.weight f4 [12, 8464]
000000 74 af 13 bd 62 66 e2 bc 5b d5 97 3d 02 a0 07 3e
       -0.036055997 -0.02763671 0.07413741 0.13244632
000010 ec 05 14 3e e7 07 b6 bd 72 ea 2c bd 0a b7 a0 bd
       0.14455384 -0.08888226 -0.042215772 -0.07847412
000020 9d 24 8d bd b5 50 da 39 ad 39 ec 3d c4 2b 9e bd
       -0.06891749 0.00041640332 0.11534438 -0.077231914
000030 12 dc be 3d de 7d 2a 3d af 82 36 3e db fc b4 bc
       0.09319319 0.041623943 0.1782329 -0.022093227
000040 8a 24 93 bb f3 a6 d1 3d 77 0f 42 bd 4b 22 f7 3d
       -0.00449044 0.10236921 -0.04737803 0.12067088
000050 aa 77 b1 3d f9 62 41 3d 78 af e8 bd 08 93 2e bd
       0.08665402 0.04721353 -0.11361593 -0.04262069
000060 f2 ee d0 3d 87 e2 81 3d 6f 62 44 3d bc 24 7e bd
       0.10201825 0.06342035 0.047945436 -0.06204675
000070 1d 10 dd 3d bd 12 24 bd b2 d3 d2 3d 6b 27 fa 3d
       0.10794089 -0.040056933 0.10294284 0.1221455
000080 12 12 86 bc 33 7d c9 3c 59 bf e7 bd 9d 0c fe 3d
       -0.016366038 0.024595832 -0.113157935 0.124047495
000090 81 b2 42 bc ae 4f 00 be 0d 2a ff 3d d7 71 11 3e
       -0.011883379 -0.12530395 0.124591924 0.14203583
0000a0 7d f7 be 3d 56 6d 21 be 00 74 9d bd be 8f 7c 3c
       0.093245484 -0.15764365 -0.07688141 0.01541513
0000b0 63 2a 6f bc 0e e6 d4 bd 56 60 0d 3e f7 03 a6 3c
       -0.014597508 -0.10395442 0.1380628 0.020265562
0000c0 e5 cc cc 3c 98 01 17 3d 8a bf 77 3d 20 f1 7d 3d
       0.025000045 0.036866754 0.0604854 0.061997533
0000d0 aa 52 32 3e 06 c8 ad 3c 17 42 15 3d 9f 9a 55 3e
       0.17414346 0.021213543 0.03643998 0.20859765
0000e0 2b b0 df 3d 5b 22 b6 3d 2b c8 39 bc 21 ff 40 3d
       0.10922273 0.088932715 -0.011339228 0.04711831
0000f0 c8 7a 8c 3d 47 5e e8 3d 98 ce 33 39 ba 90 51 3d
       0.06859356 0.11346107 0.00017147732 0.051163413
000100 75 26 2a 3c ba f4 cf 39 7d fc 92 3c 38 7d e2 3c
       0.010385145 0.00039664452 0.017942661 0.0276476
000110 64 30 74 3d 19 e5 d0 3d 27 b8 8a bd 7b b2 0e 3e
       0.05961646 0.10199947 -0.067734055 0.13935272
000120 ba 05 0b 3e 11 00 3e bc f5 fc 65 3e 9c 0a a0 3d
       0.13576403 -0.0115966955 0.22459777 0.078145236
000130 6b c5 20 3d e3 8b 63 3d 87 09 99 3d a4 25 e5 bb
       0.039250772 0.05555333 0.0747252 -0.0069930125
000140 13 83 1d 3c 34 f4 2b 39 31 3d 58 bd d4 0a 7d 3d
       0.00961377 0.00016398804 -0.05279273 0.061777905
000150 16 7d 50 3e 35 f9 54 3d 1b cf 39 3e 6a b1 ad 3d
       0.20360216 0.051995475 0.1814541 0.08481105
000160 11 06 4d 3d 99 8e 49 3e 45 79 1e bd bf a1 10 3e
       0.050054614 0.19683303 -0.03868987 0.14124201
000170 c7 88 fb 3a db 57 a9 3d 7d 80 8b 3d bf 55 5b 3e
       0.0019190543 0.0826871 0.068116166 0.21419428
000180 c9 aa 59 3d 70 9d 61 3b 9d 58 87 bd 03 c0 45 3e
       0.05314139 0.0034426115 -0.066086985 0.19311528
000190 74 55 fb bc be cb 8b 3c 2f f3 8b 3d d8 63 25 3d
       -0.030680396 0.017064925 0.06833493 0.04037842
0001a0 46 79 19 be 0d 88 55 bb 61 e8 7b bd 84 1b ce bd
       -0.14987668 -0.0032582313 -0.06150091 -0.10063842
0001b0 65 2e 0a 3d 86 3a c0 3d ee bb be 3d 27 c8 73 3e
       0.03373565 0.093861625 0.093131885 0.23806821
0001c0 2d b5 7c 3e d4 7d de 3d be c0 50 3d b9 c1 a2 3d
       0.24678488 0.108638436 0.050965063 0.07947106
0001d0 e1 19 07 3e fc 03 19 3e ea 65 4b 3d bb a1 9d 3d
       0.13193466 0.14942926 0.04965774 0.07696863
0001e0 65 52 cd 3d 55 b1 3d bd 80 5a cc bd 99 53 6d 3d
       0.10025481 -0.046311695 -0.09978199 0.057941053
0001f0 dc 68 68 bd d4 67 7e bc b7 32 68 bc 1e e3 3f 3d
       -0.056740627 -0.015527684 -0.014172248 0.046847455
000200 6d 33 75 3c bb 1e 3d bc 28 2d 02 3c 0a 61 c8 bb
       0.014965874 -0.011542971 0.007945336 -0.0061150836
000210 7b 18 ad bc 9b de ae 3c 54 85 2b 3e fe 62 6d 3e
       -0.021129837 0.021346381 0.1675008 0.23182294
000220 e4 c4 46 3e 24 4f 40 3d e1 0d db 3d 46 39 d1 3e
       0.19411045 0.046950474 0.106960066 0.4086401
000230 25 d5 ad 3d af 87 4a 3c 6c 12 c0 3d 74 f1 5c bd
       0.0848792 0.012361451 0.09378514 -0.053941205
000240 81 4a ab bd 56 bf cb bd 56 7a 4b bc 6a a2 60 bd
       -0.0836382 -0.09948604 -0.012419304 -0.05484239
000250 29 e5 dd 3d b4 e2 53 3d e5 bd 1e 3d b7 89 cf bc
       0.108347245 0.051729873 0.038755316 -0.025334222
000260 8a 06 c3 bd d2 81 1e be 44 6f 6f be b6 2d 35 be
       -0.095227316 -0.1547921 -0.23382288 -0.17693219
000270 9e ab c7 bd 48 e2 ab 3d eb d4 d7 3d a9 1c 38 3e
       -0.0974953 0.08392769 0.10538658 0.17979683
000280 8f 15 5a 3e 24 f4 14 3e 5b 02 8d 3e 9e 2a 51 3d
       0.21297286 0.14546257 0.2754086 0.051066034
000290 6d cd 10 3d 1b b9 12 3e fb bd 31 bd 02 7a ec bc
       0.03535216 0.14328425 -0.04339407 -0.028866772
0002a0 7b 9b 9b 3c 84 30 a7 bd 29 dd 45 be 5d 0c 73 bd
       0.018995037 -0.081635505 -0.19322647 -0.059337962
0002b0 88 3f e7 bd c8 67 88 bd 1f 06 e4 bd 8e 75 c6 bd
       -0.112914145 -0.0666042 -0.1113398 -0.096903905
0002c0 b8 d6 4d 3d 7d fb 25 bd 74 3f e8 bb 80 0c 7e 3c
       0.0502536 -0.04052304 -0.0070876423 0.01550591
0002d0 83 7e 56 bc d6 f9 ce bc 58 a8 3f 3e 69 37 7d 3e
       -0.013091686 -0.025265615 0.18716562 0.24728169
0002e0 b4 88 6d 3e a9 62 79 3e 7d db d6 3d d2 f7 1c bb
       0.2319668 0.24354042 0.10491083 -0.0023951423
0002f0 4f 1d 2d bd 45 52 52 3c fc 45 3a 3c a5 ee 2f bd
       -0.04226428 0.012836997 0.011369225 -0.0429522
000300 84 34 6f bd cf 38 2c be 64 13 45 3d 6f 44 ac be
       -0.058399692 -0.16818546 0.048114195 -0.3364596
000310 90 44 ae bd 92 92 c3 bd 79 38 32 3d ad e4 0b 3c
       -0.08509171 -0.095494404 0.043510888 0.008538407
000320 ea c1 2c bd 5f ec 2b 3d 06 98 cf bc d1 c4 a8 3d
       -0.04217712 0.041973468 -0.025341045 0.08240665
000330 85 31 2a 3d ea be 0e 3e a0 49 bf 3e dc 73 9f 3e
       0.04155113 0.13940015 0.3736086 0.3114308
000340 9b 13 dd 3d e4 e3 49 3d 25 2a c2 bc 0f c8 c1 bd
       0.10794755 0.0492896 -0.023701737 -0.09461986
000350 27 7e 3d 3e 32 05 e1 3d 2c 25 74 3b 74 e8 5e bd
       0.18505155 0.10987319 0.0037253601 -0.054420903
000360 19 f0 5a 3d eb c1 27 3d fa 6c 05 3e d4 98 ff 3c
       0.05345163 0.04095642 0.13029853 0.031200804
000370 d1 ee 7a bb 08 92 59 3c 63 ca 26 bd ef 43 b6 3d
       -0.0038289318 0.0132794455 -0.040720355 0.08899676
000380 7b fd ef 3d 12 3d ce 38 37 6c 46 3d 02 a3 bc 3c
       0.117182694 9.834221e-05 0.048443045 0.023026947
000390 96 86 b3 3d 14 10 bd 3e b3 13 4f 3e 51 84 a4 bd
       0.087659046 0.3692633 0.20222358 -0.0803305
0003a0 b0 49 19 bd 7d 74 0f bd af 45 2c 3e 2f 64 55 3e
       -0.03742379 -0.0350232 0.16823457 0.20838998
0003b0 65 de 9b bc dc 8d 7e bd 57 0f 50 bc df 82 98 bd
       -0.019026944 -0.062147006 -0.01269897 -0.07446837
0003c0 b5 eb 69 3e ac d9 85 3e 55 ac 70 3e e2 c8 8e 3c
       0.22843821 0.26142633 0.2350324 0.017429773
0003d0 a9 03 4b 3d cc 0e d4 3c c7 36 e9 bc 8c 67 16 bd
       0.049564037 0.025885962 -0.028468503 -0.036719844
0003e0 85 80 9d bd 3c 2e e8 bd ec c0 92 bb 49 9b a4 3d
       -0.07690529 -0.113369435 -0.0044785645 0.08037431
0003f0 85 1d 85 3e a7 28 ab 3d 3c 08 68 3d 96 25 7e 3d
       0.25999084 0.08357363 0.056648478 0.062047563

fc2.bias f4 [12]
000000 e5 71 3b be d8 e3 1f 3e 14 ce 43 be 4e fa 23 be
       -0.18305166 0.15614259 -0.19121581 -0.16013452
000010 33 df b7 ba c7 19 92 3b af 92 c5 bc 89 ef 33 3e
       -0.001402831 0.0044586393 -0.024117796 0.17571844
000020 41 df 69 bd 6c 59 9c bd 54 70 35 3e a6 a1 dd bd
       -0.057097677 -0.07634243 0.17718631 -0.108218476
