test_models/100epoch_5fold_weighted_model03.pt (torch, 414359 bytes, 6 tensors)

conv1.weight f4 [8, 3, 3, 3]
0.38282892 0.27168846 0.15650913 -0.2796685 -0.20245418 -0.47780374 -0.7752703 -0.8055111
-0.73933965 0.58750665 0.39058772 0.5183623 -0.07265907 -0.2840879 -0.1487532 -0.5515421
-0.62315416 -0.5378121 0.7797665 0.64772195 0.6442154 0.48849058 0.07054916 0.23303042
0.29961264 0.5085803 0.23513402 -0.5679658 -0.4047362 -0.20150235 0.05282563 0.05006653
0.16278689 -0.6764589 -0.21018836 -0.44644296 -0.33454484 -0.049411543 0.123071104 -0.1832766
0.011070206 0.048912115 -0.2913753 -0.04998429 0.042728785 0.18612324 0.28806236 0.014442644
0.36027944 0.34052444 0.6239658 0.0772786 0.267478 0.19699143 -0.6281087 -0.16445781
0.3749264 -0.5811988 0.047228444 -0.035512466 0.15913099 0.5101804 0.43091694 -0.7364429
-0.23504761 0.16132754 -0.201911 -0.056029804 0.15261495 -0.07362042 0.53874 0.51338327
-0.22153112 -0.16484745 0.11523256 -0.38928273 -0.09893339 -0.0940064 0.02455782 0.28897795
0.21036296 0.41685212 0.3237253 0.45575 0.15459141 0.2368227 -0.15367748 0.036420103
-0.3110234 -0.48083028 0.6068001 0.22759347 0.5450807 0.16039908 -0.11916134 -0.06153231
-0.07162339 -0.5553378 -0.50586444 0.3162336 0.272031 0.21116464 -0.015161494 -0.080389544
-0.13559203 -0.059926886 0.0785763 -0.19738516 0.110149026 0.051178936 -0.054267447 -0.5210958
-0.70270354 -0.48588306 -0.6490095 -0.8239298 -0.32382104 0.027199853 0.36046386 0.050266393
-0.46452084 -0.4644935 -0.4649453 -0.19800171 -0.3266963 -0.37737286 -0.021931104 0.38892728
0.36937845 -0.30518335 -0.50846493 -0.42395216 -0.48238447 -0.5524762 -0.27893752 0.053989008
0.29984817 0.43845254 0.06228411 0.31588867 0.30752954 -0.14750239 -0.0057402565 0.081501886
0.32118928 0.16923648 0.3218867 0.16936289 0.16100697 0.35344076 0.022862155 -0.06974905
-0.09200083 0.15093826 0.0580089 0.24344386 0.015908107 -0.06780562 0.23816136 0.10239869
0.062067483 -0.14477769 0.06960966 -0.11840705 -0.026557088 -0.4144417 -0.55950516 0.18352297
-0.21718177 -0.030006733 0.56893986 0.23433419 -0.29278934 0.28846186 -0.29720044 -0.6837242
0.09299835 -0.450166 -0.4065927 0.4832057 0.07549522 -0.46618456 0.074005164 -0.21450604
-0.27335593 -0.07222134 -0.3527756 -0.47405246 0.27353126 0.25657564 -0.53410727 -0.8241289
0.60455847 0.12024738 -0.29148424 0.47725946 0.12179051 0.15414107 -0.031585805 -0.45287418
-0.7725672 0.5427691 0.20628628 -0.2673323 0.5646053 0.11325742 0.23142657 -0.14394346
-0.20425077 -0.50249374 0.18867238 -0.23457469 -0.20549051 -0.10165629 -0.15200381 -0.23242693
00000000: 2702 c43e c01a 8b3e ee43 203e b630 8fbe
00000010: 2650 4fbe b1a2 f4be 1d78 46bf fa35 4ebf
00000020: 5d45 3dbf d666 163f 1dfb c73e 64b3 043f
00000030: 47ce 94bd f873 91be c252 18be dd31 0dbf
00000040: 0887 1fbf 0eae 09bf c79e 473f 1bd1 253f
00000050: 4deb 243f 701b fa3e 147c 903d 879f 6e3e
00000060: d466 993e 5232 023f f9c6 703e 3566 11bf
00000070: 9539 cfbe a256 4ebe b05f 583d 9012 4d3d
00000080: 9bb1 263e 692c 2dbf 9e3b 57be 2c94 e4be
00000090: 7649 abbe c263 4abd b40c fc3d dcac 3bbe
000000a0: cf5f 353c 1258 483d 252f 95be 54bc 4cbd
000000b0: 6104 2f3d 1797 3e3e e97c 933e d7a0 6c3c
000000c0: 8c76 b83e 3859 ae3e 39bc 1f3f 3e44 9e3d
000000d0: e0f2 883e 1fb8 493e bbcb 20bf a167 28be
000000e0: 5af6 bf3e 72c9 14bf 9d72 413d 8575 11bd
000000f0: 3cf3 223e 2f9b 023f 25a1 dc3e 8687 3cbf
00000100: 52b0 70be 0c33 253e c2c1 4ebe 827f 65bd
00000110: 1847 1c3e 4ec6 96bd ddea 093f 166d 033f
00000120: 0ed9 62be c5cd 28be 0cff eb3d 1150 c7be
00000130: 979d cabd 6d86 c0bd 7b2d c93c ebf4 933e
00000140: 6369 573e a46d d53e 53bf a53e 1058 e93e
00000150: 364d 1e3e a681 723e a15d 1dbe 3f2d 153d
00000160: 763e 9fbe 632f f6be 4057 1b3f 430e 693e
00000170: 698a 0b3f a83f 243e dc0a f4bd 4e09 7cbd
00000180: 49af 92bd 9e2a 0ebf 5580 01bf 5fe9 a13e
00000190: a647 8b3e 8b3b 583e ea67 78bc 46a3 a4bd
000001a0: a3d8 0abe e575 75bd 9cec a03d 561f 4abe
000001b0: d095 e13d 01a1 513d 8b47 5ebd 8966 05bf
000001c0: 61e4 33bf aac5 f8be 7d25 26bf 10ed 52bf
000001d0: dfcb a5be 3ad2 de3c b88e b83e 22e4 4d3d
000001e0: add5 edbe 18d2 edbe 4f0d eebe f6c0 4abe
000001f0: bd44 a7be 0437 c1be dca8 b3bc 7a21 c73e
00000200: 2c1f bd3e fe40 9cbe c22a 02bf 4210 d9be
00000210: 19fb f6be 156f 0dbf e6d0 8ebe 9423 5d3d
00000220: b385 993e da7c e03e 9f1d 7f3d 29bc a13e
00000230: 8374 9d3e de0a 17be c318 bcbb 76ea a63d
00000240: ec72 a43e 544c 2d3e 55ce a43e 776d 2d3e
00000250: 03df 243e 30f6 b43e 6a49 bb3c 97d8 8ebd
00000260: ee6a bcbd 8f8f 1a3e be9a 6d3d 5949 793e
00000270: b851 823c acdd 8abd 92e0 733e 68b6 d13d
00000280: 793a 7e3d 9a40 14be 828f 8e3d 657f f2bd
00000290: 408e d9bc b431 d4be bb3b 0fbf 72ed 3b3e
000002a0: e664 5ebe aed0 f5bc 0ba6 113f 4df5 6f3e
000002b0: 7ce8 95be 46b1 933e a82a 98be 8d08 2fbf
000002c0: eb75 be3d 287c e6be eb2c d0be bd66 f73e
000002d0: 3d9d 9a3d beaf eebe 0590 973d 79a7 5bbe
000002e0: 4ff5 8bbe c8e8 93bd 019f b4be 01b7 f2be
000002f0: 4a0c 8c3e e25d 833e 41bb 08bf 1dfa 52bf
00000300: 58c4 1a3f 4244 f63d 6c3d 95be 5a5b f43e
00000310: 4e6d f93d 28d7 1d3e 1e60 01bd 20df e7be
00000320: f7c6 45bf eaf2 0a3f b63c 533e c7df 88be
00000330: f989 103f 82f3 e73d 16fb 6c3e ea65 13be
00000340: 1d27 51be 6ea3 00bf 5533 413e 5934 70be
00000350: 1b6c 52be 2c31 d0bd e3a6 1bbe 5301 6ebe

conv1.bias f4 [8]
0.08601252 0.46493056 0.33198193 -0.6088245 1.053712 -0.6612033 -0.32432696 0.28385812
00000000: 5527 b03d 610b ee3e 89f9 a93e ecdb 1bbf
00000010: 09e0 863f 9f44 29bf 2f0e a6be da55 913e

conv2.weight f4 [16, 8, 3, 3]
0.051326912 -0.07368179 -0.16247925 -0.17424038 -0.1575551 -0.15043253 -0.20763315 -0.010799638
0.15484506 -0.21347222 -0.09279966 -0.26277578 -0.28046063 -0.12812142 -0.3797076 -0.10906048
0.001124538 -0.20862281 -0.23550844 -0.15625599 -0.113269545 -0.06935382 -0.1572912 -0.17898607
-0.013537419 0.05210741 -0.08268659 0.11554331 -0.07973259 -0.20491682 -0.3428964 -0.20148343
-0.007483325 -0.45334914 -0.045387436 0.6856023 -0.1575593 -0.17405352 -0.370701 -0.38522145
-0.18116303 -0.21171604 -0.32695064 -0.31128958 -0.2776568 -0.19507949 -0.21554881 -0.16941167
-0.29089952 -0.099338144 -0.20789513 -0.10156669 -0.09264568 -0.22040452 0.02631187 -0.31141523
0.14895864 -0.18808572 0.2749286 -0.0019339662 -0.22132751 -0.2877445 -0.5030594 -0.1876585
-0.20102446 -0.26970014 -0.15018463 -0.24303338 -0.09360228 0.018501947 -0.1898818 -0.1788272
-0.02971201 -0.04562061 0.0128546525 -0.036684953 -0.07454432 -0.039056182 -0.07655606 -0.109099776
-0.16975822 -0.09218174 0.05315088 0.032664575 -0.11945374 -0.003032218 -0.081966974 -0.06774431
-0.040853396 -0.1463546 -0.11432243 -0.014011115 -0.020000884 -0.11745322 0.022924794 -0.045814525
-0.04136219 -0.09806646 -0.13241288 0.0046742554 0.033997457 -0.12826706 -0.05127524 -0.055771872
0.041888013 0.0002349019 -0.023127869 0.0046019703 -0.14098552 -0.07122509 0.003912556 -0.058647107
0.036348667 -0.05613787 -0.101221405 -0.08213926 0.04643013 -0.03494581 -0.06523839 -0.09661526
-0.13687246 -0.027498012 0.03091271 -0.026090868 -0.086232916 0.051934935 -0.018854003 -0.08368614
-0.03463558 -0.037292458 -0.060904626 -0.08736946 0.081171475 -0.025905155 -0.0067152604 0.08453053
-0.06610102 -0.11847602 0.048447877 -0.045120955 -0.15644446 -0.12397216 -0.043759543 0.0530642
0.044962656 0.003119231 -0.2690053 -0.39660007 -0.5716004 -0.58946013 -0.008463266 0.22531894
0.23666082 0.16195966 0.17390677 0.06470673 -0.84246576 0.034175154 -0.35544038 -0.66976357
-1.0626777 -1.0177486 -0.83262414 -0.6199418 -0.38986355 0.023363275 0.27330455 0.45143005
-1.4526849 -1.5215366 -1.04081 -0.13672964 -0.057143006 -0.10630392 -0.047984734 -0.37056175
-0.09529638 0.29337102 0.45756403 0.5307152 -0.4729611 -0.5072505 -0.32910287 0.025277222
0.05955244 -0.067213796 -1.0672392 -0.9002737 -1.4472755 0.074637674 0.009590054 0.173116
-0.016859027 0.104374565 0.08475418 0.033072583 0.057622224 0.13993688 -0.03497161 -0.02870649
-0.18155074 -0.42963916 -0.18205923 -0.37253565 0.15681851 -0.31715906 -0.29833984 -1.1336163
-0.41740236 -0.6632972 -0.41471443 -0.08279845 -0.8666666 -2.1507015 -1.497608 -0.8238543
-0.55200034 -1.3586717 -0.4248482 -1.2436082 -1.5908105 -1.006644 0.26085088 -0.1505487
-0.4869673 -0.55561304 -0.28068587 -0.4964861 -1.0582905 -0.5015992 -0.3902956 -0.3818723
-0.68700784 -0.66136134 -0.22444227 -0.16194713 -0.036892336 -0.1467917 0.2375518 -0.22491233
-0.12914245 0.086079665 -0.30104023 0.002064358 -0.51597494 0.1527899 0.20515764 -0.40475863
-0.033833034 0.36206433 0.26200366 0.21252182 -1.297485 -1.1412195 -1.1574714 -0.3302648
00000000: 2b3c 523d 7ae6 96bd f660 26be 126c 32be
00000010: 2056 21be fc0a 1abe c99d 54be f7f0 30bc
00000020: b48f 1e3e 7698 5abe c00d bebd 8c8a 86be
00000030: 8998 8fbe 4332 03be 0969 c2be 1a5b dfbd
00000040: 3c65 933a 38a1 55be 2029 71be 9201 20be
00000050: ddf9 e7bd 6009 8ebd f210 21be 2048 37be
00000060: 0dcc 5dbc 946e 553d 9657 a9bd f9a1 ec3d
00000070: d74a a3bd b7d5 51be 1e90 afbe ac51 4ebe
00000080: ae36 f5bb 611d e8be 2de8 39bd a283 2f3f
00000090: 3a57 21be 163b 32be 85cc bdbe bf3b c5be
000000a0: cd82 39be 17cc 58be 1366 a7be 5961 9fbe
000000b0: 0829 8ebe ebc2 47be d4b8 5cbe 417a 2dbe
000000c0: c8f0 94be cc71 cbbd 76e2 54be 3202 d0bd
000000d0: 05bd bdbd b9b1 61be fe8b d73c d171 9fbe
000000e0: 9d88 183e 8b99 40be 71c3 8c3e 237d fdba
000000f0: aea3 62be 3f53 93be 80c8 00bf 8d29 40be
00000100: 5bd9 4dbe 2316 8abe 00ca 19be bedd 78be
00000110: 8db2 bfbd 6591 973c 6070 42be 7a1e 37be
00000120: 9a66 f3bc addc 3abd 529c 523c f642 16bd
00000130: b1aa 98bd 60f9 1fbd 6cc9 9cbd b46f dfbd
00000140: 19d5 2dbe c8c9 bcbd bdb4 593d 4acb 053d
00000150: 2aa4 f4bd 2db8 46bb 4dde a7bd 87bd 8abd
00000160: e455 27bd fbdd 15be e121 eabd e08e 65bc
00000170: e5d8 a3bc 508b f0bd c7cc bb3c 03a8 3bbd
00000180: 666b 29bd 11d7 c8bd 3e97 07be 7f2a 993b
00000190: eb40 0b3d 7158 03be fc05 52bd 0c71 64bd
000001a0: c492 2b3d 0050 7639 a876 bdbc 20cc 963b
000001b0: 825e 10be 76de 91bd e634 803b f337 70bd
000001c0: 57e2 143d d3f0 65bd 2b4d cfbd a138 a8bd
000001d0: 852d 3e3d 5623 0fbd b49b 85bd 39de c5bd
000001e0: 4b28 0cbe 8343 e1bc a73c fd3c 84bc d5bc
000001f0: e29a b0bd bab9 543d b673 9abc a463 abbd
00000200: 0ade 0dbd fabf 18bd 2177 79bd c2ee b2bd
00000210: 3b3d a63d 0c37 d4bc b00b dcbb 581e ad3d
00000220: f95f 87bd 8ea3 f2bd 4871 463d c0d0 38bd
00000230: fa32 20be 1ee5 fdbd 353d 33bd d959 593d
00000240: c32a 383d 036c 4c3b 10bb 89be 2a0f cbbe
00000250: 6754 12bf dce6 16bf 83a9 0abc 02ba 663e
00000260: 3757 723e c1d8 253e 9e14 323e f684 843d
00000270: d6ab 57bf 3ffb 0b3d 48fc b5be a075 2bbf
00000280: d305 88bf 9645 82bf db26 55bf 81b4 1ebf
00000290: 329c c7be 5764 bf3c 93ee 8b3e d721 e73e
000002a0: 94f1 b9bf b6c1 c2bf 4339 85bf db02 0cbe
000002b0: c90e 6abd dfb5 d9bd a48b 44bd 45ba bdbe
000002c0: c02a c3bd ba34 963e d545 ea3e f4dc 073f
000002d0: f527 f2be 2bdb 01bf 2c80 a8be 2d12 cf3c
000002e0: 42ed 733d 63a7 89bd 4b9b 88bf 5678 66bf
000002f0: 5340 b9bf a3db 983d 9a1f 1d3c 5245 313e
00000300: f11b 8abc 55c2 d53d 9993 ad3d 1e77 073d
00000310: 4805 6c3d 9d4b 0f3e 643e 0fbd df29 ebbc
00000320: 70e8 39be aaf9 dbbe bc6d 3abe febc bebe
00000330: 0895 203e ac62 a2be 00c0 98be 571a 91bf
00000340: c3b5 d5be d8cd 29bf 7355 d4be 3c92 a9bd
00000350: dddd 5dbf 18a5 09c0 9eb1 bfbf 1ee8 52bf
00000360: e54f 0dbf f4e8 adbf b485 d9be 8e2e 9fbf
00000370: ae9f cbbf b6d9 80bf 3f8e 853e 7029 1abe
00000380: c753 f9be a83c 0ebf 0fb6 8fbe 6d33 febe
00000390: 1076 87bf ce68 00bf d3d4 c7be c484 c3be
000003a0: bfdf 2fbf fa4e 29bf 32d4 65be 78d5 25be
000003b0: 6b1c 17bd 9050 16be c740 733e 6b4f 66be
000003c0: eb3d 04be 894a b03d f221 9abe 2e4a 073b
000003d0: ef16 04bf f574 1c3e d814 523e 863c cfbe
000003e0: 8294 0abd 7f60 b93e 5825 863e 529f 593e
000003f0: fd13 a6bf 7b13 92bf 0628 94bf 7818 a9be

conv2.bias f4 [16]
-0.07226132 -0.08660113 0.06927352 0.14521302 0.54426676 0.43865114 0.3191989 0.09022178
-0.035195928 0.118368246 -0.48704028 0.14749877 0.12907326 -0.44707498 -0.09339529 -0.15143241
00000000: befd 93bd ef5b b1bd 46df 8d3d b9b2 143e
00000010: 1155 0b3f e296 e03e 0a6e a33e 32c6 b83d
00000020: 9b29 10bd 0d6b f23d 585d f9be eb09 173e
00000030: c82b 043e 03e7 e4be 0846 bfbd 1911 1bbe

fc2.weight f4 [12, 8464]
0.06879278 0.018982366 0.1311315 0.0023331214 0.009743247 0.014666439 0.059769575 -0.04440435
0.02905247 0.01875445 0.00892529 -0.008415552 -0.012816979 0.033615045 0.033010434 0.017504064
0.01516965 0.022765025 0.02514708 0.029449975 0.019679712 0.010402156 0.016483516 -0.08661708
0.016031915 0.11450587 -0.046685573 -0.12530352 -0.1165754 0.016281204 -0.022521788 0.028743224
0.054558072 0.011104937 0.052328352 0.03762519 0.032973118 0.030668624 0.01952065 -0.0060527017
0.022564033 0.0024007845 -0.015853249 0.023698425 0.020876806 0.051263034 -0.10491312 0.033440623
0.08213765 -0.056117132 -0.0077737444 -0.029011922 0.06818013 0.065566406 -0.06917761 -0.014490914
-0.024433183 -0.0060291043 -0.0009881106 -0.018566927 -0.020978725 -0.009051587 -0.0038063058 0.039715417
0.05567371 0.026881889 0.04318524 0.028281046 0.023372287 0.0060824878 0.00022294956 0.0634344
-0.10134918 0.096201435 0.016439041 0.072831325 0.083085395 -0.060949985 0.02565188 0.008451778
-0.012982336 -0.008624054 -0.0040428834 -0.00526991 0.0026176441 0.00082977733 -0.007954539 -0.0005392378
-0.032166112 -0.0127567435 -0.021379922 -0.00027351832 0.004705582 0.06851441 0.098756425 0.077367
0.01262085 -0.058440205 -0.014536471 0.13676609 0.022247162 0.01326858 -0.010074438 -0.00964753
0.017996024 -0.0013383735 -0.00500439 -0.033355843 0.018148143 0.017060924 0.031444624 0.006416252
0.018285573 0.007943871 -0.0015903801 0.015526371 0.046160106 0.10734337 0.046518464 0.08498554
0.0040463256 0.019664114 -0.0023586713 0.039455168 0.040637378 0.034606565 0.076659225 0.036782134
0.027917527 0.019480523 -0.022893721 -0.007172091 0.014128842 0.03855271 0.02302036 -0.012533915
0.1669683 0.07672527 -0.006780894 -0.0016706957 0.03989232 0.039799973 0.032749582 -0.03261771
-0.013040917 0.084941864 0.03197124 0.011884237 0.029746495 -0.042168815 -0.04486093 0.059042778
0.04493807 0.00053316174 -0.029570874 0.055411797 0.0756755 0.19151239 0.102251366 -0.04343699
0.055294685 -0.029247949 0.02138691 0.041299194 -0.03826026 0.04278288 0.06964815 0.019227121
0.014407444 -0.0071955738 -0.011692053 0.0032827945 -0.032513868 0.022313727 -0.00044456634 0.04346087
0.06710505 0.13944809 -0.026580116 0.03884863 0.051802758 0.08121417 0.033388365 0.056485336
-0.06395088 0.11319661 0.070138924 -0.15598416 0.0031430572 0.08456603 -0.07460528 0.03664251
0.01403967 -0.10551375 0.010189569 -0.025511602 -0.02995526 0.1612381 0.08235578 0.05721794
0.079554446 -0.055721194 -0.011706602 -0.016768033 -0.04135471 0.0060250815 -0.0030707275 -0.0020783935
0.17144203 -0.08605195 -0.03744906 -0.12189326 0.062004633 -0.11471813 -0.24353129 -0.1393178
-0.22375524 -0.07306502 -0.15234481 -0.13619584 -0.086837746 -0.09888211 -0.04607827 -0.051510114
-0.06164809 -0.023534104 0.0060991924 -0.05232242 -0.00014858459 0.014929804 0.013462418 0.0814218
-0.026490234 0.09285954 -0.1069748 -0.12177167 0.006936902 0.16925402 0.06923386 0.07883123
-0.04534896 -0.049827587 -0.091993526 0.15317513 -0.040973604 -0.06383269 -0.07886788 -0.073185325
-0.04716529 -0.029703759 -0.06530767 -0.11737754 -0.034919154 0.04808837 0.14099191 0.015175796
00000000: 3be3 8c3d e880 9b3c 5647 063e 48e7 183b
00000010: 24a2 1f3c 814b 703c f1d0 743d 56e1 35bd
00000020: 72ff ed3c efa2 993c 613b 123c 62e1 09bc
00000030: 4efe 51bc eeaf 093d f335 073d af64 8f3c
00000040: 208a 783c b87d ba3c 4001 ce3c 1341 f13c
00000050: 5937 a13c ce6d 2a3c 7008 873c 4c64 b1bd
00000060: 5d55 833c 0e82 ea3d 5f39 3fbd 914f 00be
00000070: 15bf eebd 2960 853c 9d7f b8bc e976 eb3c
00000080: 4978 5f3d 7bf1 353c 4156 563d df1c 1a3d
00000090: d20e 073d c43c fb3c c5e9 9f3c be55 c6bb
000000a0: 35d8 b83c 7b56 1d3b acde 81bc 3323 c23c
000000b0: d605 ab3c 30f9 513d b1dc d6bd 09f9 083d
000000c0: c937 a83d 14db 65bd e5ba febb 69aa edbc
000000d0: 06a2 8b3d ae47 863d feac 8dbd 4c6b 6dbc
000000e0: 1928 c8bc cb8f c5bb 7d83 81ba ab19 98bc
000000f0: 93db abbc 1c4d 14bc 3773 79bb a2ac 223d
00000100: 1e0a 643d 6837 dc3c 02e3 303d a7ad e73c
00000110: 3d77 bf3c 9b4f c73b 91c7 6939 e5e9 813d
00000120: 2990 cfbd 4205 c53d 2bab 863c 9728 953d
00000130: ad28 aa3d b1a6 79bd e423 d23c 5479 0a3c
00000140: ddb3 54bc e74b 0dbc 2a7a 84bb 36af acbb
00000150: c88c 2b3b 6a85 593a c153 02bc a35b 0dba
00000160: 9dc0 03bd a901 51bc f224 afbc 0267 8fb9
00000170: 4831 9a3b 4851 8c3d cf40 ca3d 9772 9e3d
00000180: aec7 4e3c ff5e 6fbd 612a 6ebc 690c 0c3e
00000190: ae3f b63c 7564 593c 410f 25bc ac10 1ebc
000001a0: 666c 933c 5d6c afba defb a3bb 23a0 08bd
000001b0: 6aab 943c 5ac3 8b3c 14cc 003d 6c3f d23b
000001c0: a0cb 953c 0327 023c 4d74 d0ba 5262 7e3c
000001d0: 6112 3d3d d7d6 db3d 258a 3e3d e60c ae3d
000001e0: 0a97 843b a316 a13c f093 1abb be9b 213d
000001f0: 6173 263d 9dbf 0d3d 83ff 9c3d dda8 163d
00000200: 4cb3 e43c 9e95 9f3c 9d8b bbbc dc03 ebbb
00000210: a97c 673c 72e9 1d3d 3295 bc3c 0d5b 4dbc
00000220: bdf9 2a3e 2322 9d3d 4332 debb 3ffb daba
00000230: 2166 233d 4c05 233d 6d24 063d 269a 05bd
00000240: 92a9 55bc 00f6 ad3d 46f4 023d 1ab6 423c
00000250: ecae f33c 35b9 2cbd 18c0 37bd d7d6 713d
00000260: fb10 383d e1c3 0b3a 9e3e f2bc 7bf7 623d
00000270: c2fb 9a3d d31b 443e 2a69 d13d fcea 31bd
00000280: ae7c 623d 6599 efbc 9a33 af3c 5829 293d
00000290: cab6 1cbd 1a3d 2f3d b0a3 8e3d 3282 9d3c
000002a0: 330d 6c3c d9c8 ebbb 0690 3fbc 2724 573b
000002b0: 432d 05bd 47cb b63c af14 e9b9 0604 323d
000002c0: 5f6e 893d 7bcb 0e3e 8bbe d9bc be1f 1f3d
000002d0: 212f 543d 9d53 a63d 3dc2 083d 2b5d 673d
000002e0: aef8 82bd a0d3 e73d ffa4 8f3d 50ba 1fbe
000002f0: c0fb 4d3b f430 ad3d a7ca 98bd 7516 163d
00000300: a506 663c 9817 d8bd 26f2 263c b5fd d0bc
00000310: bc64 f5bc 9a1b 253e 26aa a83d 5c5d 6a3d
00000320: 71ed a23d e83b 64bd 0ccd 3fbc 1d5d 89bc
00000330: 8e63 29bd 0c6e c53b 423e 49bb a835 08bb
00000340: 808e 2f3e 013c b0bd 2f64 19bd 2ca3 f9bd
00000350: 92f8 7d3d 57f1 eabd 4460 79be 53a9 0ebe
00000360: 1820 65be 1da3 95bd 4700 1cbe ec76 0bbe
00000370: fdd7 b1bd b482 cabd 91bc 3cbd 45fc 52bd
00000380: b582 7cbd 98ca c0bc bcdb c73b 0950 56bd
00000390: 5fcd 1bb9 239c 743c 7991 5c3c 79c0 a63d
000003a0: 0c02 d9bc 242d be3d 9b15 dbbd 6d63 f9bd
000003b0: f44e e33b ed50 2d3e 7bca 8d3d 4572 a13d
000003c0: d5bf 39bd 0318 4cbd 1a67 bcbd f1d9 1c3e
000003d0: f0d3 27bd b7ba 82bd 7c85 a1bd 30e2 95bd
000003e0: 6430 41bd 4c55 f3bc 07c0 85bd a363 f0bd
000003f0: 6307 0fbd 50f8 443d 2f60 103e e7a3 783c

fc2.bias f4 [12]
-2.512835 1.2454025 -2.3782973 -1.7823385 -2.22985 -2.8148937 -1.3082525 2.0425496
0.63530713 -4.7375956 1.8275341 -2.1492994
00000000: 4ad2 20c0 5969 9f3f 0636 18c0 ab23 e4bf
00000010: ddb5 0ec0 3827 34c0 d174 a7bf 22b9 0240
00000020: 7da3 223f 629a 97c0 a3ec e93f 1f8e 09c0
