test_models/100epoch_5fold_normalized_model05.pt (torch, 414375 bytes, 6 tensors)

conv1.weight f4 [8, 3, 3, 3]
0	0xbdce3c89	-0.1007014
1	0x3ec9e427	0.3943188
2	0x3edbb1b3	0.4290901
3	0x3e645a22	0.22300008
4	0xbf0041e5	-0.5010055
5	0xbe3a037b	-0.1816539
6	0x3ea0dc8a	0.31418258
7	0xbec30fc1	-0.38097957
8	0x3dfc1337	0.123083524
9	0x3d8fbea3	0.07018783
10	0x3e466e90	0.19378114
11	0x3d4a6f2b	0.049422424
12	0xbe109ff7	-0.14123522
13	0xbedd8d82	-0.43272024
14	0xbe771ac0	-0.24131298
15	0x3e434b90	0.19071794
16	0x3e117596	0.14205012
17	0x3ea80618	0.3281715
18	0xbb34cbc2	-0.002758727
19	0xbe355b1b	-0.17710535
20	0xbc4d3b25	-0.012526308
21	0x3e08ef62	0.13372567
22	0xbdadf6a9	-0.08494312
23	0x3eaa9d99	0.33323362
24	0xbd8ab1c6	-0.06772189
25	0xbde912c8	-0.11380535
26	0xbe6dca36	-0.23221669
27	0xbd345f55	-0.04403623
28	0xbe9f5812	-0.3112188
29	0xbed13a05	-0.40864578
30	0x3e478e25	0.19487818
31	0xbd947c50	-0.07250273
32	0x3e7e6d51	0.24846388
33	0x3ed43482	0.4144631
34	0xbc928be9	-0.01788898
35	0xbe2140e1	-0.15747406
36	0x3d5aed1c	0.05344878
37	0x3d7a93c0	0.06117606
38	0xbe81b2b2	-0.25331646
39	0x3cc7c727	0.024386955
40	0x3e487a44	0.1957789
41	0x3d7a1f02	0.061064728
42	0x3e5f5475	0.21809562
43	0x3d808e02	0.06277086
44	0xbe3d761f	-0.18502091
45	0x3d257e47	0.04040363
46	0xbd07b3ed	-0.033130575
47	0x3d5b1476	0.05348631
48	0x3cd6831b	0.026185563
49	0x3de080fc	0.10962102
50	0xbe6e9dd0	-0.23302388
51	0xbe1d885d	-0.1538405
52	0xbe11f3bc	-0.14253134
53	0x3e092018	0.13391149
54	0x3e163d49	0.14671816
55	0x3e85f9e2	0.26167208
56	0x3e44914b	0.1919605
57	0x3e1922af	0.14954637
58	0x3d99dd64	0.0751293
59	0x3d84137c	0.06449029
60	0x3e57e082	0.21081737
61	0x3e19b978	0.15012157
62	0x3e3ecb9e	0.18632361
63	0x3e0e6ae7	0.13907968
64	0x3d96ee7c	0.07369706
65	0x3bc04c23	0.005868451
66	0x3d4af992	0.049554415
67	0x3e109eda	0.14123097
68	0x3da5a692	0.080884114
69	0x3cbdf1b6	0.023186546
70	0x3e078b40	0.13236713
71	0x3e32d04d	0.17462273
72	0xbddda5b0	-0.10822618
73	0xbd839cdc	-0.06426403
74	0xbe77f390	-0.24214005
75	0xbe5c91da	-0.21540013
76	0xbb9cd53f	-0.004786163
77	0xbdb10a0e	-0.08644496
78	0xbd79bba5	-0.060969967
79	0xbc0a5395	-0.008442779
80	0xbe927b9e	-0.28609937
81	0x3d8a4a06	0.067524
82	0x3c8d4126	0.01724298
83	0xbe75f5ec	-0.24019593
84	0xbdb98e11	-0.090603
85	0x3bbf0b3c	0.0058301967
86	0x3dc2df81	0.09515286
87	0xbdf2cbce	-0.11855279
88	0xbd0444a8	-0.03229204
89	0xbe1f19fb	-0.15537255
90	0x3e853132	0.26014096
91	0xbe06e8b5	-0.13174708
92	0x3e312e83	0.17302899
93	0x3e595bc4	0.21226412
94	0x3ee10ab2	0.43953472
95	0x3e98a4bc	0.29813182
96	0x3ebab64e	0.36467212
97	0xbc28032b	-0.010254662
98	0xbc17513f	-0.009235679
99	0xbeb7969d	-0.35857096
100	0xbe74839f	-0.23878334
101	0xbe78f27f	-0.24311255
102	0xbe34bdc9	-0.17650522
103	0xbca77f2c	-0.020446382
104	0xbe3b99b8	-0.18320358
105	0xbe4676a5	-0.19381197
106	0xbeb3bf53	-0.35106906
107	0xbe45479e	-0.19265601
108	0xbde0ecab	-0.10982641
109	0xbd86bca9	-0.06578953
110	0xbe134527	-0.14381848
111	0xbcdcac89	-0.02693774
112	0xbd15a654	-0.036535576
113	0xbd239166	-0.039933585
114	0xbd22ebf0	-0.03977579
115	0x3d2a0b05	0.041514415
116	0x3d38c098	0.045105547
117	0x3c95c47b	0.018282166
118	0xbc77be5a	-0.015121067
119	0xbc0fd816	-0.008779546
120	0x3d1ed707	0.038779285
121	0x3d531f32	0.051543422
122	0xbd95b86b	-0.073105656
123	0x3cafe2de	0.021470483
124	0xbdad842f	-0.08472478
125	0xbe007113	-0.12543134
126	0xbc1ec73f	-0.009691059
127	0x3daedbec	0.085380405
128	0x3e93761e	0.28801054
129	0x3e91ebb6	0.28500146
130	0x3e7f9721	0.24959995
131	0x3e312e5c	0.17302841
132	0x3d7af0f6	0.061264955
133	0x3e4ade6b	0.19811408
134	0x3edf8806	0.43658465
135	0xbc7c42fb	-0.015396829
136	0x3c571fca	0.013130138
137	0xbc4e888b	-0.012605797
138	0xbe1794a9	-0.14802803
139	0x3c079853	0.008276063
140	0xbea67970	-0.32514524
141	0xbe9d918e	-0.30775112
142	0xbe176499	-0.14784469
143	0xbe763568	-0.2404381
144	0xbeba755d	-0.36417666
145	0x3c5b83a0	0.013398081
146	0x3ea891ef	0.32923838
147	0xbe663e93	-0.22484808
148	0xbe3248e6	-0.17410621
149	0x3e6ff382	0.23432735
150	0xbe23dd00	-0.16002274
151	0xbcbb1ba1	-0.022840323
152	0x3e31493d	0.17313094
153	0x3ddb4359	0.10706205
154	0xbd943b97	-0.07237928
155	0xbe14fbb7	-0.14549147
156	0x3ea474b5	0.3212029
157	0x3daaf0ae	0.08346687
158	0xbc23c73b	-0.009996231
159	0x3e9f0581	0.31058887
160	0x3e5614e5	0.20906408
161	0x3eb6224d	0.35573044
162	0xbe0734f2	-0.13203791
163	0xbdbfbc62	-0.09362103
164	0xbd50e844	-0.051002756
165	0xbe6161cf	-0.22009967
166	0xbb9584c2	-0.004562945
167	0xbe8e0fdb	-0.27746472
168	0xbe986479	-0.29764155
169	0xbe035c7f	-0.12828253
170	0xbed74248	-0.42042756
171	0x3e0608ff	0.13089369
172	0x3c5c77b6	0.013456276
173	0x3d06e9f4	0.03293796
174	0x3d80f489	0.062966414
175	0x3e9ea907	0.30988333
176	0x3e0ca8c5	0.13736255
177	0xbeab5774	-0.3346516
178	0xbea2a5e9	-0.31767204
179	0xbe8a7e18	-0.27049327
180	0xbdfa1d18	-0.122125804
181	0x3e13576a	0.14388815
182	0x3d113e71	0.03545994
183	0xbd67a96a	-0.05655805
184	0x3e0b95b8	0.13631332
185	0x3e90b0ac	0.2825979
186	0x3df2dbcc	0.11858329
187	0xbcfd0166	-0.030884456
188	0xbe84a9f9	-0.2591093
189	0x3bbe2664	0.0058029164
190	0x3d5dba46	0.054132722
191	0xbd7d0bc6	-0.061778806
192	0xbe6f04c4	-0.23341662
193	0xbe37879d	-0.17922826
194	0xbd8b2233	-0.06793632
195	0x3d90866f	0.07056891
196	0x3d764d20	0.060132146
197	0x3e7112a8	0.23542273
198	0x3e11cf32	0.14239195
199	0x3ecefab9	0.4042566
200	0xbe2e4c30	-0.1702125
201	0xbd96a60b	-0.07355889
202	0x3e04113e	0.12897202
203	0xbe3a2806	-0.1817933
204	0xbd70c139	-0.05877802
205	0xbe9ef91e	-0.31049436
206	0xbe476eed	-0.19475909
207	0x3dea4936	0.11439745
208	0x3e1f2edc	0.15545219
209	0x3e888f56	0.26671857
210	0x3e809b10	0.25118303
211	0x3dba530a	0.0909787
212	0x3da7b872	0.08189477
213	0xbd81c542	-0.06336452
214	0xbeb7c105	-0.3588945
215	0xbed25b32	-0.41085202

conv1.bias f4 [8]
0	0xbefe1861	-0.49627975
1	0xbe164b64	-0.14677197
2	0xbf5d2b35	-0.86394054
3	0xbd134f0a	-0.03596405
4	0xbeea7093	-0.45789012
5	0x3d8252cd	0.06363449
6	0xbef63f46	-0.4809515
7	0xbe48a74b	-0.19595067

conv2.weight f4 [16, 8, 3, 3]
0	0xbd80a41b	-0.06281301
1	0xbc394afb	-0.011309381
2	0xbea7f100	-0.32801056
3	0xbd22df60	-0.03976381
4	0x3de2fef9	0.110837884
5	0xbc9699f2	-0.018383954
6	0x3d33262f	0.043737587
7	0x3d39c525	0.045354027
8	0x3db8ab3a	0.09017034
9	0xbda1487c	-0.078751534
10	0x3c200383	0.009766462
11	0xbcbf7793	-0.023372447
12	0x3d47c019	0.048767183
13	0x3d977ca2	0.07396819
14	0x3e1ac94d	0.15115853
15	0xbe5e3ada	-0.21702138
16	0x3cc732e3	0.024316257
17	0x3e1304bd	0.14357276
18	0xbf99f10f	-1.202669
19	0xbe73e33f	-0.23817156
20	0xbe299acb	-0.16562955
21	0x3ec162e9	0.37770775
22	0x3e323d35	0.17406161
23	0x3d02eaaa	0.031962074
24	0xbdc4d818	-0.09611529
25	0x3d6034e1	0.05473793
26	0xbd5fc92d	-0.054635216
27	0xbd41f75c	-0.04735504
28	0xbe719c4b	-0.23594777
29	0xbe0b92f6	-0.1363028
30	0x3d63666f	0.05551761
31	0xbd9c94fe	-0.076456055
32	0x3da4fdc4	0.080562145
33	0xbc9bf785	-0.019038925
34	0xbf0a3a5d	-0.53995305
35	0xbe326a74	-0.17423421
36	0xbec095c4	-0.37614262
37	0xbd5aae0e	-0.053388648
38	0xbdd7cbde	-0.105369315
39	0xbe7a3c15	-0.24436982
40	0x3e19cfa3	0.15020613
41	0x3e447a68	0.1918732
42	0x3d99a608	0.07502371
43	0x3dcdee01	0.10055161
44	0x3e6e28da	0.23257771
45	0xbd0fd56f	-0.035115656
46	0x3cf110c1	0.029426934
47	0xbd959313	-0.07303443
48	0xbc4de7bd	-0.012567458
49	0x3d205866	0.039146803
50	0xbc4a052f	-0.012330337
51	0x3d5e74d9	0.054310653
52	0x3e23f2e5	0.16010626
53	0x3d8a35ed	0.06748567
54	0x3da8863b	0.082287274
55	0x3d8ac4b4	0.067757994
56	0x3d2c6963	0.042092692
57	0x3c47837a	0.012177343
58	0xbef0afc0	-0.47009087
59	0x3d5d1ea3	0.053984296
60	0x3ce59024	0.028022833
61	0xbe6a7aa6	-0.22898349
62	0x3bb724b2	0.005589091
63	0xbea96f8e	-0.33092922
64	0xbe865cd5	-0.262427
65	0x3e65dde5	0.22447927
66	0x3cd79480	0.026315928
67	0xbebce160	-0.36890697
68	0x3e862186	0.2619745
69	0x3e640a7a	0.22269621
70	0xbc87c3bc	-0.016572826
71	0x3e25e968	0.16202319
72	0xbda8e60c	-0.08247003
73	0xbe650815	-0.22366364
74	0xbe408e5d	-0.18804307
75	0xbb15a6e0	-0.002283506
76	0xbe6a288f	-0.22867034
77	0x3d033b3f	0.032038923
78	0xbccc1fb1	-0.024917455
79	0xbe048927	-0.12942944
80	0x3dcd7644	0.10032323
81	0xbe5e73c2	-0.21723846
82	0xbe2d0935	-0.16898043
83	0x3d1f5869	0.038902674
84	0xbe24e50a	-0.16102996
85	0xbe58ef7d	-0.21185108
86	0x3d27a061	0.040924434
87	0xbe50d112	-0.20392254
88	0xbdbb9b41	-0.09160472
89	0x3db19ae0	0.08672118
90	0xbd789907	-0.060692813
91	0xbe113b6e	-0.14182827
92	0xbe7c2f91	-0.2462752
93	0xbbf93f92	-0.007606455
94	0xbd6a010a	-0.057129897
95	0xbcbd02e5	-0.02307267
96	0x3df37d8d	0.11889181
97	0xbe3bbda6	-0.18334064
98	0xbdadd3e6	-0.08487682
99	0xbde37b09	-0.111074515
100	0xbde2b51c	-0.110697
101	0xbdd64835	-0.10462991
102	0xbe1d6cd0	-0.1537354
103	0xbe1a4b7c	-0.15067858
104	0xbe328787	-0.17434512
105	0xbe3f546f	-0.18684553
106	0xbe55c710	-0.20876718
107	0xbe6f741a	-0.23384133
108	0xbca0ab56	-0.01961295
109	0xbdc4e9e4	-0.096149236
110	0xbe1a104c	-0.1504528
111	0xbde90d15	-0.11379448
112	0x3a8a20fa	0.0010538392
113	0xbda22b7b	-0.079184495
114	0x3c30a3b1	0.010781215
115	0xbe21dcbb	-0.15806858
116	0x3d5326dd	0.051550735
117	0xbe0491cd	-0.12946244
118	0xbce1aef4	-0.027549244
119	0xbe0081ad	-0.12549467
120	0xbcb18be9	-0.02167316
121	0xbcb27307	-0.021783365
122	0xbe1d5786	-0.15365419
123	0xbd617395	-0.05504187
124	0xbe3cf2fe	-0.18452069
125	0xbd32e452	-0.043674774
126	0x3dd630ae	0.10458504
127	0xbd2a3d02	-0.041562088
128	0xbe13e0e8	-0.14441264
129	0x3d61b6d9	0.055106018
130	0xbdc8e153	-0.09808602
131	0xbe0733f1	-0.13203408
132	0x3d781bf1	0.060573522
133	0xbdd8b14e	-0.10580693
134	0xbe50efce	-0.20403978
135	0x3db84150	0.08996832
136	0xbe2ed9a6	-0.17075214
137	0xbdf1c9af	-0.11806046
138	0xbd88d5f7	-0.066814356
139	0xbd0b5890	-0.034020007
140	0xbe35edfd	-0.17766567
141	0xbe08cdbe	-0.13359734
142	0xbda53d2b	-0.080683075
143	0xbc800c3e	-0.015630838
144	0x3c98ba31	0.01864347
145	0xbd46cda8	-0.048535973
146	0xbe0fc3b4	-0.14039499
147	0x3e196071	0.14978196
148	0x3d6f08a0	0.058357835
149	0x3c9a609a	0.018844891
150	0x3d438ede	0.04774367
151	0xbf1f2a77	-0.6217417
152	0xbdd47b87	-0.103751235
153	0x3e181330	0.1485107
154	0x3d95d88c	0.07316694
155	0x3deb8784	0.11500457
156	0x3dfb92df	0.12283873
157	0x3ef1c6f0	0.4722209
158	0x3ebc4b80	0.36776352
159	0xbe1b73aa	-0.15180841
160	0xbefc7dfc	-0.49314868
161	0xbe9aa935	-0.3020722
162	0x3dddb379	0.10825247
163	0x3e3aedd1	0.18254782
164	0x3e893c75	0.26803938
165	0xbedd09e0	-0.43171597
166	0xbf494c30	-0.7863188
167	0xbe7b898a	-0.24564186
168	0xbeb6c899	-0.3569992
169	0xbefad217	-0.4898841
170	0xbe844d9e	-0.25840467
171	0xbe864e04	-0.26231396
172	0xbe433b40	-0.19065571
173	0xbe2ef70f	-0.17086433
174	0xbe5294c7	-0.20564567
175	0xbea79d07	-0.3273699
176	0xbe62f839	-0.22165002
177	0xbe4c9b3d	-0.19981094
178	0xbdbd8e5d	-0.09255669
179	0xbd8ea550	-0.069651246
180	0xbe68bae8	-0.22727549
181	0xbe7a282b	-0.24429385
182	0xbbb42c2a	-0.005498429
183	0xbe8eb773	-0.27874336
184	0xbf5a8207	-0.85354656
185	0xbe02c584	-0.12770659
186	0xbf11552e	-0.567706
187	0xbf2fa3a6	-0.6860908
188	0xbe013e69	-0.12621464
189	0x3e29bf27	0.16576825
190	0x3e1c39be	0.15256402
191	0x3dd0ad24	0.10189274
192	0xbe3fe3ad	-0.18739195
193	0xbe68f7c4	-0.22750765
194	0x3e2e1a91	0.17002322
195	0xbd9a093a	-0.07521291
196	0xbd2335cf	-0.039846238
197	0x3db7b501	0.08970071
198	0xbf7b83a6	-0.98247755
199	0xbfa41813	-1.2819847
200	0xbf7a2ca0	-0.9772434
201	0xbfaaa691	-1.3332082
202	0xbfc07dc4	-1.5038381
203	0xbfd5916a	-1.6685002
204	0xbfb2c74c	-1.396707
205	0xc0015cfb	-2.0213
206	0xbfc7edda	-1.5619462
207	0x3e16dfbd	0.14733787
208	0x3e179d7f	0.14806174
209	0x3de88009	0.11352546
210	0xbe941324	-0.28920853
211	0xbeb19b99	-0.34689024
212	0xbdb8d80e	-0.09025584
213	0xbf875f34	-1.0575929
214	0xbf72ae9d	-0.9479769
215	0xbf77e36a	-0.9683138
216	0xbe8a154d	-0.26969376
217	0xbd1a3de0	-0.037656665
218	0xbd44d8e7	-0.048058417
219	0xbe874e7b	-0.26427063
220	0xbe1a991d	-0.1509747
221	0xbe1d5215	-0.15363343
222	0x3d924e1d	0.07143805
223	0xbe2c7400	-0.16841125
224	0xbe41fb07	-0.18943416
225	0xbea38e38	-0.31944442
226	0xbe2c7b73	-0.16843967
227	0xbd8c98c4	-0.06865075
228	0x3c0285c8	0.007966466
229	0xbd4495a4	-0.04799427
230	0xbe4e991a	-0.20175591
231	0x3c0b5062	0.0085030515
232	0xbd1ca7b3	-0.038245868
233	0x3aa39b0f	0.0012482124
234	0xbdf516c6	-0.11967234
235	0xbcd45f3e	-0.025924321
236	0xbc31e984	-0.010858897
237	0xbe4b3502	-0.1984444
238	0x3c7786ed	0.015107852
239	0xbc9a7ab3	-0.018857336
240	0x3b8932dd	0.0041869716
241	0xbe180331	-0.14844967
242	0xbe807071	-0.25085786
243	0xbe040d06	-0.12895593
244	0xbc7e0863	-0.015504929
245	0xbe369ce0	-0.1783328
246	0xbe9442e0	-0.28957272
247	0xbe64e205	-0.22351845
248	0xbd2f7317	-0.042834368
249	0xbe65ca0c	-0.22440356
250	0xbe9b0aac	-0.3028158
251	0xbd5bb43a	-0.053638674
252	0xbd57a9a1	-0.052652005
253	0xbdb0643d	-0.08612869
254	0x3bb564b9	0.0055356887
255	0xbdbd03ff	-0.09229278

conv2.bias f4 [16]
0	0xbf0b967d	-0.545265
1	0xbdb83613	-0.08994689
2	0x3f33bff9	0.702148
3	0xbd1a91a6	-0.037736557
4	0x3d748df2	0.059705682
5	0xbaf392da	-0.0018583194
6	0xbf0c281f	-0.5474872
7	0xbe195100	-0.14972305
8	0xbcca682b	-0.024707874
9	0xbd6ef59b	-0.058339696
10	0xbd8d0d8e	-0.06887351
11	0xbe6cf57b	-0.23140518
12	0xbccf3db8	-0.025297984
13	0x3ebfb682	0.3744393
14	0xbde26d92	-0.11056055
15	0xbe2c1bc0	-0.16807461

fc2.weight f4 [12, 8464]
0	0xbe03403f	-0.12817477
1	0xbe3cffac	-0.18456906
2	0xbd11ccaa	-0.035595573
3	0xbe327b63	-0.17429881
4	0xbdadb34e	-0.08481465
5	0xbd1b1ce8	-0.037869364
6	0xbef5bf7b	-0.4799765
7	0x3dde234d	0.10846577
8	0xbdc008a0	-0.09376645
9	0x3c97ad71	0.01851532
10	0xbf40318e	-0.75075614
11	0xbf158dac	-0.584193
12	0xbf0ac7a8	-0.542109
13	0xbeddaf26	-0.4329769
14	0x3d0062f5	0.031344373
15	0xbdb6431b	-0.08899518
16	0x3e5ef1ac	0.21771878
17	0x3c7c7adf	0.015410154
18	0xbcdcce3f	-0.026953815
19	0xbe382942	-0.17984489
20	0xbebf3bd8	-0.37350345
21	0xbe805807	-0.2506716
22	0xbf2cb226	-0.6745933
23	0xbcd31a98	-0.025769517
24	0xbeb3cc07	-0.35116598
25	0xbb077682	-0.0020670001
26	0xbe504435	-0.20338519
27	0xbd0cd319	-0.034381006
28	0x3e97b2c0	0.29628563
29	0xbd997ce9	-0.07494528
30	0xbedbba20	-0.4291544
31	0xbe848cee	-0.2588877
32	0xbea1bed3	-0.315909
33	0xbe878952	-0.26471955
34	0xbf115461	-0.56769377
35	0xbedda8b7	-0.43292782
36	0xbf1a712a	-0.60328925
37	0xbe9eba9c	-0.31001747
38	0xbe1a8dab	-0.15093105
39	0xbec2f407	-0.38076803
40	0x3ccc78c2	0.024959926
41	0xbc572dd2	-0.013133483
42	0xbd5e3af5	-0.054255445
43	0xbe53f838	-0.20700157
44	0xbddccb8c	-0.10781011
45	0xbe2981d8	-0.16553438
46	0xbe52bc3d	-0.2057962
47	0xbeb0e1db	-0.34547314
48	0x3bcb3073	0.006200844
49	0x3e145466	0.1448532
50	0x3e4dc86d	0.20095988
51	0xbf1c8491	-0.6113978
52	0xbdfe51cd	-0.12417946
53	0xbf112d3f	-0.56709665
54	0xbede5599	-0.4342468
55	0xbe88bf53	-0.2670847
56	0x3e1d8646	0.15383253
57	0x3e90ac10	0.28256273
58	0x3e28f1f3	0.16498546
59	0x3df2b2b5	0.11850492
60	0xbe16d6d3	-0.14730386
61	0xbe927318	-0.28603435
62	0xbeb15009	-0.34631374
63	0xbee21dba	-0.44163305
64	0xbece5b3a	-0.40303975
65	0xbc9d8049	-0.01922621
66	0x3cdb5f96	0.026778977
67	0xbe0ba266	-0.13636169
68	0xbd181714	-0.037131384
69	0xbde8d91f	-0.113695376
70	0x3d8353bb	0.06412455
71	0x3e78f592	0.24312428
72	0x3d435ded	0.047696996
73	0xbd842a4f	-0.06453382
74	0xbe8a9607	-0.27067587
75	0xbea148fe	-0.31501
76	0xbe03bc1a	-0.12864724
77	0xbcbbee48	-0.02294077
78	0xbcec705a	-0.028862167
79	0x3e7148f6	0.23562989
80	0xbdecbc0b	-0.11559304
81	0x3d38314e	0.044968896
82	0xbe564619	-0.20925178
83	0x3c0943d4	0.008377988
84	0xbbb2b20d	-0.005453354
85	0xbd336c65	-0.043804545
86	0x3d446b3e	0.047953837
87	0xbe95d958	-0.29267383
88	0xbe312e53	-0.17302828
89	0xbd86baaf	-0.06578576
90	0xbe4c0fae	-0.19927856
91	0xbefdc858	-0.49566913
92	0x3c548001	0.012969972
93	0x3dcb18f9	0.099168725
94	0x3d305bf2	0.043056436
95	0xbe4deefa	-0.20110694
96	0xbe4d7b79	-0.20066632
97	0x3e9375a4	0.2880069
98	0xbe18c50a	-0.14918914
99	0xbea0bea3	-0.31395444
100	0xbd476946	-0.04868438
101	0x3dd2978e	0.10282813
102	0x3e8e2062	0.2775908
103	0xbe11358f	-0.14180587
104	0xbccf13cf	-0.025278
105	0x3e703dbb	0.23461048
106	0xbe490f62	-0.19634774
107	0x3e005595	0.12532647
108	0xbe2b6ad1	-0.16739966
109	0x3caf99dc	0.02143567
110	0x3e1c8540	0.15285206
111	0x3dd71b30	0.105032325
112	0xbe8de331	-0.27712396
113	0xbdcc9600	-0.09989548
114	0xbe92cfa0	-0.2867403
115	0xbd7fe30b	-0.062472384
116	0xbe840344	-0.2578374
117	0xbd8ae9cf	-0.06782877
118	0x3d9a1a99	0.07524604
119	0x3e557d65	0.20848615
120	0xbdae9f56	-0.08526485
121	0x3ca55298	0.020180985
122	0x3ddae1b7	0.10687583
123	0xbe522da7	-0.20525227
124	0x3cde32a7	0.027123762
125	0x3e2b1c00	0.167099
126	0x3eb748a5	0.3579761
127	0x3ea907f3	0.33013877
128	0x3e071b0c	0.13193911
129	0xbe96e4f8	-0.29471564
130	0x3db6c176	0.089236185
131	0x3d6422a8	0.055697113
132	0xbb78cc71	-0.0037963653
133	0x3d9691e1	0.07352043
134	0xbd57009e	-0.052490823
135	0xbddb17f3	-0.10697927
136	0xbdbf9fd5	-0.093566574
137	0xbe3558cd	-0.17709656
138	0x3d0aa6e5	0.03385057
139	0xbe5e8585	-0.21730621
140	0xbd8bfc49	-0.06835229
141	0xbe1cc1b9	-0.15308274
142	0x3dd7a055	0.10528628
143	0xbe453b63	-0.19260935
144	0xbdaf7939	-0.08568043
145	0x3c928f62	0.017890636
146	0xbd462088	-0.048370868
147	0xbcc7e012	-0.024398837
148	0xbd24cd97	-0.04023513
149	0xbe3712cc	-0.17878264
150	0xbe99e0e4	-0.3005439
151	0xbdb667ca	-0.08906515
152	0xbd5beed8	-0.053694576
153	0x3e6b6efa	0.22991553
154	0xbd7d36b7	-0.06181976
155	0xbe1b65ce	-0.15175554
156	0x3db419b7	0.08793967
157	0x3e7dd5ab	0.24788539
158	0x3e157596	0.14595637
159	0xbd0a7778	-0.03380534
160	0xbb91eb43	-0.004453094
161	0x3e05a46f	0.13051008
162	0x3dca6de8	0.09884244
163	0x3d8667a8	0.065627396
164	0x3e2d4d7c	0.16924089
165	0xbe0dfd3d	-0.13866134
166	0xbdab0d3a	-0.08352132
167	0xbd557a8c	-0.052118823
168	0x3db43151	0.08798469
169	0x3e0f5ca3	0.14000182
170	0xbd1db01b	-0.038498025
171	0x3e894f04	0.26818097
172	0x3de8daad	0.11369834
173	0x3e3174f7	0.17329775
174	0x3e94d100	0.29065704
175	0xbd9b2566	-0.075754926
176	0x3ab11e51	0.0013513063
177	0xbe73cd41	-0.23808767
178	0x3e19c36c	0.15015954
179	0x3b8d9bb3	0.0043215393
180	0xbd9fb80d	-0.07798777
181	0x3df29572	0.11844911
182	0xbd39015e	-0.04516732
183	0xbdb838b4	-0.0899519
184	0xbe0b25bc	-0.13588613
185	0x3e0780d7	0.13232742
186	0x3c980fbc	0.01856219
187	0x3e09db50	0.13462567
188	0xbea22643	-0.31669816
189	0xbdc06871	-0.093949206
190	0xbcc3661e	-0.023852404
191	0x3e61d3a2	0.22053388
192	0xb9840536	-0.00025180884
193	0x3d90d4a1	0.07071806
194	0x3d87ee6d	0.06637273
195	0x3ebdaac5	0.3704435
196	0x3e918ceb	0.28427824
197	0xbd86a787	-0.06574922
198	0x3e0747e7	0.13211022
199	0xbe03d35d	-0.12873597
200	0xbe38c4be	-0.18043801
201	0x3dc6b708	0.09702879
202	0x3db73f0b	0.08947571
203	0xbab26149	-0.0013609316
204	0xbdbe15b1	-0.09281481
205	0x3e812ecd	0.2523102
206	0xbdd9ee55	-0.10641161
207	0x3e4c7128	0.1996504
208	0xbd1ba5a1	-0.037999753
209	0x35a9cdb5	1.265135e-06
210	0x3e91037b	0.28322968
211	0xbe354df7	-0.17705522
212	0x3df3de1a	0.11907597
213	0x3e9b26ea	0.30303127
214	0x3d7f5dd6	0.06234535
215	0x3df64585	0.120249785
216	0x3e0d0f6d	0.13775416
217	0x3df74a1d	0.12074683
218	0xbe3f6f76	-0.18694863
219	0xbd1dcc40	-0.038524866
220	0xbc8b7935	-0.01702557
221	0x3da9d496	0.08292501
222	0xbe86fb2f	-0.26363513
223	0x3e4d8314	0.20069534
224	0x3c5e4029	0.013565102
225	0xbda4ea4a	-0.080524996
226	0xbe0a96d6	-0.13534102
227	0xbe3fea37	-0.1874169
228	0xbd82aa4e	-0.06380139
229	0xbd3a2843	-0.045448553
230	0x3c3af925	0.01141194
231	0xbcbc1aea	-0.022962052
232	0x3e347d84	0.17626005
233	0xbd95f9ca	-0.07323034
234	0xbebb52d0	-0.36586618
235	0xbdee4191	-0.116335995
236	0x3cfa26a1	0.030535998
237	0xbe03e7bc	-0.12881368
238	0xbeda5c9a	-0.42648774
239	0xbf0fbb66	-0.5614532
240	0xc04ea381	-3.2287295
241	0xc068f30d	-3.6398346
242	0xc052c3b2	-3.2931943
243	0xbe810d99	-0.25205687
244	0xbf21f440	-0.6326332
245	0xbe823211	-0.25428823
246	0xbea94667	-0.33061525
247	0xbe63421b	-0.22193186
248	0xbadfb508	-0.0017067501
249	0xbd9de43e	-0.07709549
250	0xbe5f81d5	-0.2182687
251	0x3d804c62	0.06264569
252	0xbc991800	-0.018688202
253	0x3e1e103e	0.15435883
254	0xbd845963	-0.06462362
255	0x3e38314b	0.17987554

fc2.bias f4 [12]
0	0xbfd7e0ab	-1.6865438
1	0x3f071761	0.5277005
2	0xbfbe200c	-1.485353
3	0xbfcadbe3	-1.5848354
4	0xbfa7da30	-1.311346
5	0xc01a273b	-2.4086444
6	0xbfca3357	-1.5796918
7	0x3ff80963	1.9377865
8	0x3e70c7a8	0.23513663
9	0xc0c8e617	-6.278087
10	0x3fa9e1ef	1.3272074
11	0xbfd5bc0c	-1.6698012
