test_models/100epoch_5fold_model02.pt (torch, 414223 bytes, 6 tensors)

conv1.weight f4 [8, 3, 3, 3]
-0.13904305 -0.020932969 -0.27891824 -0.032961607 -0.18581444 -0.32281035 -0.34815252 -0.064045615
-0.37232462 -0.16941139 -0.105855204 0.12781985 0.25005856 0.15042293 0.025404058 0.041588712
-0.23319687 -0.09451638 -0.10996779 0.17905965 -0.00866678 0.23905101 0.12525603 0.34752786
-0.14517255 -0.07917014 0.3547967 0.25781658 0.34844464 0.18026616 0.26781064 0.078350045
0.3015523 0.30263287 0.21619168 0.21820182 -0.025098335 0.25863338 -0.0828347 0.16613294
0.12624061 0.16971238 0.25343812 0.15192975 0.2822236 -0.40923646 -0.44718748 -0.4555726
-0.3572721 -0.19166994 -0.27310964 -0.29854217 -0.17788327 -0.22015138 -0.068656206 -0.04708852
-0.010765464 0.14317977 0.16945468 0.15024933 -0.122570194 0.06930975 -0.075130105 -0.33726043
-0.10305126 -0.28199187 -0.30327818 -0.11569661 -0.2976976 -0.21864097 -0.099518225 -0.015821103
0.46262857 0.1939237 0.2906458 0.38170445 0.2681954 0.33855876 0.20334277 0.25109264
0.23364529 -0.25010204 -0.03584983 -0.10640967 -0.11458808 -0.16145658 0.27252722 -1.2926883
-0.28282654 0.11919327 -0.5411569 0.088715054 0.15303113 -0.123286285 -0.13141611 0.13142623
-1.5470624 -0.20298047 0.0070600267 -0.4360387 -0.030904347 0.034113612 -0.0033204553 -0.43875784
0.33652046 -1.4103811 -0.11956214 0.2279303 -0.19728781 -0.14824767 -0.27182657 -0.22162072
-0.2533286 0.063121006 -0.011623884 -0.07236487 0.017158885 -0.04157044 0.13974832 0.212915
-0.22055538 0.13247469 0.11874102 0.09163805 0.24217854 0.19490044 0.0019097917 0.33323768
0.39495173 -0.15773587 0.19690591 0.21163763 0.038811445 0.17648068 0.15990768 0.11597002
0.11610402 0.24211974 -0.044037983 0.19379228 -0.07874928 0.16201009 -0.31847203 -0.5757689
0.1694145 0.17375399 0.30046985 -0.044157106 0.2406521 -0.19212842 0.12577641 -0.32784247
-0.45471907 0.23700593 0.13187794 0.2913446 0.08437748 0.10581536 -0.16584581 -0.17007639
-0.39460158 -0.16261357 0.030504806 0.093105786 0.30351162 0.0055034533 -1.5657169 -0.76878196
0.028049929 -0.12250977 0.06687572 0.16980329 0.3421312 0.3359422 0.26426315 -1.4605231
-0.4834433 0.11004506 -0.27586144 -0.24547194 0.09173 0.21792452 0.6278781 0.16377114
-1.6629736 -0.9673193 0.24156532 -0.15063025 -0.1296371 0.32449424 0.0730417 -0.042173803
-0.13542035 -0.48882106 0.19013792 -0.05523602 -0.24973744 -0.0072078654 0.005110265 0.20433092
-0.123235255 -0.10096514 -0.15630497 0.15151098 -0.087154664 0.0042803166 0.047312282 0.285529
0.3042216 0.067300804 -0.13743196 -0.30917826 -0.092464216 -0.28094319 -0.2356622 -0.19681704
00000000: 4d61 0ebe 9e7b abbc 5fce 8ebe c002 07bd
00000010: 2446 3ebe 6647 a5be 0c41 b2be 592a 83bd
00000020: 55a1 bebe 2e7a 2dbe 9dca d8bd 35e3 023e
00000030: ad07 803e 7808 1a3e 2c1c d03c ed58 2a3d
00000040: 29cb 6ebe ce91 c1bd cb36 e1bd 6a5b 373e
00000050: 1cff 0dbc cac9 743e 1e43 003e 2cef b13e
00000060: 1da8 14be f423 a2bd eaa7 b53e 8900 843e
00000070: 5667 b23e b197 383e 7a1e 893e fd75 a03d
00000080: 1065 9a3e b2f2 9a3e 5a61 5d3e 4c70 5f3e
00000090: 069b cdbc 986b 843e 3da5 a9bd c11e 2a3e
000000a0: 3845 013e 15c9 2d3e a4c2 813e 7993 1b3e
000000b0: 9d7f 903e 7187 d1be c2f5 e4be d040 e9be
000000c0: 5eec b6be 2045 44be 07d5 8bbe 85da 98be
000000d0: 0827 36be 5d6f 61be a09b 8cbd e4df 40bd
000000e0: a161 30bc b89d 123e 8785 2d3e f6da 193e
000000f0: 1506 fbbd 45f2 8d3d d0dd 99bd 66ad acbe
00000100: 8a0c d3bd 3d61 90be 4747 9bbe 58f2 ecbd
00000110: d26b 98be 6be3 5fbe 36d0 cbbd 429b 81bc
00000120: a7dd ec3e ef93 463e 87cf 943e c46e c33e
00000130: e850 893e 9357 ad3e 1639 503e 378f 803e
00000140: b640 6f3e 600d 80be 45d7 12bd 50ed d9bd
00000150: 28ad eabd e054 25be b088 8b3e cf76 a5bf
00000160: a4ce 90be 9a1b f43d 4289 0abf 3db0 b53d
00000170: 31b4 1c3e 857d fcbd f291 06be 9994 063e
00000180: 2406 c6bf 1dda 4fbe cc57 e73b 7740 dfbe
00000190: 1d2b fdbc b7ba 0b3d ff9b 59bb dea4 e0be
000001a0: 694c ac3e 5e87 b4bf ffdc f4bd 9066 693e
000001b0: d105 4abe 3dce 17be da2c 8bbe 8bf0 62be
000001c0: 49b4 81be 9645 813d 1a72 3ebc 0834 94bd
000001d0: ca90 8c3c c445 2abd 2f1a 0f3e 6406 5a3e
000001e0: 45d9 61be 72a7 073e 7e2e f33d bbac bb3d
000001f0: a7fd 773e fb93 473e fa51 fa3a 219e aa3e
00000200: 1d37 ca3e 8385 21be b4a1 493e 89b7 583e
00000210: c0f8 1e3d 5ab7 343e d7be 233e b181 ed3d
00000220: f2c7 ed3d 3dee 773e 2c61 34bd 7c71 463e
00000230: 4d47 a1bd f9e5 253e c40e a3be 9765 13bf
00000240: ff7a 2d3e 91ec 313e 2fd7 993e 15de 34bd
00000250: 816d 763e 50bd 44be 88cb 003e f8da a7be
00000260: f0d0 e8be afb1 723e 030b 073e 1f2b 953e
00000270: 1ace ac3d b9b5 d83d 7cd3 29be 8128 2ebe
00000280: 3809 cabe 2c84 26be 37e5 f93c 3fae be3d
00000290: e065 9b3e 5056 b43b 6969 c8bf e5ce 44bf
000002a0: f7c8 e53c 67e6 fabd 23f6 883d eae0 2d3e
000002b0: d22b af3e 9e00 ac3e 804d 873e 6cf2 babf
000002c0: e185 f7be 4e5f e13d b63d 8dbe ff5c 7bbe
000002d0: f0dc bb3d 9b27 5f3e 9fbc 203f 9fb3 273e
000002e0: 52dc d4bf 3da2 77bf e65c 773e d13e 1abe
000002f0: 97bf 04be 1c24 a63e e396 953d 70be 2cbd
00000300: a2ab 0abe c146 fabe 84b3 423e 2a3f 62bd
00000310: 2cbb 7fbe f52f ecbb 0374 a73b 203c 513e
00000320: c462 fcbd d0c6 cebd 690e 20be b225 1b3e
00000330: 257e b2bd e641 8c3b 86ca 413d db30 923e
00000340: efc2 9b3e 01d5 893d f7ba 0cbe 9d4c 9ebe
00000350: e15d bdbd c9d7 8fbe 6f51 71be 688a 49be

conv1.bias f4 [8]
0.43178 -0.23517531 -0.25484455 0.117619544 -0.48340312 0.037776954 -0.19014016 0.25472215
00000000: 4512 dd3e ccd1 70be fc7a 82be 84e2 f03d
00000010: 9d80 f7be 02bc 1a3d 1ab4 42be f16a 823e

conv2.weight f4 [16, 8, 3, 3]
-0.045008525 -0.08829625 -0.07793916 -0.05214944 -0.038568586 -0.093599536 -0.024650142 -0.11166182
-0.004414947 0.050412577 -0.11580244 -0.1528876 -0.1722859 0.011333965 0.045867804 -0.16289572
-0.10311008 -0.1156483 -0.12461904 -0.119692855 -0.13454746 -0.13533892 -0.087832116 0.06746783
-0.08693173 -0.14809008 -0.03650695 -0.06783869 -0.03387359 -0.13216345 -0.09417975 -0.10954412
0.03919492 0.02514658 0.030272985 0.0018455582 0.093065344 -0.01926517 0.112879716 0.084526725
-0.013677004 -0.009576792 0.08025846 0.027076624 -0.03935003 -0.023185765 0.015502564 -0.15385816
-0.022069402 -0.038171135 0.05108501 -0.067247875 -0.14388148 -0.05643632 -0.09004154 0.058267597
-0.048568316 -0.11167986 -0.06517426 -0.004422497 -0.0864459 -0.11095341 -0.038444772 0.015716346
-0.16134034 -0.06858052 -0.15640983 -0.03288446 -0.12261382 -0.12088495 -0.11448663 -0.10946583
-0.009074294 -0.047044832 -0.15304329 -0.036133178 0.030081825 -0.08139323 -0.030650089 0.06981691
-0.06467779 -0.09548604 -0.114721805 -0.23955455 -0.14034201 -0.029734625 -0.070695266 -0.15700534
-0.1457582 -0.047676153 0.06397106 0.007763501 -0.12360674 0.02590351 -0.11309527 -0.18154687
-0.045907374 -0.11393556 -0.012235176 -0.105488904 -0.08229635 -0.16175899 -0.017458543 -0.1359618
-0.048440237 0.102104075 -0.014980095 0.10893515 -0.04272584 -0.09721932 -0.0025714275 0.010669876
0.036941525 0.0050114105 -0.12206138 -0.12138252 -0.0088571515 -0.28348002 -0.0794209 0.01863541
-0.11524825 -0.15467429 -0.048057992 -0.06404107 -0.14691062 0.085406564 -0.017144857 -0.118352875
-0.04716464 0.0069337753 0.0039544413 -0.036728553 -0.0353558 -0.16480072 0.14742158 -0.021928435
-0.06790682 -0.15770149 0.12368826 -0.0011329723 0.006984754 -0.03740862 -0.034341555 0.026613146
-0.17201339 0.34303308 0.5983249 -0.68529487 -1.0000209 -0.74317855 -0.50784653 -0.78072244
-0.7140658 -0.22184683 -0.4283079 -0.18788251 0.13792084 0.08582231 0.15412062 -0.047848955
-0.048329163 -0.05995753 0.19885702 0.1703796 0.16596068 0.014707679 0.10302212 -0.0057626283
-0.14406174 -0.12217092 -0.05836444 0.11070391 -0.037979476 0.17245948 -0.033315413 -0.15715896
-0.12514357 -0.09242232 -0.045428745 0.067719474 0.18937273 0.25222543 0.24583185 -0.058190897
0.112322375 0.11070573 -0.3011408 -0.15589684 -0.2179413 -1.6246206 -1.3152364 -1.1679112
-0.060378116 -0.63190055 -0.30113682 0.10471927 0.26234475 0.09893498 0.23253028 -0.17404
-0.15229692 -0.13933408 -0.2761401 0.027773665 -0.7600433 -0.45103887 -0.7716092 -0.3555645
0.26501197 -0.10837035 -0.41131243 -0.33859223 0.13946651 -0.17291252 -0.40342507 -0.08091411
-0.136759 0.11859482 0.035537448 -0.15469484 0.050208062 0.19632158 -0.008760172 0.11682607
-0.029926997 0.31528297 -1.086741 -1.3595794 0.2868639 -1.0216225 -1.7489846 0.7243568
-0.36187035 -0.90599096 -0.047907963 -0.86407703 -1.0407933 0.06566489 -0.95721847 -1.3052865
-0.14784218 -0.74314964 -1.4761192 -0.03776612 -0.1630571 -0.003262511 -0.16865624 -0.119433306
0.011919117 -0.11290926 -0.27154443 -0.119973175 -0.62833065 -1.2701098 -0.8772471 -0.31706396
00000000: dc5a 38bd aad4 b4bd 919e 9fbd a79a 55bd
00000010: 18fa 1dbd 1db1 bfbd 18ef c9bc f4ae e4bd
00000020: 42ab 90bb 6b7d 4e3d d429 edbd 918e 1cbe
00000030: b76b 30be 18b2 393c e1df 3b3d 23ce 26be
00000040: 612b d3bd 04d9 ecbd 4438 ffbd 8721 f5bd
00000050: cfc6 09be 4996 0abe 53e1 b3bd 932c 8a3d
00000060: 4309 b2bd eda4 17be 5088 15bd 03ef 8abd
00000070: 09bf 0abd db55 07be 50e1 c0bd ab58 e0bd
00000080: da8a 203d 3300 ce3c 0dff f73c a8e6 f13a
00000090: 0b99 be3d fdd1 9dbc 7b2d e73d 591c ad3d
000000a0: 8315 60bc fae7 1cbc 8c5e a43d cccf dd3c
000000b0: 7f2d 21bd 13f0 bdbc 77fe 7d3c fe8c 1dbe
000000c0: e4ca b4bc 5659 1cbd 843e 513d 41b9 89bd
000000d0: ab55 13be c529 67bd b367 b8bd 01aa 6e3d
000000e0: 92ef 46bd 69b8 e4bd 157a 85bd 98ea 90bb
000000f0: 8c0a b1bd 8b3b e3bd 4478 1dbd 91bf 803c
00000100: 6736 25be f273 8cbd e629 20be dbb1 06bd
00000110: f41c fbbd 8792 f7bd f777 eabd 9f2f e0bd
00000120: 59ac 14bc 15b2 40bd 61b7 1cbe 6200 14bd
00000130: 296e f63c 7eb1 a6bd e515 fbbc 2bfc 8e3d
00000140: ca75 84bd 2f8e c3bd 44f3 eabd ca4d 75be
00000150: d1b5 0fbe 0796 f3bc aec8 90bd 02c6 20be
00000160: a341 15be 1248 43bd 4203 833d f764 fe3b
00000170: 8825 fdbd 9933 d43c 7e9e e7bd 6ce7 39be
00000180: 5f09 3cbd 0c57 e9bd 0c76 48bc 910a d8bd
00000190: fd8a a8bd 26a4 25be 3805 8fbc 9239 0bbe
000001a0: 4569 46bd f11b d13d 136f 75bc 6419 df3d
000001b0: 4a01 2fbd ec1a c7bd 6585 28bb b4d0 2e3c
000001c0: ff4f 173d c236 a43b 51fb f9bd 6697 f8bd
000001d0: 961d 11bc 4b24 91be 6da7 a2bd 4aa9 983c
000001e0: 4607 ecbd f062 1ebe 75d8 44bd f727 83bd
000001f0: bd6f 16be a3e9 ae3d 5f73 8cbc fe62 f2bd
00000200: b62f 41bd b934 e33b 4294 813b ae70 16bd
00000210: 3ed1 10bd 85c1 28be aff5 163e 43a3 b3bc
00000220: bb12 8bbd 807c 21be 4550 fd3d 3e80 94ba
00000230: 5de0 e43b c839 19bd bba9 0cbd d003 da3c
00000240: 4724 30be 08a2 af3e d22b 193f 7c6f 2fbf
00000250: af00 80bf f340 3ebf 3b02 02bf 6ddd 47bf
00000260: 04cd 36bf d12b 63be 2c4b dbbe 4664 40be
00000270: 1f3b 0d3e 9bc3 af3d ccd1 1d3e 44fd 43bd
00000280: cdf4 45bd 0796 75bd 2da1 4b3e fd77 2e3e
00000290: 99f1 293e 7af8 703c 43fd d23d 6ed4 bcbb
000002a0: ec84 13be bf34 fabd 8d0f 6fbd bbb8 e23d
000002b0: 5e90 1bbd 3899 303e be75 08bd 47ee 20be
000002c0: a325 00be ea47 bdbd 7e13 3abd 82b0 8a3d
000002d0: edea 413e b123 813e 58bb 7b3e 9459 6ebd
000002e0: 4609 e63d b0b9 e23d 202f 9abe 6ca3 1fbe
000002f0: 012c 5fbe 91f3 cfbf ab59 a8bf 1d7e 95bf
00000300: 0b4f 77bd 3cc4 21bf 9b2e 9abe 0e77 d63d
00000310: 0d52 863e 6c9e ca3d 6b1c 6e3e 8b37 32be
00000320: b9f3 1bbe 98ad 0ebe 3c62 8dbe 9985 e33c
00000330: 3392 42bf 91ee e6be 2e88 45bf 8d0c b6be
00000340: a6af 873e 46f1 ddbd 8b97 d2be f65b adbe
00000350: 4fd0 0e3e fb0f 31be bb8d cebe 4cb6 a5bd
00000360: 8d0a 0cbe d7e1 f23d b78f 113d 5368 1ebe
00000370: f8a6 4d3d 8608 493e d386 0fbc 8242 ef3d
00000380: 7629 f5bc c56c a13e 541a 8bbf b306 aebf
00000390: d3df 923e 87c4 82bf bade dfbf 726f 393f
000003a0: 1247 b9be 06ef 67bf 243b 44bd 2734 5dbf
000003b0: b738 85bf 507b 863d 450c 75bf a113 a7bf
000003c0: f163 17be 0e3f 3ebf 79f1 bcbf a6b0 1abd
000003d0: 71f8 26be dacf 55bb 39b4 2cbe 7399 f4bd
000003e0: 6648 433c f83c e7bd df07 8bbe 7fb4 f5bd
000003f0: 47da 20bf f592 a2bf 4493 60bf 3556 a2be

conv2.bias f4 [16]
0.028795727 -0.089673884 -0.0321181 0.016843976 0.19471437 -0.15493776 -0.31973335 -0.13151367
-0.013619448 0.20862244 -0.45412603 0.30624178 -0.089499906 -0.48501307 -0.15988475 -0.06014781
00000000: 04e5 eb3c f1a6 b7bd 458e 03bd 61fc 893c
00000010: 3463 473e 01a8 1ebe 17b4 a3be 85ab 06be
00000020: 1b24 5fbc 1fa1 553e 3583 e8be b9cb 9c3e
00000030: ba4b b7bd a253 f8be d4b8 23be 8d5d 76bd

fc2.weight f4 [12, 8464]
-0.022714784 0.0107955905 -0.012564287 -0.008562208 -0.01831321 0.019659882 0.0044886963 -0.008656365
-0.010867692 0.0030546086 -0.0012198545 -0.0070752776 0.002435135 -0.010497863 0.009849568 -3.449295e-05
0.0024324579 0.0073128864 0.003920918 -0.0013967714 -0.008975972 0.0023014313 -0.006057112 -0.035457898
0.01179948 0.0007956922 0.009704769 0.0058926214 0.0047871512 0.0016842679 0.0053344592 0.009607516
0.008496537 0.0017804245 0.009693155 0.0058787414 0.0048198896 -0.002169083 -0.004144382 -0.006271304
0.009664896 0.0057864487 0.009833899 0.006841253 0.0031885079 -0.0022844828 -0.022589961 0.014197446
-0.00858795 -0.010790656 -0.0041379477 0.003005804 0.00025198254 -0.009503679 -0.00392154 -0.0063080774
0.00032495157 -0.009696847 -0.002341242 -0.0088239405 -0.010762472 0.0021010041 -0.0057636127 0.0077104233
0.0055420725 0.0060755974 -0.00059623044 -0.0037629216 -0.009727405 -0.0019677605 -0.0035216445 -0.0018257006
0.009244378 0.005144573 -0.0015139736 0.005533682 0.004345422 0.0027549863 -0.00082116673 -0.0039860387
0.008913878 -0.005983381 -0.004857912 0.00041869932 -0.010213146 -0.008667416 0.0068022585 -0.0067103053
0.0056268405 0.005361757 -0.0048251813 -0.010507057 -0.020393139 -0.0032417218 -0.010845987 0.0039183176
0.004427276 0.0023428306 0.010130808 -0.0029524798 -0.0066108485 -0.00544597 0.010862103 -0.010162684
-5.9082457e-05 -0.0048592547 0.0072749504 0.0104875 0.010561025 -0.00021582324 0.00078147394 -0.010359579
0.00037138618 0.009779622 0.00700104 0.010106834 0.0021652605 0.003019434 -0.005658624 -0.008992453
0.0056654317 -0.0015396579 0.009412592 0.0017754604 0.0017161136 -0.010360741 0.0036429 -0.008312321
-0.009592497 -0.0044315537 -0.005729288 0.0022311716 0.0040836167 0.009353723 0.0048375 -0.0014397515
0.009794148 -0.00028523544 -0.010054449 -0.008283157 0.01038198 -0.0044723568 -0.0005404094 0.007218694
0.0029921532 0.004658707 0.0050304634 0.00021531142 0.0048960955 -0.010080278 -0.010709803 8.731951e-05
0.0018347282 0.009607734 -0.0077550593 -0.0032918 -0.0004904672 -0.0076723243 -0.002445313 -0.008612427
0.0038066222 0.0025709064 0.0043539805 0.006636416 -0.003505143 0.0011558325 -0.00159147 0.0075925486
0.007090764 -0.008211384 0.008352269 -0.0032508802 -0.0045210524 -0.010360044 -0.0020972297 0.009295246
0.004357195 -0.0060662976 0.007632696 0.004119591 -0.0014951333 0.0029763735 -0.00979689 0.0033296128
9.038267e-05 0.0066978713 0.0033923169 -0.0096697435 -0.0076858597 -0.0057445285 -0.007509999 0.0078122565
-0.010499843 0.0052839946 0.0088313855 -0.00089145615 0.0036809226 0.0028535323 0.005605869 0.007104178
0.006674032 -0.0050751944 -0.0071516777 0.009340062 -0.0037714192 -0.010704703 9.245717e-05 0.002580543
0.0003314731 -0.007154277 0.0014549844 0.0024308264 -0.0033287355 0.0062876213 -0.010131213 -0.0014670634
-0.008752217 -0.009270518 -0.00962352 -0.0069136154 -0.0022773587 -0.007491406 -0.010319481 -0.0033082743
-0.008207772 -0.0003407105 -0.0084397625 0.002592412 0.0070263017 -0.00065045257 0.001816423 0.00012712376
-0.0032855298 0.0015469608 -0.01029844 0.0088312 0.010065506 0.005961259 -0.004406498 -0.017337268
-0.0043086032 -0.0014588224 -0.0005872781 -0.005766433 -0.0067794337 0.006944583 -0.004448275 0.0004907717
-0.0010479093 0.0067959144 0.0046701264 0.0075056595 -0.005869915 0.0047886684 0.0044161975 -0.0010508079
00000000: 5b14 babc fddf 303c 70da 4dbc 8148 0cbc
00000010: 9605 96bc c30d a13c ea15 933b 6dd3 0dbc
00000020: 670e 32bc d42f 483b 86e3 9fba bbd7 e7bb
00000030: c996 1f3b 3bff 2bbc 1560 213c 86ac 10b8
00000040: df69 1f3b f0a0 ef3b 0b7b 803b df13 b7ba
00000050: f50f 13bc 9cd3 163b bd7a c6bb 4d3c 11bd
00000060: 9b52 413c 0096 503a c000 1f3c e416 c13b
00000070: 89dd 9c3b a7c2 dc3a b0cc ae3b d868 1d3c
00000080: 0f35 0b3c 225d e93a 0ad0 1e3c 75a2 c03b
00000090: 2af0 9d3b 2d27 0ebb 99cd 87bb 837f cdbb
000000a0: 8359 1e3c 409c bd3b 5d1e 213c 972c e03b
000000b0: 49f6 503b 43b7 15bb 950e b9bc 689c 683c
000000c0: 79b4 0cbc 4bcb 30bc 9f97 87bb 06fd 443b
000000d0: 861c 8439 52b5 1bbc 4380 80bb fdb3 cebb
000000e0: 435e aa39 86df 1ebc 866f 19bb 4a92 10bc
000000f0: 1455 30bc 00b1 093b b0dc bcbb b8a7 fc3b
00000100: 469a b53b ce15 c73b 594c 1cba 599b 76bb
00000110: b25f 1fbc 8bf5 00bb 64cb 66bb 594c efba
00000120: bb75 173c ce93 a83b 8670 c6ba e453 b53b
00000130: 0b64 8e3b 008d 343b 9143 57ba 519d 82bb
00000140: 840b 123c 3d10 c4bb 1f2f 9fbb df84 db39
00000150: 0a55 27bc c701 0ebc 7be5 de3b 1fe2 dbbb
00000160: 5c61 b83b adb1 af3b 8e1c 9ebb cb25 2cbc
00000170: 830f a7bc 1173 54bb 5eb3 31bc 3b65 803b
00000180: af12 913b 2d8a 193b b0fb 253c 647e 41bb
00000190: d19f d8bb 1c74 b2bb f6f6 313c 6381 26bc
000001a0: 4ecf 77b8 623a 9fbb b562 ee3b c3d3 2b3c
000001b0: 2608 2d3c 9c4e 62b9 d4db 4c3a 39bb 29bc
000001c0: 9cb6 c239 b53a 203c fb68 e53b 2297 253c
000001d0: 0be7 0d3b b2e1 453b fb6b b9bb 1555 13bc
000001e0: 16a5 b93b 59ce c9ba 4637 1a3c 91b6 e83a
000001f0: 38ef e03a 19c0 29bc b8bd 6e3b 6730 08bc
00000200: d929 1dbc 9136 91bb c0bc bbbb d938 123b
00000210: dccf 853b 5c40 193c e483 9e3b 0bb6 bcba
00000220: a277 203c a78b 95b9 6abb 24bc 14b6 07bc
00000230: 2e19 2a3c d98c 92bb 43aa 0dba cb8a ec3b
00000240: 0018 443b 11a8 983b 96d6 a43b 38c5 6139
00000250: 6d6f a03b c027 25bc 2b78 2fbc 4e1f b738
00000260: 437b f03a c269 1d3c 271e febb 3dbb 57bb
00000270: b292 00ba 1f68 fbbb 8b41 20bb 231b 0dbc
00000280: 8678 793b a77c 283b d6ab 8e3b 4b76 d93b
00000290: 8bb6 65bb 4e7f 973a df98 d0ba eaca f83b
000002a0: a459 e83b 0a89 06bc f5d7 083c b80c 55bb
000002b0: 5625 94bb 2dbd 29bc ad71 09bb 164b 183c
000002c0: cdc6 8e3b cbc7 c6bb b21b fa3b a2fd 863b
000002d0: 59f8 c3ba 430f 433b 2383 20bc a235 5a3b
000002e0: d48b bd38 d179 db3b a251 5e3b d86d 1ebc
000002f0: aad9 fbbb 993c bcbb 7016 f6bb f5fd ff3b
00000300: 8907 2cbc 5c25 ad3b 84b1 103c 9cb0 69ba
00000310: a23b 713b 5402 3b3b 70b1 b73b 2aca e83b
00000320: d7b1 da3b d14d a6bb 9f58 eabb 0f07 193c
00000330: ea29 77bb c762 2fbc 91e5 c138 541e 293b
00000340: 91c9 ad39 6d6e eabb 2db5 be3a 804e 1f3b
00000350: ea26 5abb 6408 ce3b 63fd 25bc 7b4a c0ba
00000360: 7565 0fbc 5fe3 17bc f8ab 1dbc 9c8b e2bb
00000370: bd3f 15bb 787a f5bb 0a13 29bc a2cf 58bb
00000380: e479 06bc 64a1 b2b9 ee46 0abc 75e5 293b
00000390: e43c e63b 2283 2aba 0b15 ee3a 864c 0539
000003a0: 0b52 57bb 64c3 ca3a caba 28bc bdb0 103c
000003b0: cbe9 243c aa56 c33b 6264 90bb e306 8ebc
000003c0: 2f2f 8dbb f535 bfba 91f3 19ba 59f4 bcbb
000003d0: 0326 debb 628f e33b d6c2 91bb 22a7 003a
000003e0: 005a 89ba 43b0 de3b dc07 993b 09f2 f53b
000003f0: 6a58 c0bb 43ea 9c3b c0b5 903b 43bb 89ba

fc2.bias f4 [12]
-1.0069718 0.08405315 -1.3606135 -0.34748867 0.3601832 0.2874677 0.08052814 0.5069486
-0.3856014 -0.550703 0.5376194 1.3929114
00000000: 74e4 80bf 0f24 ac3d 9528 aebf 09ea b1be
00000010: ef69 b83e f72e 933e f0eb a43d 62c7 013f
00000020: 8c6d c5be dffa 0cbf 6da1 093f ec4a b23f
