test_models/100epoch_5fold_3conv_model02.pt (torch, 517223 bytes, 12 tensors)

conv1.weight f4 [8, 3, 3, 3]
0	0x3ea34fb8	0.31896758
1	0xbcc18217	-0.023621602
2	0x3e90aa02	0.28254706
3	0x3e535ed3	0.20641641
4	0x3e902702	0.2815476
5	0x3e6eea3c	0.23331541
6	0x3cb1f26e	0.021722045
7	0x3e65aa97	0.22428356
8	0xbc797bf7	-0.015227309
9	0x3e57661e	0.21035048
10	0x3cb53d57	0.022123976
11	0x3e236195	0.15955193
12	0xbc9eb05f	-0.01937121
13	0x3c3cd8fc	0.0115263425
14	0x3e32e636	0.17470631
15	0x3dada050	0.08477843
16	0xbd68d647	-0.056844976
17	0x3e4de06d	0.20105143
18	0xbe1138c5	-0.14181812
19	0xbe0ff170	-0.14056945
20	0xbe696853	-0.22793703
21	0xbe8f1b95	-0.2795073
22	0xbe0d85dd	-0.13820596
23	0xbe9874f1	-0.2977672
24	0xbd232379	-0.03982875
25	0xbd8e992a	-0.069628075
26	0xbd29d412	-0.04146201
27	0xbd2f5b28	-0.042811543
28	0xbdad5bf7	-0.084648065
29	0x3e0272af	0.12739061
30	0xbce63c2e	-0.028104868
31	0x3df7eb76	0.121054575
32	0x3d864f24	0.065580636
33	0x3d7ff0ab	0.06248538
34	0x3d7e4d4b	0.06208543
35	0xbd73f182	-0.05955649
36	0x3d3d1f18	0.04617223
37	0xbe1832c0	-0.1486311
38	0xbe2962e3	-0.16541629
39	0x3d893b69	0.06700785
40	0xbc51c22b	-0.012802641
41	0x3d8907ef	0.06690966
42	0x3e046a8b	0.12931268
43	0x3d5597a6	0.052146576
44	0x3e308c2c	0.17240971
45	0x3e1b4638	0.15163505
46	0xbd896529	-0.06708748
47	0xbd49367a	-0.04912422
48	0x3e97efb4	0.29675066
49	0xbcc47ce6	-0.023985337
50	0x3dbaedc6	0.09127383
51	0x3ddd57ca	0.1080776
52	0xbcf6a928	-0.030109957
53	0x3e0d8162	0.13818887
54	0xbe29bfaf	-0.16577028
55	0xbe0944d0	-0.13405156
56	0xbd63c710	-0.055609763
57	0xbc29ca5e	-0.0103631895
58	0x3d2bf33c	0.041980013
59	0xbd460b4d	-0.04835062
60	0xbd1d57f3	-0.038413953
61	0x3ceb221f	0.028702794
62	0x3cf87b50	0.030332237
63	0x3d471cc2	0.04861141
64	0xbde664ee	-0.112497196
65	0x3ddfb57a	0.10923286
66	0x3e14da53	0.14536409
67	0xbe0b140d	-0.13581868
68	0xbd25196e	-0.040307455
69	0x3d229e9d	0.039702047
70	0x3ccd94a1	0.025095286
71	0x3e2fd8c3	0.17172532
72	0xbc305af8	-0.010763876
73	0x3e8ab854	0.27093756
74	0xbdd85fc9	-0.105651446
75	0x3e9ad22b	0.3023847
76	0x3dd4d8c6	0.10392909
77	0x3dd61ad8	0.10454339
78	0x3ebc7411	0.36807302
79	0x3e2dfc6e	0.16990826
80	0x3e3de438	0.1854409
81	0x3e64d159	0.22345485
82	0x3d94011c	0.07226774
83	0x3c75279a	0.014963055
84	0x3e2fe61a	0.1717762
85	0xbc857f00	-0.01629591
86	0x3dcb289e	0.099198565
87	0x3e46e424	0.19422966
88	0x3d8d550f	0.06900989
89	0xbcecbc02	-0.028898243
90	0x3d9b30f6	0.07577698
91	0x3da0a419	0.07843799
92	0x3e395209	0.180977
93	0x3e300454	0.17189151
94	0xbda27284	-0.07931998
95	0xbda166d1	-0.07880939
96	0x3dc6f34e	0.097143754
97	0x3cd5582b	0.026043018
98	0x3e3df5a1	0.18550731
99	0xbe2f2704	-0.17104727
100	0x3dad6b12	0.08467688
101	0xbcc631a9	-0.024193602
102	0x3dfaa1b2	0.12237872
103	0x3dde8380	0.108649254
104	0x3e3966e8	0.18105662
105	0x3e4185b8	0.18898666
106	0x3e64666b	0.22304694
107	0xbdd2e3ab	-0.102973305
108	0x3dae432a	0.08508904
109	0x3d31699d	0.04331361
110	0xbdd52830	-0.10408056
111	0xbdc59f68	-0.09649545
112	0xbdf89b77	-0.121390276
113	0xbe049d26	-0.12950572
114	0xbb8202e7	-0.003967631
115	0xbe099d78	-0.13438976
116	0xbe12e231	-0.14344098
117	0x3c01906a	0.007907966
118	0x3d9fb1ae	0.077975616
119	0xbe03aaea	-0.12858167
120	0x3e178fa8	0.14800894
121	0x3e213291	0.15741946
122	0x3e326c47	0.17424117
123	0xbda8415b	-0.082155906
124	0x3b9ead7c	0.0048424583
125	0x3e3a49c1	0.18192197
126	0x3ba1bb2d	0.004935643
127	0x3e2b4cb2	0.16728476
128	0x3cca12c9	0.02466716
129	0x3bdbce74	0.0067079607
130	0x3ea0eb17	0.3142936
131	0x3e9c7490	0.3055768
132	0x3e801921	0.25019172
133	0xbbc2ddf8	-0.005946871
134	0x3e551119	0.20807303
135	0xbe8f8c20	-0.28036594
136	0x3dfbc423	0.122932695
137	0x3e3ccc9f	0.18437432
138	0xbe165e79	-0.14684476
139	0xbe8393bc	-0.2569865
140	0xbe2a8614	-0.16652709
141	0x3da0ddc0	0.078547955
142	0xbdae537f	-0.08512019
143	0x3e3c9bad	0.1841876
144	0xbe72e8d8	-0.23721635
145	0x3cf42e90	0.029807359
146	0x3e3b6e05	0.18303688
147	0x3d95e5f5	0.073192514
148	0xbd7398c4	-0.05947186
149	0xbe1370ef	-0.1439855
150	0x3e3096f2	0.17245081
151	0x3d63da7c	0.055628285
152	0xbcd6b131	-0.026207538
153	0xbe530335	-0.20606692
154	0x3c556e0c	0.0130267255
155	0x3d2f071b	0.042731386
156	0xbe286e6a	-0.1644837
157	0x3dcbb04f	0.099457376
158	0xbd971132	-0.073763266
159	0x3e2426b1	0.16030385
160	0x3da0a35c	0.07843658
161	0xbdf2e669	-0.118603535
162	0x3e690cab	0.22758739
163	0x3e0a9eea	0.13537183
164	0x3e5ec9d6	0.21756682
165	0xbedab36e	-0.4271502
166	0xbf81fbfd	-1.0155026
167	0xbde64699	-0.11243934
168	0xbeca9c47	-0.39572355
169	0xbe64c2d7	-0.2233995
170	0x3e5373fe	0.20649716
171	0x3d04bd7b	0.032407265
172	0x3e9a78b4	0.30170214
173	0xbd36b12a	-0.04460255
174	0xbe686daa	-0.22698084
175	0xbf78138b	-0.9690482
176	0xbd7ddbdc	-0.061977252
177	0xbefbb57a	-0.49161893
178	0xbe9fee85	-0.31236663
179	0x3dbf2ea1	0.09335066
180	0x3ed4d3e4	0.4156791
181	0x3ed44665	0.41459957
182	0x3e4040d8	0.18774736
183	0xbeef2cad	-0.46713772
184	0xbf659312	-0.89677536
185	0xbdcf4ad4	-0.10121694
186	0xbe34fc7b	-0.17674439
187	0xbeb28073	-0.34863624
188	0x3e2f1d3a	0.17100993
189	0x3e762f57	0.24041496
190	0xbe3bebd7	-0.18351685
191	0xbe375685	-0.17904098
192	0xbd827f70	-0.06371963
193	0xbdb465b6	-0.08808462
194	0x3e052cc8	0.13005364
195	0xbe71b52d	-0.2360427
196	0xbdf57532	-0.11985244
197	0xbe8ca2dc	-0.27468002
198	0x3e605d61	0.21910621
199	0x3e2c24be	0.16810891
200	0xbdf58d7c	-0.11989877
201	0xbe3c83e8	-0.18409693
202	0xbcdf8a13	-0.027287519
203	0xbdd5df2e	-0.10442959
204	0x3df3f746	0.11912398
205	0xbe4c3dfa	-0.19945517
206	0x3dfce5a2	0.123484865
207	0x3e21f695	0.1581672
208	0x3dd9cc06	0.106346175
209	0x3d87f52a	0.06638558
210	0x3cbbd7c7	0.02293004
211	0xbd631e83	-0.05544902
212	0x3e7eeeea	0.24895826
213	0x3bb0bbac	0.005393466
214	0xbd473cc2	-0.048641928
215	0x3af24cc5	0.0018486014

conv1.bias f4 [8]
0	0xbdf08304	-0.11743739
1	0xbedcb675	-0.43107954
2	0xbed23bd9	-0.41061285
3	0xbe96908c	-0.29407156
4	0xbe72bbda	-0.23704472
5	0x3e95ab97	0.29232475
6	0x3ddfa929	0.109209366
7	0x3e9af3c3	0.302641

conv2.weight f4 [16, 8, 3, 3]
0	0xbda8b92a	-0.08238442
1	0x3c881900	0.016613483
2	0xbdeaa573	-0.11457338
3	0xbe63bd18	-0.22240102
4	0xbd83d363	-0.06436803
5	0xbe625199	-0.2210144
6	0xbde0b12d	-0.109712936
7	0xbe2f5e9f	-0.17125939
8	0xbd22a6a0	-0.039709687
9	0x3db1b6b1	0.08677424
10	0x3cbd6efd	0.023124212
11	0xbd61c3b4	-0.055118278
12	0xbddcfeb1	-0.10790766
13	0xbe8a9e77	-0.27074024
14	0xbe53bff3	-0.20678692
15	0xbecbb136	-0.3978364
16	0xbea2acec	-0.31772554
17	0xbe8434b8	-0.2582147
18	0x3e4eb626	0.20186672
19	0x3e941349	0.28920963
20	0x3d683771	0.056693498
21	0xbb6769bc	-0.0035310825
22	0xbe5a4b81	-0.21317865
23	0xbba64ffa	-0.005075452
24	0xbe04ba7f	-0.12961768
25	0xbe7805fd	-0.24221034
26	0xbe576a13	-0.21036558
27	0x3df285fb	0.11841961
28	0x3e4cd6e6	0.20003852
29	0x3e23f448	0.16011155
30	0xbdafadab	-0.085780464
31	0xbd5a8df3	-0.05335803
32	0xbd949112	-0.072542325
33	0x3da7b2b6	0.08188383
34	0x3d8f783f	0.07005357
35	0xbd938f02	-0.07205011
36	0x3e8ea1a6	0.27857703
37	0x3e912f12	0.28356224
38	0x3d94b7fd	0.072616555
39	0x3d9df216	0.0771219
40	0x3dfeb846	0.12437491
41	0x3dd16b4e	0.10225545
42	0xbdee08cb	-0.11622771
43	0xbcfc6fdd	-0.03081506
44	0xbd8c8621	-0.068615206
45	0xbd07ed66	-0.033185385
46	0x3ce474b5	0.027887681
47	0x3dbf8285	0.093510665
48	0x3e73522d	0.23761816
49	0x3cd225dc	0.025652818
50	0xbd8a43ad	-0.067511894
51	0x3d994b60	0.0748508
52	0x3e2dc1cb	0.16968457
53	0x3e01959b	0.12654726
54	0x3e3cdfc7	0.1844474
55	0x3e2e8b95	0.17045434
56	0x3cec800d	0.028869653
57	0xbe7c92af	-0.2466533
58	0x3d451c42	0.048122652
59	0x3c853ab8	0.01626335
60	0xbebc16d8	-0.36736178
61	0xbef26f3b	-0.47350487
62	0xbef72b96	-0.4827544
63	0x3e6cdae6	0.23130378
64	0x3e8315da	0.2560261
65	0x3d8105b0	0.06299913
66	0x3e78fa09	0.24314131
67	0x3ec105bc	0.37699687
68	0x3e94f4c4	0.2909299
69	0x3d6a5322	0.057208188
70	0x3db7e708	0.089796126
71	0xbad917ff	-0.0016562938
72	0xbe9673c2	-0.2938519
73	0xbea6d326	-0.32582968
74	0xbea61041	-0.32434276
75	0xbe67c108	-0.2263223
76	0xbea9b46e	-0.3314547
77	0xbe670953	-0.2256215
78	0xbe1209c6	-0.14261541
79	0xbe98141c	-0.29702842
80	0xbe12a445	-0.14320476
81	0x3d32a294	0.043612078
82	0x3dce03ba	0.100593045
83	0x3d780c2a	0.060558476
84	0x3daa2321	0.083074816
85	0x3e078127	0.13232861
86	0x3d620da3	0.055188786
87	0xbe0600e7	-0.13086282
88	0x3da73b58	0.08165616
89	0xbc73e9b9	-0.014887267
90	0x3d3372c9	0.04381064
91	0xbd293edb	-0.04131971
92	0x3d06dab9	0.032923434
93	0xbcaa3e9f	-0.020781813
94	0x3e165318	0.14680135
95	0x3dcc71ee	0.09982668
96	0x3cab4a7a	0.020909537
97	0xbda9db00	-0.08293724
98	0x3bd10767	0.0063790563
99	0xbe7842e4	-0.24244267
100	0xbe35922d	-0.17731543
101	0xbe386514	-0.18007308
102	0xbe0da256	-0.13831457
103	0xbe8cd4a6	-0.27505988
104	0xbe848cd3	-0.2588869
105	0xbe5a9a7a	-0.2134799
106	0xbea954ec	-0.33072603
107	0xbe5db6a1	-0.21651699
108	0x3d3b18b9	0.045677874
109	0xbddfb8b4	-0.10923901
110	0xbd72a7f7	-0.059242215
111	0xbceb24b4	-0.028704025
112	0xbd5c7675	-0.053823907
113	0x3d8cf390	0.06882393
114	0xbe01492c	-0.12625569
115	0xbdaae805	-0.083450355
116	0xbe161005	-0.14654548
117	0x3e05c694	0.13064033
118	0xbd0b6e1e	-0.034040563
119	0xbd2b70d7	-0.04185566
120	0x3d41cd30	0.047314823
121	0x3e08d4fe	0.133625
122	0xbda5f732	-0.081037894
123	0xbd60033f	-0.054690596
124	0x3d938b62	0.072043195
125	0x3dd91be0	0.1060102
126	0xbcb6b086	-0.02230097
127	0xbdaa3a48	-0.083118975
128	0xbd84f7aa	-0.06492551
129	0xbe265af2	-0.1624563
130	0xbe1d6b64	-0.15372998
131	0xbcdecb81	-0.027196648
132	0xbd7f0455	-0.06225999
133	0xbe3bd808	-0.18344128
134	0xbd9506cd	-0.07276688
135	0x3dd116da	0.10209437
136	0x3e0fdf89	0.14050116
137	0x39de6140	0.00042415597
138	0x3e0d307c	0.13788027
139	0x3e285c9f	0.16441582
140	0x3d77a05f	0.060455676
141	0x3da13e88	0.07873255
142	0x3dcb6db0	0.099330306
143	0xbc0ba3ed	-0.00852297
144	0xbcf1d970	-0.029522628
145	0xbe34edb5	-0.17668803
146	0x3cce9f6b	0.0252225
147	0xbd8f4772	-0.06996049
148	0xbdbcd56d	-0.09220395
149	0xbcecdbcb	-0.0289134
150	0xbe1b1bb1	-0.15147282
151	0xbe30ffaf	-0.17285036
152	0xbcf48352	-0.029847775
153	0x3c9f1be4	0.019422479
154	0xbdc12b4d	-0.09432087
155	0xbd9ae61d	-0.07563422
156	0x3d74dcce	0.05978089
157	0xbdcaeee6	-0.099088475
158	0xbbe95b8d	-0.0071215094
159	0x3d0c38a6	0.03423371
160	0x3cc6f3c8	0.024286166
161	0x3db0a1cd	0.08624611
162	0xbd730398	-0.0593296
163	0xbd033ccc	-0.032040402
164	0xbd407ce5	-0.04699411
165	0x3cddb5a4	0.027064152
166	0xbe06f325	-0.1317869
167	0xbb9b9142	-0.0047475407
168	0xbbf7651f	-0.0075498964
169	0x3cd4ddbe	0.025984641
170	0xbe0959fd	-0.13413234
171	0x3d1a96a2	0.03774131
172	0xbdd6e185	-0.10492233
173	0xbd1cba99	-0.03826389
174	0xbdbf1bf2	-0.09331502
175	0xbde102fd	-0.10986898
176	0xbb829cb7	-0.003985967
177	0x3ca90e96	0.020636838
178	0xbc90d463	-0.017679399
179	0xbd79931b	-0.060931306
180	0x3d851931	0.064989455
181	0xbe335a6a	-0.17514959
182	0xbe3332f9	-0.17499913
183	0xbdc70b36	-0.09718935
184	0xbde89da2	-0.11358191
185	0x3cc8ab31	0.024495693
186	0xbd2a3f9e	-0.041564576
187	0xbe207c20	-0.1567235
188	0xbe31f1b7	-0.17377363
189	0xbda1927b	-0.07889267
190	0xbe233cd9	-0.1594118
191	0xbda618b7	-0.08110183
192	0xbe27f786	-0.16403016
193	0xbdb47c87	-0.08812814
194	0xbc9f52db	-0.019448688
195	0xbddd9a7b	-0.108204804
196	0xbe346b56	-0.1761907
197	0xbdf8922c	-0.12137255
198	0xbe0bbbfc	-0.13645929
199	0xbe09d28a	-0.1345922
200	0xbdef715b	-0.11691543
201	0xbccc3ce7	-0.024931384
202	0xbdf23e22	-0.11828257
203	0xbce32140	-0.027725816
204	0x3ced6e2c	0.028983198
205	0xbd21466e	-0.039373808
206	0xbdd2e762	-0.10298039
207	0xbe0dae59	-0.1383604
208	0xbd7a0c26	-0.061046742
209	0xbcddafbb	-0.027061334
210	0xbe2b3cbe	-0.1672239
211	0x3c43e5fb	0.011956687
212	0xbe1499ff	-0.1451187
213	0x3ca8e3c4	0.02061642
214	0xbe028dc1	-0.12749387
215	0x3c9292c8	0.017892256
216	0xbb96969b	-0.0045955903
217	0x3e4ec392	0.20191792
218	0x3e41ca40	0.18924809
219	0x3e0afcff	0.13573073
220	0x3e7c4003	0.24633794
221	0x3e540559	0.20705165
222	0x3e219413	0.15779142
223	0x3d1b0f40	0.03785634
224	0x3dfd93ed	0.1238173
225	0x3dcc6231	0.09979666
226	0x3dd87953	0.10570016
227	0x3dc6fc4d	0.09716091
228	0xbc9da496	-0.01924352
229	0x3e17ad54	0.14812213
230	0x3e13af45	0.14422329
231	0xbd37e083	-0.044891845
232	0xbc77f7f6	-0.015134802
233	0x3d340f88	0.043960124
234	0xbd73cf8d	-0.059524108
235	0x3d61150b	0.05495171
236	0x3d960840	0.07325792
237	0x3e307e5b	0.17235701
238	0x3e40705c	0.18792862
239	0x3e18f2d0	0.14936376
240	0xbe1d60c5	-0.15368946
241	0xbd1a21f5	-0.03763004
242	0xbdf9cbcf	-0.121970765
243	0xbd269e66	-0.040678404
244	0x3bd0e65c	0.006375117
245	0x3e413bd1	0.18870474
246	0x3cccfd61	0.025023164
247	0x3e680713	0.22658949
248	0x3e2fa707	0.1715356
249	0x3d802613	0.06257262
250	0xbc80c247	-0.015717639
251	0x3ddf6a5e	0.1090896
252	0xbc7969a1	-0.015222938
253	0x3dca1b50	0.09868491
254	0xbc6a5312	-0.014302032
255	0xbdf293c0	-0.11844587

conv2.bias f4 [16]
0	0x3c0af096	0.008480212
1	0x3e08206d	0.1329362
2	0xbdd96c40	-0.1061635
3	0xbe46c660	-0.19411612
4	0xbe9e1be6	-0.3088066
5	0xbe14ea72	-0.14542559
6	0xbdcd1f43	-0.10015728
7	0xbdef54ff	-0.116861336
8	0xbe054cbd	-0.13017555
9	0xbd4557a1	-0.048179273
10	0xbe047c8e	-0.12938139
11	0x3dace114	0.08441368
12	0xbea905ad	-0.33012143
13	0xbe1268ab	-0.1429774
14	0xbd2c4e40	-0.042066813
15	0xbe58d8e1	-0.21176483

conv3.weight f4 [32, 16, 3, 3]
0	0xbd25f3fc	-0.040515885
1	0x3d1a1311	0.03761584
2	0x3e24818f	0.16065048
3	0x3bd05d14	0.006358752
4	0x3ca261b7	0.019821985
5	0xbda28a0e	-0.07936488
6	0xbd4b69bc	-0.049661383
7	0xbe5a5894	-0.21322852
8	0xbe448d79	-0.19194593
9	0x3da21f39	0.079161115
10	0xbcd5941c	-0.0260716
11	0x3e3a6c21	0.1820531
12	0xbe5bdd30	-0.21471095
13	0xbe23eeb3	-0.16009025
14	0xbb0ac7dd	-0.0021176257
15	0xbea4ac38	-0.32162642
16	0xbe75335b	-0.23945372
17	0xbe2bc841	-0.1677561
18	0xbc852880	-0.016254663
19	0xbd15d4cb	-0.03657989
20	0x3d0697e2	0.03285969
21	0x3d9d9035	0.07693521
22	0x3da6f2dd	0.08151791
23	0x3d28dfb8	0.04122898
24	0xbc9ee910	-0.019398242
25	0x3bcd1d90	0.0062596276
26	0xbc0593b8	-0.008152895
27	0x3df568f8	0.11982912
28	0x3df27004	0.118377715
29	0xbd21a3cd	-0.039462853
30	0xbc921fe0	-0.017837465
31	0xbc14b5a7	-0.009076512
32	0xbe349ab4	-0.1763714
33	0xbd86dcea	-0.06585105
34	0x3d50961b	0.0509244
35	0xbdc24413	-0.094856404
36	0x3e443e02	0.19164279
37	0x3e089bc6	0.13340673
38	0xbc5b629e	-0.013390211
39	0x3dcff803	0.10154726
40	0xbdff113c	-0.12454459
41	0xbea1c551	-0.31595853
42	0xbce042cd	-0.027375603
43	0xbce38044	-0.027771123
44	0xbdc25f7a	-0.09490867
45	0x3dcd4bd5	0.100242294
46	0x3e6ccffa	0.23126212
47	0x3dd46ccf	0.10372316
48	0x3d75ee06	0.06004145
49	0xbcc9232b	-0.024552902
50	0xbe6cf7eb	-0.23141448
51	0xbe1a6f4a	-0.15081516
52	0xbe2dd672	-0.16976336
53	0xbea3f559	-0.32023123
54	0x3d31a058	0.043365806
55	0x3d254bd8	0.040355533
56	0x3c56031b	0.013062264
57	0xbd433c6d	-0.04766505
58	0x3ce6807e	0.028137442
59	0x3cc42d97	0.02394752
60	0x3ba72a92	0.0051015103
61	0x3d277435	0.040882308
62	0x3d437592	0.047719546
63	0x3dc08319	0.09400005
64	0x3da2f5d4	0.07957044
65	0x3e01376f	0.12618802
66	0x3dea3998	0.114367664
67	0x3dac454a	0.08411653
68	0x3dabde96	0.08392064
69	0xbb41b53a	-0.0029557482
70	0x3d808f95	0.06277386
71	0x3d4c1a15	0.04982956
72	0xbb295086	-0.002583535
73	0xbe0f8313	-0.14014845
74	0xbdb60023	-0.08886745
75	0x3de7df62	0.11321904
76	0x3c2887f0	0.010286316
77	0x3bba86d5	0.0056923428
78	0xbb7c24df	-0.0038474125
79	0x3d6c1c8f	0.057644423
80	0xbbc0341d	-0.0058655874
81	0xbd62d4d0	-0.055378735
82	0xbd9249b8	-0.07142967
83	0xbcf9d8bf	-0.03049886
84	0xbd9a7067	-0.0754097
85	0xbc1d0f81	-0.009586216
86	0xbd8a2911	-0.06746114
87	0xbd662491	-0.056187216
88	0xbd21f2e9	-0.039538298
89	0xbd9a54d4	-0.07535711
90	0x3a6c1ded	0.0009007145
91	0xbce6ad11	-0.028158696
92	0x3cfe1d4d	0.031019831
93	0x3dbc5940	0.091967106
94	0xbd3464dc	-0.0440415
95	0x3d9b4a12	0.07582487
96	0xbc1ad585	-0.009450321
97	0x3c1336c9	0.00898523
98	0x3cf869d4	0.0303239
99	0x3e3ca9b3	0.1842411
100	0x3e61ad2b	0.22038715
101	0x3e6b3ada	0.22971669
102	0xbe2ecaa8	-0.17069495
103	0xbe8cdf3a	-0.27514058
104	0xbe61c3a5	-0.22047289
105	0xbe90233b	-0.2815188
106	0xbebea921	-0.3723841
107	0xbe4dc99c	-0.20096439
108	0x3e30dfdc	0.17272896
109	0x3e270b55	0.16312917
110	0x3d80f9b6	0.062976286
111	0x3d8016a3	0.062543176
112	0xbd9d55c0	-0.07682371
113	0xbe62b2c4	-0.22138506
114	0xbddd14cb	-0.107949816
115	0xbe8b1260	-0.27162457
116	0xbe667056	-0.2250379
117	0x3d242dc3	0.040082704
118	0x3db219e9	0.08696348
119	0x3de2016d	0.11035428
120	0x3d146f61	0.03623903
121	0xbc9745b6	-0.018465858
122	0xbe6503aa	-0.22364679
123	0x3cefedf7	0.029288275
124	0xbd257fcb	-0.040405076
125	0xbddaba7d	-0.10680101
126	0x3cdbf12c	0.026848398
127	0x3d85ab3f	0.06526803
128	0x3c92f6ac	0.017939888
129	0x3bf9ea50	0.007626809
130	0xbc334a18	-0.010942958
131	0x3d662aae	0.056193046
132	0x3d8eb565	0.06968192
133	0xbcf408c0	-0.029789329
134	0xbd1e3c93	-0.038631987
135	0x3e5ddf78	0.21667278
136	0x3e2c50b9	0.16827668
137	0xbd62ce94	-0.05537279
138	0xbc808fd1	-0.015693577
139	0xbe00528d	-0.1253149
140	0xbe8e5424	-0.2779857
141	0xbdc2f497	-0.09519308
142	0xbd89a9cc	-0.06721839
143	0xbdbb0b44	-0.09133008
144	0x3b118262	0.0022202958
145	0xbb5783cc	-0.0032884954
146	0xbc994695	-0.018710414
147	0x3ba8e4a9	0.0051542115
148	0xbdc28e00	-0.094997406
149	0xbd2734cb	-0.04082183
150	0xbbac9250	-0.0052664652
151	0x3b9e5717	0.0048321593
152	0x3d0bd7cf	0.034141358
153	0xbd062057	-0.032745685
154	0xbd9f29f4	-0.07771674
155	0xbd8c2f64	-0.068449765
156	0xbdf14cc4	-0.1178222
157	0xbd416f85	-0.047225494
158	0xbdb7815f	-0.089602225
159	0xbdb92c8b	-0.09041699
160	0xbdb15968	-0.08659631
161	0x3b0ee4cc	0.0021803854
162	0xbb3bb320	-0.0028640702
163	0x3d10b222	0.03532613
164	0x3d5280b2	0.051392265
165	0x3d696612	0.056982107
166	0x3d14789e	0.036247842
167	0xbd6a64c6	-0.05722501
168	0xbca32ffc	-0.019920342
169	0xbd827c1a	-0.06371327
170	0x3d6ee53a	0.058324076
171	0xbdd69d74	-0.104792506
172	0x3bf841c7	0.0075762006
173	0x3b902787	0.0043992433
174	0xbd9740ea	-0.07385428
175	0xbdac7e99	-0.08422584
176	0xbd262fbc	-0.040572867
177	0xbcc0b399	-0.023523139
178	0xbdb4461f	-0.08802437
179	0xbded9824	-0.11601284
180	0xbdaf8061	-0.08569408
181	0x3d150f41	0.0363915
182	0xbbcb449c	-0.0062032472
183	0x3ce4a62f	0.027911274
184	0xbd960150	-0.07324469
185	0x3da11002	0.078643814
186	0xbdc38f79	-0.095488496
187	0xbd9d7972	-0.076891795
188	0xbda4547f	-0.08023929
189	0xbd901185	-0.070345916
190	0xbd413fe1	-0.04718006
191	0xbb372b9c	-0.0027949577
192	0x3d2ed87a	0.042686917
193	0xbdb3a2ca	-0.08771284
194	0xba815016	-0.0009865786
195	0x3d0a1dee	0.03371995
196	0xbd61ab38	-0.055094928
197	0xbd07cca2	-0.033154137
198	0xbda9196b	-0.08256801
199	0x3983ca6d	0.00025137086
200	0x3bf2cb07	0.0074094567
201	0xbd9062b4	-0.07050076
202	0x3d0f89da	0.035043575
203	0xbcf84e7c	-0.030310862
204	0x3d8b3bb3	0.06798496
205	0xbc419978	-0.011816375
206	0xbd684f83	-0.056716453
207	0xbca84768	-0.020541862
208	0x3bc8d122	0.006128446
209	0x3b3ed3cc	0.002911794
210	0xbd2aceee	-0.04170125
211	0x3cc5a9a0	0.024128735
212	0xbd983ae6	-0.07433109
213	0x3d2a0bc6	0.041515134
214	0xbb49868d	-0.0030750365
215	0x3c96808c	0.018371843
216	0xbc4e9f60	-0.01261124
217	0xbc7dc4a8	-0.015488781
218	0xbda22a58	-0.07918233
219	0xbd3c4633	-0.045965385
220	0xbb923780	-0.0044621825
221	0xbd9b754a	-0.075907305
222	0xbcf9eb00	-0.030507565
223	0xbd822f4e	-0.06356679
224	0x3cc93224	0.024560042
225	0xbcf5d73f	-0.030009864
226	0xbd116dd5	-0.035505135
227	0xbc6f26b7	-0.014596633
228	0xbd52fc73	-0.051510286
229	0x3d601e19	0.054716203
230	0xbd65823c	-0.056032404
231	0x3dc8b5ad	0.09800277
232	0xbdbae8a7	-0.09126406
233	0xbd0958dc	-0.03353201
234	0x3d4468db	0.04795156
235	0x3b664967	0.0035138966
236	0x3d64080c	0.055671737
237	0x3d591c9a	0.053005792
238	0xbda95fab	-0.082702
239	0x3d3c436a	0.04596273
240	0xbd30ba2a	-0.04314629
241	0x3cb0a5ec	0.021563493
242	0xbd4e8de3	-0.050428282
243	0xbdbb98bb	-0.091599904
244	0x3cd211c9	0.025643246
245	0xbd609d5d	-0.054837573
246	0xbd5d3c3a	-0.054012515
247	0xbcecf9a8	-0.02892764
248	0xbb853fd4	-0.004066447
249	0x3cdcc037	0.026947124
250	0xbc85ab7d	-0.016317124
251	0x3c114e47	0.00886876
252	0xbd24db63	-0.040248286
253	0xbd6408a4	-0.055672303
254	0x3d16b564	0.03679408
255	0xbc340254	-0.010986883

conv3.bias f4 [32]
0	0xbdf430b0	-0.11923349
1	0xbd403868	-0.046928793
2	0xbbb24e70	-0.0054414794
3	0x3e044ed2	0.12920693
4	0xbecaa193	-0.39576396
5	0x3db35cff	0.08757972
6	0xbd0d85c4	-0.034551397
7	0xbd7e66e0	-0.062109828
8	0xbd966834	-0.07344094
9	0xbe91518e	-0.28382534
10	0x3e54d24a	0.20783344
11	0xbe4aff3f	-0.19823931
12	0xbd49ed2e	-0.049298458
13	0xbd1116a1	-0.03542197
14	0xbeb12844	-0.34601033
15	0xbde0841f	-0.109627
16	0xbd6a0b63	-0.057139765
17	0xbcd7a545	-0.026323924
18	0xbd1555f8	-0.03645894
19	0x3e5b35e2	0.21407273
20	0xbd95cd7b	-0.07314583
21	0xbdbffeb7	-0.09374755
22	0x3d30641f	0.043064233
23	0x3e7b837d	0.24561878
24	0xbc96de66	-0.018416595
25	0x3dacfa76	0.08446209
26	0x3d330a02	0.043710716
27	0xbd8dc33b	-0.06922003
28	0x3d133fb6	0.03594943
29	0x3e18d446	0.14924726
30	0xbe30ee74	-0.17278463
31	0x3eee18e0	0.46503353

conv4.weight f4 [64, 32, 3, 3]
0	0x3be57179	0.0070020524
1	0xbd910865	-0.07081679
2	0xbcb99ce0	-0.022657812
3	0xbce94d0d	-0.028479123
4	0x3cb0efae	0.021598663
5	0xbd8da5b3	-0.0691637
6	0x3d0ac2ed	0.033877302
7	0xbd06744d	-0.032825757
8	0xbd6d7a07	-0.057977702
9	0x3d679537	0.056538787
10	0x392a6f00	0.00016253814
11	0x3d4411e5	0.047868628
12	0xbcc6eae6	-0.02428193
13	0xbcc84ca8	-0.024450615
14	0xbc4c7af0	-0.012480482
15	0x3cc7bd76	0.024382334
16	0x3d2844a9	0.041081104
17	0x3d5ce1d1	0.053926293
18	0xbc066cc3	-0.008204642
19	0x3cbe821d	0.023255402
20	0x3cc964cf	0.024584202
21	0xbbca1b40	-0.0061677992
22	0xbc46a58d	-0.012124431
23	0xbd68b3cb	-0.05681209
24	0x3ce83806	0.028347027
25	0xbba7aa53	-0.00511674
26	0x3cd113ef	0.0255222
27	0xbd90f310	-0.070776105
28	0x3cbfe9b4	0.023426868
29	0x3c89663c	0.016772382
30	0xbd15b456	-0.036548935
31	0x3d112b68	0.035441786
32	0x3c1d4e4a	0.009601185
33	0x3b566dab	0.0032719176
34	0xbd94d1b9	-0.07266564
35	0xbd38ad8a	-0.045087375
36	0xbd1379cb	-0.036004823
37	0xbc7f4418	-0.0155802
38	0xbd3eb9e6	-0.046564005
39	0x3d0390a9	0.03212038
40	0xbd3ac1db	-0.04559503
41	0x3d0d2892	0.03446252
42	0xbcf2f380	-0.029657125
43	0x3c8c957b	0.017161122
44	0xbcb23fc8	-0.021758929
45	0xbce60c4a	-0.028082032
46	0x3d34e59b	0.04416428
47	0x3cd7f28a	0.026360769
48	0xba4bc680	-0.0007773414
49	0xbd0b8bf1	-0.034069005
50	0x3cc6ae32	0.024252985
51	0xbd15a244	-0.0365317
52	0xbd22d682	-0.03975535
53	0xbc9fc8a4	-0.019504853
54	0xbd3e1eff	-0.04641628
55	0x3bf251c5	0.0073950016
56	0xbd067d78	-0.0328345
57	0x3cd3a42a	0.025835115
58	0xbc26c4f9	-0.010178798
59	0x3c74da1c	0.014944579
60	0xbc8c6566	-0.017138194
61	0xbd02712a	-0.031846203
62	0xbcb2f4dc	-0.021845274
63	0x3cc9c7ba	0.02463137
64	0x3c468886	0.012117511
65	0xbc73f864	-0.014890764
66	0x3d04ab75	0.032390077
67	0x3c8abe3e	0.016936418
68	0xbd934d39	-0.071924634
69	0xbd48fb80	-0.049067974
70	0xbc552e0f	-0.0130114695
71	0x3d2ce920	0.042214513
72	0x3ceb51a2	0.028725449
73	0xbc901af4	-0.017590977
74	0xbcefac0a	-0.02925684
75	0xbd63237f	-0.055453774
76	0x3bbac2e8	0.005699504
77	0x3d22db25	0.039759774
78	0x3c865abe	0.016400691
79	0x3cd72322	0.02626187
80	0xbc8009f0	-0.015629739
81	0x3b8881f6	0.004165883
82	0xbcf08a17	-0.029362721
83	0x3c23576f	0.009969576
84	0xbc4ba867	-0.012430287
85	0x3b9eab2d	0.004842183
86	0xbd0ae51a	-0.033909895
87	0xbd7c6d93	-0.061627936
88	0xbc706199	-0.014671707
89	0xbc9fe973	-0.019520497
90	0x3be7b071	0.007070594
91	0x3bc862a7	0.006115276
92	0xbd82e81f	-0.0639193
93	0xbcd092ff	-0.025460718
94	0xbbfea92f	-0.007771633
95	0xbcaa077a	-0.020755518
96	0x3c8bca4d	0.017064238
97	0x3d27b709	0.04094604
98	0xbd10b8f0	-0.03533262
99	0xbc365a0c	-0.011129867
100	0xbd5301c6	-0.051515363
101	0xbd49512b	-0.049149673
102	0xbd4e9fad	-0.050445247
103	0xbca42b8b	-0.020040294
104	0xbc9aa51d	-0.01887756
105	0x3d2a3798	0.041556925
106	0xbd6c3d2f	-0.057675537
107	0x3d04f3d4	0.032459095
108	0x3cf7468a	0.030185003
109	0xbd24bd84	-0.0402198
110	0x3a87a700	0.0010349452
111	0x3d708d35	0.058728416
112	0xbcfdb050	-0.030967861
113	0x3cfd88ea	0.030949075
114	0x3c6cdf44	0.014457528
115	0x3c61c414	0.013779659
116	0xbc5e1290	-0.01355423
117	0x3c6e2925	0.014536177
118	0xbd786dfc	-0.060651764
119	0xbd392ad2	-0.045206852
120	0x3d2e330e	0.04252916
121	0xbd649e52	-0.05581505
122	0xbd2fdf1a	-0.042937376
123	0xbd3a36dd	-0.045462478
124	0x3b577580	0.0032876432
125	0x3ce9a62e	0.028521623
126	0xbd5c847c	-0.053837284
127	0xbcc66540	-0.024218202
128	0xbc207da7	-0.009795583
129	0xbd48ce42	-0.049024828
130	0x3d147e8d	0.0362535
131	0x3c9579dd	0.018246586
132	0xbd31a357	-0.043368664
133	0xbd2a2bfe	-0.04154586
134	0x3b02bdf4	0.0019949647
135	0xbcc6dc76	-0.024275046
136	0xbd596aa8	-0.05308023
137	0x3cecc942	0.028904561
138	0xbd4a81cc	-0.04944019
139	0x3c254bdc	0.010088887
140	0xbc02a6c4	-0.00797433
141	0xbb24af80	-0.002512902
142	0xbd132158	-0.03592047
143	0x3d08bf95	0.033385832
144	0xbd229273	-0.039690446
145	0x3d308cc7	0.043103006
146	0x3cdac27c	0.026704066
147	0xbcffcb67	-0.03122492
148	0xbd25d029	-0.04048172
149	0x3d4375a1	0.0477196
150	0xbd1e8e58	-0.03870997
151	0x3ccc0c26	0.024908137
152	0xbd6d01f0	-0.057863176
153	0xbcf7defe	-0.030257698
154	0x3d246c96	0.040142618
155	0xbd33554c	-0.043782517
156	0xbd46a91d	-0.048501123
157	0xbc8a8f69	-0.016914086
158	0xbb4f12da	-0.003159693
159	0xbd4ef276	-0.050524198
160	0xbd88339a	-0.06650467
161	0x3ce4cbed	0.02792927
162	0xbd56f148	-0.052476197
163	0xba8c64a0	-0.0010711141
164	0x3d105589	0.035237823
165	0x3c8ee8de	0.017445024
166	0xbd6f2683	-0.058386337
167	0x3d2eea63	0.042703997
168	0x3d1dc833	0.038521003
169	0xbc9e890a	-0.019352455
170	0xbcc07c36	-0.023496728
171	0xbcaef7b4	-0.021358348
172	0x3cbe1ba8	0.023206547
173	0xbd7c7bb9	-0.06164143
174	0xbd6d6089	-0.05795339
175	0xbcfa6832	-0.030567262
176	0xbbf03e17	-0.0073316204
177	0x3c1ca0ff	0.009559869
178	0x3ce22327	0.027604653
179	0xbce10f00	-0.027472973
180	0x3cca21a1	0.024674239
181	0xbd20e50e	-0.039280944
182	0xbd2674cb	-0.040638726
183	0xbd4dfa5d	-0.050287593
184	0xbd8b6a20	-0.06807351
185	0xbc15f1b8	-0.0091518685
186	0xbcc4ec2e	-0.0240384
187	0xbd6b4438	-0.057438105
188	0x3d0f1a52	0.03493721
189	0xbd3cf702	-0.046134003
190	0xbd3695e3	-0.044576537
191	0xbd036c86	-0.032085918
192	0xbc606360	-0.013695568
193	0xbd36c0f8	-0.044617623
194	0xbd0d37d4	-0.03447707
195	0xbcffaa19	-0.031209039
196	0xbc11b8b8	-0.008894138
197	0xbd63219b	-0.05545197
198	0xbd67f166	-0.0566267
199	0xbd81921e	-0.06326698
200	0xbd156524	-0.03647341
201	0xbd361f69	-0.04446355
202	0x3d155be9	0.036464605
203	0x3c796b17	0.015223286
204	0x3cec47e4	0.028842874
205	0xbc848993	-0.016178882
206	0xbc9b53d0	-0.018960863
207	0x3cfa2cee	0.030539002
208	0x3ca77ecf	0.02044621
209	0xbc71c6ea	-0.014756897
210	0x3cc9d02c	0.024635397
211	0x3d0c505d	0.034256328
212	0xbd589602	-0.052877434
213	0x3ae27083	0.0017275963
214	0xbd02aeea	-0.031905092
215	0xbd02f22c	-0.031969234
216	0x3ccaa6b2	0.02473769
217	0x3ca69eea	0.020339448
218	0x3d05e8d7	0.032692757
219	0xbd44ebd1	-0.048076455
220	0x3d5ba623	0.053625237
221	0xbc8d3532	-0.01723728
222	0xbd44973e	-0.0479958
223	0x3d066ca5	0.032818455
224	0xbd53741a	-0.051624395
225	0xbc19633c	-0.009362038
226	0xbc06bbbb	-0.008223469
227	0xbc9af804	-0.018917091
228	0xbbb1424e	-0.0054095155
229	0xbc244725	-0.010026728
230	0x3d10af57	0.035323467
231	0x3a93d1c8	0.001127773
232	0xbc945db1	-0.018111082
233	0xbcff6864	-0.031177707
234	0xbd4f5aff	-0.05062389
235	0xbd0a5106	-0.033768676
236	0xbbe9ad20	-0.007131234
237	0x3be6250d	0.0070234598
238	0x3d0e8468	0.03479424
239	0x3c409ef3	0.011756646
240	0x3c54a793	0.012979406
241	0xbcdc9d97	-0.026930613
242	0xbd737b25	-0.05944361
243	0xbd162b20	-0.03666222
244	0xbd1f6da1	-0.03892291
245	0x3c7463e4	0.014916394
246	0xb99bbb80	-0.00029703602
247	0xbc10acb8	-0.008830242
248	0x3b90c248	0.0044176914
249	0xbbbe5df8	-0.005809542
250	0x3d51e579	0.051244233
251	0xbd4352b6	-0.0476863
252	0xbd49f514	-0.04930599
253	0xbd41ac89	-0.047283683
254	0xbd3c8a9f	-0.046030637
255	0x3d0b9213	0.034074854

conv4.bias f4 [64]
0	0xbd834f2b	-0.064115845
1	0xbe3d9f8d	-0.18517895
2	0x3d19cb7f	0.037547585
3	0xbe06aa34	-0.13150865
4	0x3d59c2e4	0.053164378
5	0xbd7a5857	-0.061119404
6	0xbcef0016	-0.029174846
7	0xbe59b476	-0.21260247
8	0xbd94937c	-0.07254693
9	0xbe74614b	-0.2386524
10	0xbd6315df	-0.05544078
11	0xbd0043f2	-0.031314798
12	0xbda981e5	-0.082767285
13	0xbdbf9c1b	-0.09355947
14	0xbd9bcde6	-0.076076314
15	0xbd637611	-0.05553252
16	0x3d094714	0.03351505
17	0xbe0ec20c	-0.1394121
18	0x3c2032a1	0.009777696
19	0x3daae587	0.0834456
20	0x3c3d93ec	0.011570912
21	0xbe4ca31b	-0.19984095
22	0x3ccddf2b	0.025130829
23	0xbd8a91fb	-0.06766125
24	0xbd871bc7	-0.06597095
25	0xbd85b867	-0.065293126
26	0xbd95aa1d	-0.07307837
27	0x3d818232	0.06323661
28	0xbdb57395	-0.08859936
29	0xbcaeb9b4	-0.021328785
30	0xbc675734	-0.014119912
31	0xbcf4ebf7	-0.029897673
32	0xbdb9a8ad	-0.090653755
33	0xbde327fc	-0.11091611
34	0xbd110cf7	-0.035412755
35	0xbdae55b9	-0.08512444
36	0x3d1d2cf2	0.03837294
37	0xbdc12d25	-0.09432439
38	0xbe30a45c	-0.17250198
39	0xbd3a3eac	-0.045469925
40	0xbd81a533	-0.063303374
41	0xbceaeab5	-0.02867637
42	0xbd14f03f	-0.03636193
43	0xbdc4c3f3	-0.09607687
44	0xbd96dae8	-0.07365972
45	0xbb644025	-0.0034828272
46	0xbca34dad	-0.0199345
47	0xbdba3633	-0.09092369
48	0x3bf6eb52	0.0075353766
49	0xbc774fd7	-0.015094719
50	0xbdfff80a	-0.124984816
51	0x3ca9cea3	0.020728415
52	0xbdc55f23	-0.096372865
53	0x3be806d0	0.0070808902
54	0x3d54264d	0.05179434
55	0x3d5af7f7	0.053459134
56	0x3d047e74	0.032347158
57	0xbd9cc449	-0.07654626
58	0x3e0e45d4	0.13893825
59	0x3cce6da5	0.025198767
60	0xbbbb8861	-0.0057230447
61	0x3e60ab35	0.2194031
62	0xbe16e598	-0.1473602
63	0xbc11707f	-0.008876919

fc1.weight f4 [100, 1024]
0	0x3c78a618	0.015176319
1	0xbd0e6737	-0.034766402
2	0xbca6970c	-0.020335697
3	0x3c2cfc50	0.010558203
4	0x3c48f624	0.012265716
5	0xbc820b42	-0.015874509
6	0x3c76537f	0.015034555
7	0xbc8c05b4	-0.017092563
8	0xbc0e98d8	-0.008703433
9	0xbca2226c	-0.019791804
10	0x3c0c4d9c	0.008563425
11	0x3ca16eb4	0.019706108
12	0xbcdb9814	-0.026805915
13	0x3cfd0432	0.03088579
14	0xbc6c2f50	-0.014415577
15	0x3cce030e	0.025147941
16	0x3d10b7b0	0.035331428
17	0xbd7acd29	-0.061230812
18	0x3d421c8d	0.04739051
19	0x3defccbb	0.11708971
20	0x3d8a6b1b	0.0675871
21	0x3c2df12a	0.01061658
22	0xbd52dede	-0.051482074
23	0x3d8f359e	0.069926485
24	0x3b3bc339	0.0028650297
25	0x3d9946d3	0.07484212
26	0xbd1b4f7f	-0.03791761
27	0x3d975846	0.07389884
28	0x3dd8896e	0.10573088
29	0x3df6f158	0.120577514
30	0xbc053c20	-0.008132011
31	0x3d78ff12	0.06079013
32	0xbe20b00c	-0.15692157
33	0xbe87bb7f	-0.26510236
34	0xbd81159b	-0.06302949
35	0xbd963aa2	-0.07335402
36	0x3d74f1d4	0.059800938
37	0x3e941438	0.28921676
38	0x3dec2f63	0.11532476
39	0xbce06839	-0.027393447
40	0xbdcce5a0	-0.10004735
41	0xbe0f07f6	-0.1396788
42	0x3c4ae31c	0.012383249
43	0x3e165e83	0.14684491
44	0xbe37edba	-0.17961779
45	0xbdb8b077	-0.09018033
46	0x3cf33ab4	0.029691078
47	0x3bdee010	0.0068016127
48	0xbcbd0a2a	-0.023076136
49	0xbd71e0f2	-0.059052415
50	0x3d2f41a2	0.0427872
51	0xbe06203f	-0.13098238
52	0x3e4dee04	0.20110327
53	0x3b22cec0	0.002484247
54	0xbe0a7919	-0.13522758
55	0xbbe1d1fe	-0.006891488
56	0x3e272cc6	0.16325673
57	0x3daf41e4	0.085574895
58	0x3e957114	0.29187834
59	0xbd99a17a	-0.07501502
60	0x3d69837f	0.05701017
61	0x3e29d2ab	0.1658427
62	0x3e0695e6	0.13143119
63	0x3d66e3e2	0.05636967
64	0xbdba31d3	-0.090915345
65	0xbe24db17	-0.16099201
66	0xbdc5c408	-0.096565306
67	0xbe1c2fd2	-0.15252617
68	0xbcd6077d	-0.026126618
69	0x3dd7a117	0.10528772
70	0x3e05ae6a	0.13054815
71	0xbd949a26	-0.07255964
72	0xbe3ad2b3	-0.18244438
73	0x3d2d4328	0.042300373
74	0x3d3d2ca8	0.046185166
75	0xbe39ca63	-0.1814361
76	0xbe0064da	-0.12538472
77	0xbe6af41b	-0.22944681
78	0xbe46b24d	-0.19403954
79	0xbe7edbf1	-0.24888588
80	0xba63ce80	-0.00086901337
81	0xbc354a58	-0.011065088
82	0x3cc13274	0.023583628
83	0x3cfd97e2	0.030956212
84	0x3cd4ce14	0.025977172
85	0xbc484fac	-0.0122260265
86	0xbc3bf708	-0.011472471
87	0x3c2868cc	0.010278892
88	0x3ce58ab1	0.028020235
89	0x3cf3f61a	0.029780436
90	0x3cc655e6	0.024210881
91	0x3b71fcd0	0.003692437
92	0x3cb60ace	0.022221949
93	0x3cb9164a	0.022593636
94	0x3b270c00	0.002548933
95	0x3cfaf830	0.030635923
96	0x3ba23808	0.004950527
97	0x3b64aeb0	0.003489416
98	0xbbc67300	-0.0060561895
99	0xbc83f0d2	-0.016106043
100	0xbcdbb358	-0.026818916
101	0xbc139a7c	-0.009009
102	0xbc8b7780	-0.017024755
103	0x3ce51550	0.027964264
104	0x3ba4bbf0	0.0050272867
105	0xbca04c5b	-0.01956766
106	0x3cee077a	0.0290563
107	0xbcb7d536	-0.022440534
108	0xbc781d10	-0.015143648
109	0xbc270f70	-0.010196552
110	0x3cae9aec	0.021314107
111	0x3c98de54	0.018660702
112	0xbda9c276	-0.082890436
113	0x3dad6431	0.084663756
114	0xbd2db141	-0.04240537
115	0xbc92d4f4	-0.01792381
116	0xbdc992ff	-0.098424904
117	0xbcd8eec6	-0.026481044
118	0xbd220afc	-0.039561257
119	0xbd14ee58	-0.036360115
120	0xbdd2785a	-0.102768615
121	0x3d904df6	0.0704612
122	0xbb3e7aaa	-0.0029064813
123	0xbd6c5726	-0.0577003
124	0xbdb06af7	-0.08614152
125	0xbde89101	-0.11355782
126	0x3c9be7a3	0.019031351
127	0xbe05aaba	-0.13053408
128	0x3b2ad410	0.002606634
129	0x3cdfdc08	0.027326599
130	0x3c8b38bc	0.016994826
131	0x3cb7761e	0.02239519
132	0xbc558374	-0.013031829
133	0x3cdb9ea8	0.026809052
134	0x3baf90e0	0.0053578466
135	0xbcc0193e	-0.023449536
136	0xbca3a474	-0.019975878
137	0xbba45b50	-0.005015768
138	0x3caaa670	0.020831317
139	0x3c1ec944	0.00969154
140	0x3d0d9cec	0.03457348
141	0xbc09753c	-0.008389767
142	0x3c215112	0.009845989
143	0x3cc735fa	0.02431773
144	0xbbe81eeb	-0.007083764
145	0xbba30dcb	-0.0049760095
146	0x3cc659db	0.024212768
147	0xbd959034	-0.07302895
148	0xbdc218a6	-0.094773576
149	0xbcd40218	-0.025879905
150	0x3dee03d1	0.11621822
151	0xbd84a847	-0.06477409
152	0x3c6e2532	0.014535235
153	0xbd114670	-0.035467565
154	0x3d0a694c	0.033791825
155	0x3cffbac1	0.03121698
156	0xbe3ce229	-0.18445648
157	0x3e0a8d0e	0.1353037
158	0x3dd09070	0.10183799
159	0x3d724d33	0.059155654
160	0x3c9b6a7c	0.018971674
161	0xbca3c8d8	-0.01999323
162	0xbcff31da	-0.0311517
163	0xbceab6f2	-0.028651688
164	0x3cdef194	0.027214803
165	0x3bbd61d8	0.005779486
166	0x3cb2a19c	0.021805577
167	0x3cdea908	0.02718021
168	0xbb420b30	-0.002960872
169	0x3c9ff870	0.019527644
170	0xbceae3b6	-0.028673034
171	0x3c7a7e08	0.015288837
172	0x3ca9316c	0.020653449
173	0xbc532680	-0.012887597
174	0xbcc447d4	-0.023960032
175	0xbc8b1384	-0.01697708
176	0x3d60e0b6	0.0549018
177	0x3d605df7	0.05477711
178	0x3d8c3cfe	0.06847571
179	0x3c9e2e3b	0.019309154
180	0x3cd30f71	0.025764199
181	0xbba3e7af	-0.005001984
182	0x3c198385	0.009369736
183	0x3d106dd4	0.03526099
184	0x3cb24b99	0.021764563
185	0xbc851561	-0.016245546
186	0xbd12a5c7	-0.03580263
187	0x3bcc6d6f	0.0062386314
188	0x3dab6f3b	0.08370825
189	0x3d26444f	0.040592488
190	0x3d3ea7f0	0.046546876
191	0x3d7a3a9a	0.061091043
192	0xbc5337f0	-0.0128917545
193	0xbaad0ca0	-0.0013202615
194	0xbbff3548	-0.007788334
195	0x3c6dc834	0.014513064
196	0xbccd52b2	-0.025063846
197	0x3ca4f0e4	0.020134397
198	0xbcdab77c	-0.02669882
199	0x3b30c080	0.0026970208
200	0xbcc2a4f2	-0.023760293
201	0xbceaedd6	-0.028677862
202	0x3be73f18	0.007057082
203	0xbb2b8ccb	-0.0026176448
204	0xbc6509ac	-0.013979357
205	0xbccb3d0a	-0.02480938
206	0x3bf853e0	0.007578358
207	0xbb4b5290	-0.0031024553
208	0x3c4740cc	0.012161445
209	0xbc01161c	-0.007878806
210	0x3bb118e0	0.0054045767
211	0xbb98dfb8	-0.004665341
212	0xbc710a24	-0.01471189
213	0x3c021cec	0.007941466
214	0x3ccdbe4e	0.025115158
215	0xbbc17380	-0.0059036613
216	0xbb136a50	-0.0022493787
217	0x3b8b74e8	0.0042558797
218	0xbcc276b6	-0.023738246
219	0x3c4f9588	0.012669928
220	0xbc3ad39c	-0.011402991
221	0xbcce9f54	-0.025222458
222	0x3ceef980	0.029171705
223	0x3cbd28ea	0.023090798
224	0xbd976dfb	-0.07394024
225	0xbd67a537	-0.056554046
226	0xbc359501	-0.011082889
227	0xbd9b3985	-0.0757933
228	0xbd449ba5	-0.047999997
229	0x3cc2a6bb	0.023761144
230	0x3e03d14f	0.12872814
231	0xbd254104	-0.040345207
232	0xbd858f69	-0.06521494
233	0xbbc74e04	-0.0060822982
234	0x3d447437	0.047962394
235	0xbd925e55	-0.07146899
236	0xbc941ca8	-0.01808007
237	0xbcb48de6	-0.022040319
238	0xbc7cc137	-0.015426925
239	0xbd613307	-0.054980304
240	0xbd3fbb22	-0.046809323
241	0xbd8ebb2e	-0.069692954
242	0xbe1c6d98	-0.15276182
243	0xbdf0c402	-0.117561355
244	0xbe3d3354	-0.18476611
245	0xbb13fafe	-0.0022580023
246	0x3db604b1	0.088876136
247	0xbcac1d1c	-0.021009974
248	0xbd910727	-0.07081442
249	0xbdef1d6c	-0.11675534
250	0xbcaf3385	-0.021386871
251	0x3d8d6975	0.0690488
252	0xbe352d80	-0.17693138
253	0x3e173996	0.14768061
254	0x3e2b0ce1	0.16704132
255	0xbd1942b1	-0.037417118

fc1.bias f4 [100]
0	0xbd080adb	-0.033213478
1	0xbd49a982	-0.04923392
2	0xbd7164f3	-0.058934163
3	0xbcb09bb2	-0.021558616
4	0xbe26d68e	-0.16292784
5	0xbd1aec7d	-0.03782319
6	0xbc4fada2	-0.012675675
7	0xbd2d232d	-0.042269874
8	0xbd3377ec	-0.04381554
9	0xbd19f9d0	-0.037591755
10	0x3b8ba1c0	0.0042612255
11	0x3c75b272	0.014996158
12	0xbc7ada89	-0.015310892
13	0x3c309664	0.010778043
14	0xbe26763f	-0.16256045
15	0xbcfe02ae	-0.031007137
16	0xbd34c920	-0.04413712
17	0xbbfd2091	-0.0077248295
18	0x3e9c2623	0.30497846
19	0xbde4ac17	-0.11165636
20	0x3d5ab1fe	0.053392403
21	0xbcd803ad	-0.02636894
22	0x3de231d1	0.11044658
23	0x3baf4c17	0.005349647
24	0x3e9220d3	0.28540668
25	0xbdb1cba1	-0.08681417
26	0xbc96c707	-0.01840545
27	0xbc24c31f	-0.010056286
28	0xbcc28fb9	-0.023750173
29	0xbd19a825	-0.03751387
30	0x3c42c748	0.011888333
31	0xbceb50c8	-0.028725043
32	0xbcc6201a	-0.02418523
33	0xbcd3f891	-0.025875362
34	0xbc7d114b	-0.0154460175
35	0xbe093cf9	-0.13402165
36	0xbdb0f9de	-0.086414084
37	0xbd0f78ef	-0.03502744
38	0xbd8e9596	-0.06962125
39	0xbd207cee	-0.039181642
40	0x3ec3d2aa	0.3824666
41	0xbdfb3667	-0.12266236
42	0xbd9af87f	-0.07566928
43	0x3e4f9f64	0.20275646
44	0x3d538541	0.051640753
45	0xbe12a289	-0.14319815
46	0xbd322534	-0.04349251
47	0xbcd69731	-0.02619514
48	0xbcc0dbd3	-0.02354232
49	0xbe350093	-0.17676
50	0xbabc22b4	-0.0014353604
51	0x3dbbe704	0.09174922
52	0x3c560b67	0.013064242
53	0x3aeef871	0.0018232
54	0x3a716936	0.0009209098
55	0xbcf38476	-0.029726248
56	0xbd366255	-0.04452737
57	0x3da27436	0.07932322
58	0xbdace4b0	-0.08442056
59	0x3c6a1156	0.01428636
60	0xbd5694d1	-0.052388016
61	0xbdf4fe7e	-0.11962603
62	0xbc382577	-0.011239401
63	0xbe31ba80	-0.173563
64	0xbd061abc	-0.03274034
65	0xbde94d60	-0.11391711
66	0xbd30629f	-0.043062802
67	0x3d32322b	0.043504875
68	0xbd0cce1c	-0.03437625
69	0x3e359394	0.17732078
70	0x3e39d5dd	0.18147989
71	0xbd443e1b	-0.04791079
72	0xbd244add	-0.040110458
73	0xbcb8a912	-0.022541557
74	0xbc4c8ca4	-0.012484703
75	0xbe0fa478	-0.14027584
76	0xbd08e60f	-0.033422526
77	0x3e71ae52	0.23601654
78	0xbda3f06f	-0.080048434
79	0x3eac7c85	0.3368875
80	0x3c487a5f	0.012236207
81	0x3e54bbd4	0.20774776
82	0xbcfa0e94	-0.03052453
83	0xbc334591	-0.010941879
84	0x395669a0	0.00020447979
85	0xbd0a800b	-0.033813518
86	0x3dd8e0c2	0.10589744
87	0xbd8b1fe7	-0.06793194
88	0x3b908c69	0.0044112694
89	0x3e0edcab	0.13951366
90	0xbbbde660	-0.005795285
91	0xbd83c27e	-0.06433581
92	0xbd08b3b4	-0.033374503
93	0xbd2d52e7	-0.04231539
94	0x3bfb2fdc	0.0076656174
95	0xbd1a1045	-0.037613172
96	0xbb6579a5	-0.0035015133
97	0x3dbcfaee	0.092275485
98	0xbdcf2971	-0.10115326
99	0xbc909613	-0.017649686

fc2.weight f4 [12, 100]
0	0xbc63c78f	-0.013902559
1	0x3e1d2791	0.15347125
2	0xbd2c58d3	-0.042076897
3	0xbcbf4554	-0.023348488
4	0x3e3d1e5f	0.18468617
5	0x3c8d026e	0.017213073
6	0xbde7debe	-0.113217816
7	0xbd691091	-0.056900565
8	0x3a4c9124	0.000780361
9	0x3c891ffc	0.016738884
10	0x3d46d0c5	0.048538942
11	0xbe68de75	-0.2274111
12	0xbd5aad82	-0.053388126
13	0x3cf0210f	0.029312639
14	0xbd0cc424	-0.03436674
15	0xbdd0b1d3	-0.10190167
16	0xbc65448d	-0.013993395
17	0xbd2bfe9c	-0.04199086
18	0xbd77beaf	-0.060484584
19	0xbeb1d6e1	-0.34734252
20	0xbe8fa0c3	-0.2805234
21	0xbd95eedc	-0.073209494
22	0xbdb3a3e0	-0.08771491
23	0x3db15c1a	0.08660145
24	0xbef0c4fd	-0.4702529
25	0xbd8e941e	-0.06961845
26	0x3c90ac8a	0.017660398
27	0xbda3c013	-0.079956196
28	0x3ddf9a94	0.10918155
29	0x3d3ea641	0.04654527
30	0xbde05810	-0.109542966
31	0x3d9744a5	0.0738614
32	0x3d1bc5aa	0.038030304
33	0xbc57c478	-0.0131694
34	0x3cef792d	0.029232586
35	0x3e17de48	0.14830887
36	0x3d4b2c48	0.049602777
37	0xbd995b31	-0.074880965
38	0x3e0fcd3c	0.14043134
39	0xbd01b616	-0.03166779
40	0xbcf8d448	-0.030374661
41	0xbdd69e57	-0.1047942
42	0xbdaa0da5	-0.08303384
43	0xbe424ad9	-0.18973865
44	0x3dc4c14c	0.09607181
45	0x3d39a5f5	0.045324285
46	0xbe06a396	-0.1314834
47	0xbdcac47c	-0.09900758
48	0x3d84b612	0.0648004
49	0xbe7760de	-0.24158046
50	0xbd70623c	-0.058687434
51	0x3d3adb6f	0.045619424
52	0xbd1f36e5	-0.03887071
53	0x3cc40638	0.023928747
54	0xbd9d427c	-0.076786965
55	0x3d262b23	0.040568482
56	0x3d2ae02d	0.041717697
57	0xbe19816b	-0.14990775
58	0x3dff1e90	0.12457001
59	0xbbddd409	-0.0067696613
60	0x3d3dd8b1	0.04634923
61	0xbd94df9e	-0.07269214
62	0x3d55e8fd	0.052224148
63	0x3dcef92c	0.101061195
64	0x3b18451e	0.0023234556
65	0x3dc2549d	0.09488795
66	0x3d7ce62b	0.061742943
67	0x3e1ce800	0.15322876
68	0xbd6b0009	-0.05737308
69	0xbdd11b73	-0.10210314
70	0xbd95eece	-0.07320939
71	0xbd9ea4c4	-0.0774627
72	0x3d954c0a	0.07289894
73	0x3d4ee27d	0.050508965
74	0xbd290639	-0.0412657
75	0xbea59a27	-0.3234417
76	0xbd96986a	-0.073532894
77	0xbe6295c2	-0.2212744
78	0xbe2f26f5	-0.17104705
79	0x3d8f99cc	0.07011756
80	0x3d50131e	0.05079948
81	0xba88b6ff	-0.0010430514
82	0xbd11fc36	-0.035640918
83	0xbc9406e1	-0.018069686
84	0x3d8f88a1	0.07008482
85	0xbda982fd	-0.08276937
86	0xbeb2fa1c	-0.34956443
87	0x3d58df75	0.05294748
88	0x3d7b151f	0.06129944
89	0xbd2e7c2f	-0.0425989
90	0x3db13ffe	0.08654784
91	0xbce9f65a	-0.028559852
92	0xbbd09a16	-0.0063660247
93	0x3ca578da	0.020199228
94	0xbdb5509e	-0.08853267
95	0x3d06a53d	0.032872427
96	0xbd2e223b	-0.042513113
97	0xbe6bd5f8	-0.23030841
98	0xbd6ce83b	-0.05783866
99	0xbda21d3c	-0.07915732
100	0xbd65a1ed	-0.056062628
101	0x3e2aa553	0.16664629
102	0xbe166ff4	-0.14691144
103	0x3c2fce1d	0.010730294
104	0xbdea05a2	-0.114268556
105	0xbe03a9f8	-0.12857807
106	0x3d151cdf	0.036404487
107	0xbd63f324	-0.0556518
108	0x3d8cbbf2	0.06871785
109	0x3d84df2c	0.06487879
110	0x3d4e3aef	0.050349172
111	0x3e45811a	0.1928753
112	0xbcd1d63a	-0.025614846
113	0x3bb60ba3	0.0055555864
114	0xbe1ef96e	-0.15524837
115	0x3d248721	0.04016793
116	0xbdebc5c1	-0.11512328
117	0xbb4a12c1	-0.0030833932
118	0xbe9a7d33	-0.30173644
119	0xbed944a9	-0.42435196
120	0x3e04452d	0.12917013
121	0xbdc8e7c0	-0.09809828
122	0xbe943dfa	-0.28953534
123	0x3d96a379	0.07355399
124	0xbebe61e2	-0.37184054
125	0xbe1c8167	-0.15283738
126	0x3da10317	0.078619175
127	0xbd8c6161	-0.06854511
128	0xbd87ebbf	-0.06636762
129	0x3d2b4924	0.0418178
130	0x3b3718c2	0.002793834
131	0xbd6a4d08	-0.05720237
132	0x3c5817b9	0.01318925
133	0xbde13589	-0.10996539
134	0xbcec01ed	-0.028809512
135	0x3e42ef8c	0.19036692
136	0xbbe3ce5a	-0.0069520893
137	0x3c785f72	0.015159475
138	0x3e02d4a3	0.12776427
139	0xbcabf7f7	-0.020992262
140	0xbdf65302	-0.12027551
141	0x3d6ab5a6	0.05730214
142	0x3d02f2e9	0.03196994
143	0xbe2c6576	-0.1683558
144	0x3dcb9a4c	0.09941539
145	0xbdaa4e92	-0.08315767
146	0xbbda3506	-0.006659153
147	0xbe388908	-0.18021023
148	0x3d523176	0.0513167
149	0xbddff978	-0.10936254
150	0x3c8cf0af	0.01720461
151	0xbe6d0566	-0.2314659
152	0xbd8edba4	-0.06975487
153	0x3d144342	0.036196955
154	0xbd00e667	-0.03146973
155	0xbda1f4f8	-0.07908052
156	0x3d5dad2f	0.05412024
157	0xbe154289	-0.14576162
158	0x3e1bdfde	0.15222117
159	0xbd73b8c2	-0.05950237
160	0xbe1e2997	-0.15445553
161	0xbd439361	-0.047747973
162	0xbda48014	-0.080322415
163	0xbcdbce0a	-0.026831646
164	0xbd8b10c2	-0.06790306
165	0x3da104d3	0.07862248
166	0x3ceed2df	0.029153286
167	0x3bc87c99	0.006118369
168	0x3d4f5022	0.05061353
169	0x3d8449eb	0.06459411
170	0x3d5b97e6	0.05361166
171	0xbcad3806	-0.021144878
172	0xbd3cd690	-0.04610306
173	0xbdd0412d	-0.10168681
174	0xbd7c8e45	-0.061659116
175	0x3d25378a	0.04033617
176	0xbdc80588	-0.0976668
177	0xbdf1082a	-0.11769135
178	0x3d3a4c2b	0.045482796
179	0xbead9532	-0.3390289
180	0xbde94bfd	-0.11391447
181	0xbd20e0f4	-0.039277032
182	0x3d290ce6	0.041272067
183	0xbd1f9cdc	-0.038967952
184	0xbdb73d88	-0.08947283
185	0xbd0f3190	-0.034959376
186	0xbef3acc7	-0.47592756
187	0xbd00bca1	-0.03142989
188	0xbd16932a	-0.03676144
189	0xbd9f09d3	-0.07765546
190	0xbd8e5842	-0.069504276
191	0xbcbef4c3	-0.02331007
192	0xbdcd1939	-0.100145765
193	0xbde55c76	-0.11199276
194	0xbdc5475e	-0.09632753
195	0xbd1c8506	-0.0382128
196	0xbdb5e1af	-0.08880936
197	0xbea2247a	-0.31668454
198	0xbd1572c4	-0.036486402
199	0xbaaf7806	-0.001338721
200	0x3db14d7f	0.08657359
201	0x3daaa8d2	0.08332981
202	0x3c368a63	0.011141392
203	0xbcbe2f05	-0.02321578
204	0x3e05994a	0.13046756
205	0xbcc145f7	-0.023592932
206	0x3d95f923	0.0732291
207	0x3dc6c737	0.09705966
208	0xbd2373d9	-0.039905403
209	0xbc105aa5	-0.008810674
210	0x3c2818a0	0.010259777
211	0xbe5dd871	-0.21664597
212	0x3dba8531	0.091074355
213	0xbd1f15ae	-0.038839035
214	0x3e25c1ab	0.1618716
215	0xbde138cf	-0.109971635
216	0xbd1676ca	-0.03673438
217	0x3d54db60	0.051967025
218	0xbd05d6d5	-0.032675583
219	0x3e175c7d	0.14781375
220	0xbe9d32bf	-0.3070278
221	0xbcd0abd1	-0.025472553
222	0x3d953826	0.072861
223	0x3c5fa772	0.013650762
224	0x3c86274f	0.016376166
225	0x3deebba3	0.116568826
226	0xbd9a609d	-0.07537959
227	0xbd6e8bf3	-0.058238935
228	0xbd86b929	-0.06578285
229	0x3ce7c424	0.02829177
230	0xbd2e17cf	-0.042503174
231	0xbcf3f9c1	-0.029782178
232	0xbd8f3f1f	-0.06994461
233	0x3d915ee4	0.07098177
234	0x3da35ed3	0.07977071
235	0xbe1fb032	-0.15594557
236	0xbe556850	-0.20840573
237	0xbdf366eb	-0.118848644
238	0xbebebd73	-0.37253913
239	0x3d1a5b3e	0.03768467
240	0xbe0a73cc	-0.13520736
241	0x3b74fad8	0.003738096
242	0x3d13e199	0.03610382
243	0xbe0469d3	-0.12930994
244	0x3cfb87f7	0.030704482
245	0xbb8545ba	-0.00406715
246	0xbd64408c	-0.05572562
247	0x3df3634e	0.11884175
248	0xbcf50115	-0.029907743
249	0xbe801a63	-0.2502013
250	0x3d879d49	0.06621797
251	0x3c58c8e7	0.013231493
252	0xbd06f194	-0.03294523
253	0xbcf47b4b	-0.029843947
254	0xbe104bd8	-0.14091432
255	0xbd975fc1	-0.073913105

fc2.bias f4 [12]
0	0xbe2d16fc	-0.16903299
1	0xbed4f168	-0.41590428
2	0xbe8ebbb5	-0.27877584
3	0x3d4bfebe	0.049803488
4	0xbe01e140	-0.12683582
5	0x3c1400c8	0.009033389
6	0x3d24b7b5	0.04021426
7	0x3e4cee82	0.20012859
8	0x3e80f998	0.25190425
9	0xbd75902f	-0.059951957
10	0x3b7c2204	0.0038472423
11	0x3eb35b86	0.35030764
