test_models/100epoch_5fold_2conv_normalized_weighted_model04.pt (torch, 414623 bytes, 6 tensors)

conv1.weight f4 [8, 3, 3, 3]
0	0x3d84c640	0.06483126
1	0x3e83aae1	0.25716308
2	0xbe07634a	-0.1322147
3	0xbe3ed16f	-0.1863458
4	0x3e828778	0.2549398
5	0x3e9901d8	0.2988422
6	0xbd31b6c7	-0.0433872
7	0x3e528d1e	0.20561644
8	0xbec124f0	-0.37723494
9	0x3d621de1	0.055204276
10	0xbce2e86d	-0.02769872
11	0xbd5027c4	-0.050819173
12	0x3d00cc9c	0.03144513
13	0x3cdf8f59	0.027290033
14	0x3e74294c	0.23843879
15	0x3d1c5306	0.038165115
16	0x3dbe587c	0.09294221
17	0xbe81aa25	-0.25325122
18	0xbdedbaaf	-0.11607873
19	0x3c971608	0.018443123
20	0xbd9fb60b	-0.07798394
21	0x3e1202da	0.142589
22	0xbdd37cbf	-0.10326528
23	0xbe2c8021	-0.16845752
24	0xbdde9b92	-0.108695164
25	0xbdbac6e9	-0.0911997
26	0x3d3b95e9	0.045797262
27	0x3cc43b19	0.023953961
28	0x3dbee0a4	0.093201905
29	0xbd141a62	-0.036157973
30	0x3e26794a	0.16257206
31	0x3da02e20	0.07821298
32	0x3e0809cc	0.13284987
33	0x3e21ce87	0.1580144
34	0x3d79022d	0.06079309
35	0x3d1a321e	0.03764545
36	0xbd39103a	-0.04518149
37	0xbd42e429	-0.04758087
38	0xbdc92c69	-0.09822924
39	0xbdd127ee	-0.10212694
40	0x3d6c2266	0.057649992
41	0x3e54ccbd	0.20781226
42	0xbd447fd3	-0.047973465
43	0xbc9b8c68	-0.01898785
44	0x3dd4282c	0.10359225
45	0x3debdbca	0.11516531
46	0x3cc6146c	0.02417966
47	0xbdf5d413	-0.120033406
48	0xbe017a06	-0.12644204
49	0x3df8aa38	0.12141842
50	0x3e216490	0.15761018
51	0xbea1961a	-0.3155983
52	0xbdde4c47	-0.108543925
53	0x3df26b9d	0.11836932
54	0x3d77316d	0.06034987
55	0xbde08e3c	-0.10964629
56	0x3e863826	0.26214713
57	0xbec68635	-0.38774267
58	0xbdfa851b	-0.12232419
59	0xbea01a9b	-0.31270298
60	0x3ec3c45c	0.38235748
61	0xbe0063cb	-0.12538068
62	0x3ced05de	0.028933462
63	0xbb83cd87	-0.0040223035
64	0xbc5ba986	-0.013407117
65	0x3e04b584	0.12959868
66	0xbe2a8e13	-0.1665576
67	0x3d48dbdd	0.049037803
68	0xbe181d67	-0.14854966
69	0x3dd6c1bb	0.1048617
70	0x3c6dd798	0.014516734
71	0x3a93e5ac	0.0011283658
72	0x3d7c97e3	0.061668288
73	0xbdb82b72	-0.089926615
74	0xbd6359ce	-0.055505566
75	0xbcb0348b	-0.02150943
76	0xbbdb4f56	-0.006692807
77	0x3d1ee2b1	0.03879041
78	0x3d9fe9d5	0.07808272
79	0xbdeda1fc	-0.11603162
80	0x3cd3ce35	0.025855163
81	0x3d2c7fa3	0.04211391
82	0x3e921d93	0.28538188
83	0x3d08cd23	0.03339876
84	0x3c9d4106	0.019196045
85	0x3e41c02a	0.18920961
86	0x3e663dc7	0.22484504
87	0x3e6eec19	0.23332252
88	0x3cfbdef0	0.030745953
89	0x3e13258c	0.14369792
90	0xbdca6a9e	-0.09883617
91	0x3e5d4627	0.21608792
92	0x3e1f5788	0.15560734
93	0x3d8f3c29	0.069938965
94	0xbdb4b1f8	-0.08823007
95	0xbdd3e30d	-0.10346041
96	0xbd6de88f	-0.058083113
97	0x3e315a98	0.17319715
98	0x3d510d89	0.0510383
99	0xbd6e3aee	-0.05816167
100	0xbea8ca9d	-0.32967082
101	0xbd461414	-0.04835899
102	0x3c2d8974	0.010591853
103	0xbe8d22a9	-0.27565506
104	0xbe5ca497	-0.21547161
105	0xbe48b604	-0.19600683
106	0xbe35a543	-0.17738824
107	0xbe30e56e	-0.1727502
108	0xbc244a58	-0.010027491
109	0x3e927c62	0.28610522
110	0x3d220377	0.039554086
111	0x3cbd204f	0.023086695
112	0x3d43cb9d	0.047801603
113	0xbd106e94	-0.035261706
114	0xbed5ca30	-0.4175582
115	0xbdb46394	-0.088080555
116	0x3df972d7	0.12180107
117	0x3d65373a	0.05596087
118	0xbdc0a4e6	-0.09406452
119	0x3e3daa17	0.18521915
120	0xbd92cd71	-0.07168091
121	0xbd271274	-0.040789083
122	0x3ce60541	0.028078677
123	0xbe650d24	-0.22368294
124	0x3dc95ede	0.098325476
125	0x3e448314	0.19190627
126	0x3d537559	0.051625583
127	0x3e2443a4	0.16041428
128	0xbd6a9aeb	-0.057276648
129	0xbd8b30e6	-0.06796436
130	0xbe0f087a	-0.13968077
131	0xbdbda5c1	-0.09260131
132	0xbd5bfc98	-0.05370769
133	0x3d5a8255	0.05334695
134	0x3dfb8e68	0.12283021
135	0x3d73393d	0.05938076
136	0xbe751e96	-0.23937449
137	0xbd6be596	-0.057591997
138	0xbe09866b	-0.13430183
139	0xbc67e461	-0.014153571
140	0xbe4217fe	-0.18954465
141	0xbdf1fa02	-0.11815263
142	0xbe3f14ce	-0.1866028
143	0xbdcb11ef	-0.0991553
144	0x3e6390cb	0.22223203
145	0x3d805a9f	0.062672846
146	0xbd58aade	-0.052897327
147	0x3dd19fe5	0.102355756
148	0x3bab4429	0.005226631
149	0x3d9ea032	0.077453986
150	0xbb5a6ec8	-0.003333019
151	0xbde99904	-0.114061385
152	0xbd417c87	-0.0472379
153	0x3ea2d944	0.31806386
154	0x3d885299	0.06656379
155	0x3da7dea6	0.08196764
156	0x3e84e1a8	0.25953412
157	0x3e0d1a14	0.1377948
158	0x3de885ea	0.11353667
159	0x3e389fc5	0.18029697
160	0x3e2e8cef	0.1704595
161	0xbd81f86f	-0.06346213
162	0xbcde1755	-0.027110735
163	0x3d5e3578	0.05425021
164	0x3e5890d7	0.21149002
165	0x3e29c6cf	0.16579746
166	0x3d9ff5ce	0.078105554
167	0x3e506351	0.20350386
168	0xbdc00934	-0.09376755
169	0xbd40c66b	-0.047064226
170	0x3e2df170	0.16986632
171	0x3e353adf	0.17698239
172	0x3e47dcbe	0.195178
173	0x3e672e80	0.22576332
174	0x3bf188dd	0.0073710517
175	0xbde66e05	-0.11251453
176	0x3e65c6e4	0.22439152
177	0xbe0116f4	-0.12606412
178	0xbe2faefc	-0.17156595
179	0xbd0c825d	-0.03430401
180	0xbd878e10	-0.06618893
181	0x3cc8dac0	0.02451837
182	0x3e944842	0.28961378
183	0x3db0ed74	0.086390406
184	0xbce5c9e0	-0.028050363
185	0xbe0eaf6c	-0.13934106
186	0x3d633fb5	0.055480678
187	0x3e30ce33	0.17266159
188	0xbd91ee6f	-0.07125556
189	0x3a3c171e	0.00071750756
190	0x3de61500	0.11234474
191	0xbd87f159	-0.0663783
192	0xbdf01b08	-0.11723906
193	0x3e37901a	0.17926064
194	0x3da32613	0.079662465
195	0xbe31a809	-0.17349257
196	0xbe1ff8fa	-0.15622321
197	0xbe350a25	-0.17679651
198	0xbe64c179	-0.22339429
199	0xbe368195	-0.17822869
200	0xbe384362	-0.17994455
201	0xbd0cf5d5	-0.03441413
202	0xbdde2180	-0.10846233
203	0xbe1fd9e6	-0.15610465
204	0xbe3e0305	-0.1855584
205	0xbc35781d	-0.0110760005
206	0xbe02c312	-0.12769726
207	0x3e56bd6c	0.20970696
208	0x3c853dcd	0.01626482
209	0x3e12bc18	0.14329565
210	0xbdcf296c	-0.101153225
211	0x3da23fca	0.07922323
212	0x3dbe398c	0.0928832
213	0xbe30e814	-0.17276031
214	0xbddeaea4	-0.10873154
215	0xbdaecd80	-0.0853529

conv1.bias f4 [8]
0	0xbe269260	-0.16266775
1	0xbec50d9d	-0.3848695
2	0x3acbc4b0	0.0015546288
3	0xbda5e773	-0.08100786
4	0xbe04e8a1	-0.12979366
5	0x3de055a4	0.10953835
6	0xbf353412	-0.7078258
7	0xbe95425e	-0.29152197

conv2.weight f4 [16, 8, 3, 3]
0	0x3dc6b066	0.09701614
1	0xbd0a01b8	-0.033693045
2	0x3cb4b601	0.022059442
3	0x3e347ccf	0.17625736
4	0x3e3cdc7e	0.18443486
5	0x3e32163e	0.17391297
6	0x3e3457e2	0.1761165
7	0x3de04f54	0.10952631
8	0x3e2af248	0.16693985
9	0xbd97351f	-0.07383179
10	0x3ddedeb1	0.10882319
11	0xbe0cb104	-0.13739401
12	0x3d1e1324	0.038592473
13	0x3e48d855	0.19613774
14	0x3d8a24aa	0.06745274
15	0x3cac9fcf	0.021072296
16	0xbd1bdc4a	-0.03805188
17	0x3c212495	0.009835382
18	0xbda24d93	-0.07924952
19	0xbe4621d8	-0.19348848
20	0xbdb8f16d	-0.09030423
21	0xbdd87794	-0.10569683
22	0xbdcf3e80	-0.10119343
23	0xbe9e43c9	-0.3091109
24	0x3e0de946	0.13858518
25	0xbdea6ca8	-0.11446506
26	0xbd28c30b	-0.041201632
27	0x3d9b58d0	0.07585299
28	0x3de1d9f8	0.11027902
29	0x3e041410	0.12898278
30	0x3d429e54	0.047514275
31	0x3e7af765	0.24508436
32	0x3e1503b3	0.14552192
33	0x3e452a05	0.1925431
34	0x3e002952	0.12515762
35	0x3e0be253	0.13660555
36	0x3dc1f06b	0.09469684
37	0xbc7548b7	-0.01497095
38	0xbe1809c6	-0.14847478
39	0xbcf56d6e	-0.029959407
40	0xbdaed397	-0.08536451
41	0xbd8d2f0b	-0.06893738
42	0xbd6febd5	-0.058574516
43	0x3d412dc4	0.047162786
44	0x3bff5b82	0.007792891
45	0xbdea82de	-0.11450742
46	0xbe074633	-0.13210373
47	0xbdb08237	-0.086185865
48	0xbddcac7a	-0.10775085
49	0xbdfddeaa	-0.123959854
50	0xbc84b96e	-0.016201701
51	0xbe5fbbc0	-0.21848965
52	0xbe3b6bf8	-0.18302906
53	0xbe4f23d6	-0.20228514
54	0x3b113b93	0.0022160753
55	0x3da162f9	0.07880206
56	0xbd155696	-0.036459528
57	0x3cbc4f4a	0.022987027
58	0x3e1c2e4c	0.15252036
59	0xbde7e1db	-0.113223754
60	0xbd938a23	-0.07204082
61	0xbb2b5202	-0.002614141
62	0xbc295ae3	-0.0103366105
63	0x3d81f6bd	0.0634589
64	0xbc2068e0	-0.009790629
65	0xbbe6dac4	-0.007045122
66	0xbdf53a34	-0.11973992
67	0xbd8af60f	-0.06785213
68	0x3d9228cf	0.0713669
69	0xbd137f29	-0.03600994
70	0xbe00ccea	-0.12578169
71	0xbcbbeb12	-0.022939239
72	0xbbb2080c	-0.005433088
73	0xb93487a3	-0.00017216666
74	0xbd6fc0ee	-0.0585336
75	0xbe59a731	-0.21255185
76	0xbeaf06da	-0.34184915
77	0xbe98a1dd	-0.29810992
78	0xbd6035ec	-0.054738924
79	0xbe6facbf	-0.23405741
80	0xbe4139a8	-0.1886965
81	0x3bc8249a	0.006107879
82	0x3bcab340	0.006185919
83	0xbddb0976	-0.10695164
84	0xbe72e85e	-0.23721454
85	0xbe949076	-0.29016465
86	0xbe4724f1	-0.19447686
87	0xbdc2ab1c	-0.09505293
88	0xbe096749	-0.13418306
89	0xbafbeb52	-0.0019219911
90	0x3c3adfc9	0.011405894
91	0x3d482206	0.048860572
92	0xbd108a94	-0.03528841
93	0xbd851454	-0.06498018
94	0x3d07566a	0.033041395
95	0xbd77eab0	-0.06052655
96	0xbd5337bc	-0.051566824
97	0xbd9409b2	-0.07228412
98	0xbd7c0abc	-0.061533675
99	0x3debb76d	0.11509595
100	0x3dba4996	0.09096067
101	0x3de76647	0.11298805
102	0xbdf17f70	-0.11791885
103	0xbd1f6010	-0.03890997
104	0xbc93534d	-0.017984057
105	0xbd70f02b	-0.058822792
106	0xbe33bdf6	-0.17552933
107	0xbde15389	-0.11002261
108	0xbccd05b5	-0.025027135
109	0xbe2f282a	-0.17105165
110	0xbcc61f16	-0.024184745
111	0xbde2227e	-0.11041735
112	0xbe1891e5	-0.14899404
113	0xbdfa2b52	-0.12215294
114	0x3d9e5326	0.07730703
115	0xbdff91de	-0.12478994
116	0xbe01af88	-0.12664616
117	0xbb41de4d	-0.0029581964
118	0x3c7a5b21	0.015280516
119	0xbce224b0	-0.027605385
120	0x3dc22faa	0.094817474
121	0x3dac0382	0.083991066
122	0x3e14a549	0.14516176
123	0x3c723f9c	0.0147856735
124	0x3de1c6de	0.11024259
125	0x3e5291af	0.20563386
126	0x3d34977e	0.044089787
127	0x3d3cdbaf	0.046107944
128	0x3dcc349f	0.09970974
129	0xbe78d12e	-0.24298546
130	0xbe4c2c0a	-0.19938675
131	0x3c9a7877	0.01885627
132	0xbe94c91b	-0.2905968
133	0xbe9ca069	-0.30591133
134	0xbe1fdee2	-0.15612367
135	0x3e395f00	0.18102646
136	0x3e0e360e	0.13887808
137	0x3d0a58f9	0.033776257
138	0x3d54bc83	0.05193759
139	0xbd9fb5a3	-0.07798316
140	0xbe0150fe	-0.12628552
141	0xbd4f6f09	-0.050643
142	0xbe8c6fe0	-0.27429104
143	0xbea97677	-0.33098194
144	0xbdc1df3e	-0.09466408
145	0xbd2688cf	-0.040657815
146	0x3ce879f1	0.028378459
147	0xbd9a3f82	-0.075316444
148	0xbdfc6f96	-0.12325971
149	0xbd519ed5	-0.051176865
150	0x3d3bebd5	0.045879204
151	0x3ea2016f	0.3164172
152	0x3e8a5db4	0.27024615
153	0xbdc4f132	-0.09616317
154	0x3d2578ac	0.040398285
155	0xbcff349f	-0.031153021
156	0x3db9c677	0.09071057
157	0xbce1cee4	-0.027564473
158	0x3e171197	0.14752804
159	0x3c1830e1	0.009288997
160	0x3d117b16	0.035517775
161	0x3dd1637c	0.10224053
162	0xbe12d0fc	-0.14337534
163	0xba70a30b	-0.0009179569
164	0xbd977c4b	-0.07396754
165	0xbd86f8a8	-0.06590396
166	0xbe165d34	-0.14683992
167	0xb91b3222	-0.00014800628
168	0xbda935e8	-0.08262235
169	0xbd969590	-0.073527455
170	0xbd919940	-0.07109308
171	0xbd0b2fc0	-0.033981085
172	0xbd4ed762	-0.050498374
173	0xbdc8a883	-0.09797766
174	0xbe041ba5	-0.1290117
175	0xbcbdcae6	-0.023168039
176	0x3c9072fc	0.017632954
177	0x3e11a6f5	0.14223845
178	0x3d736176	0.059419118
179	0x3c2c7d8f	0.010527982
180	0xbce904ee	-0.028444733
181	0x3dc9e855	0.09858767
182	0x3d906035	0.070496
183	0x3e1d7456	0.1537641
184	0xbc6a1229	-0.014286556
185	0xbdbbacdc	-0.0916383
186	0x3d611aa4	0.054957047
187	0x3d8b3557	0.06797283
188	0x3e5a3f28	0.21313155
189	0xbe5ad5a2	-0.21370557
190	0xbe19c155	-0.15015157
191	0xbd48943f	-0.048969503
192	0xbd2ba1e0	-0.041902423
193	0xbe652aa2	-0.22379544
194	0xbe3bed54	-0.18352252
195	0x3c835f6b	0.01603671
196	0x3d86da1a	0.06584568
197	0x3cb76f5b	0.022391966
198	0xbe8bc8c9	-0.27301624
199	0xbe93d2cf	-0.28871772
200	0xbe9d08c1	-0.3067074
201	0xbe23fd3a	-0.16014567
202	0xbd1c3aea	-0.038142122
203	0xbe3a9df0	-0.18224311
204	0xbbccd0a7	-0.0062504592
205	0xbd7a318b	-0.061082404
206	0x3df4021d	0.119144656
207	0xbdd26f2f	-0.10275113
208	0xbd35e05a	-0.04440341
209	0xbdd836cc	-0.10557327
210	0xbddffdc6	-0.10937075
211	0xbdb1965c	-0.08671257
212	0xbe32f0b6	-0.17474636
213	0x3d76d43d	0.060261
214	0x3dc9e124	0.09857395
215	0x3d9675d9	0.073466964
216	0xbd8bcf47	-0.068266444
217	0xbe3c5bdd	-0.18394418
218	0xbdc95f0f	-0.09832584
219	0xbc1d4a0a	-0.009600172
220	0xbd40a560	-0.047032714
221	0xbde7c25f	-0.1131637
222	0xbdcc8a62	-0.09987332
223	0xbe841cfc	-0.25803363
224	0xbe8010fb	-0.25012955
225	0xbd99d77c	-0.075118035
226	0x3de14c86	0.11000924
227	0x3dc7e527	0.09760504
228	0x3be7fa8a	0.007079427
229	0xbde9f1ff	-0.1142311
230	0xbd441a7c	-0.04787682
231	0x3d116c60	0.035503745
232	0xbd80de93	-0.06292453
233	0x3c582b0e	0.013193859
234	0xbf2ca29b	-0.67435616
235	0xbf0e2fd6	-0.5554174
236	0xbf1042b6	-0.5635179
237	0xbecac34c	-0.39602125
238	0xbeaede66	-0.34154052
239	0xbeba9ab7	-0.36446163
240	0xbe8e58bd	-0.27802077
241	0xbe2b3335	-0.16718753
242	0xbe50ce27	-0.20391141
243	0x3ce924b3	0.028459882
244	0x3c6b7882	0.014371993
245	0x3da13d7b	0.078730546
246	0x3d474c2c	0.048656628
247	0x3db759b3	0.08952656
248	0x3e1e0cdd	0.15434594
249	0x3e221b6b	0.15830772
250	0x3e45fc22	0.19334462
251	0x3e6d5111	0.23175456
252	0xbdf2b493	-0.11850848
253	0xbae2b1f6	-0.0017295468
254	0x3d30aa29	0.043131027
255	0xbe9aa24b	-0.30201945

conv2.bias f4 [16]
0	0xbe8da52e	-0.27665085
1	0x3ecbd2c7	0.39809248
2	0xbd6b79be	-0.05748915
3	0xbd90be23	-0.07067516
4	0xba6a8b9c	-0.0008947195
5	0xbdb133c6	-0.08652453
6	0x3e09813f	0.1342821
7	0xbb8484d7	-0.004044156
8	0xbd3a04bc	-0.04541467
9	0x3eb4c2f7	0.35304996
10	0xbd19f725	-0.03758921
11	0xbea034e0	-0.3129034
12	0xbe1ac269	-0.15113224
13	0xbc8c284e	-0.017109063
14	0xbdb44862	-0.088028684
15	0xbd312efa	-0.04325769

fc2.weight f4 [12, 8464]
0	0xbd3bbab1	-0.04583234
1	0xbbcf49f3	-0.006325954
2	0xbc1ad0d2	-0.009449201
3	0x3e2864e5	0.16444738
4	0x3e081dc8	0.1329261
5	0xbd1cde43	-0.038297903
6	0xbcd3fbe7	-0.025876952
7	0xbd8f93ce	-0.070106134
8	0xbbc8300f	-0.0061092447
9	0x3df1d668	0.11808473
10	0x3e0ab8e2	0.1354709
11	0x3e4ba0d7	0.19885574
12	0x3deaf617	0.11472719
13	0x3de709f1	0.11281193
14	0x3e307e3e	0.17235658
15	0x3d927be0	0.071525335
16	0x3e3412b1	0.17585255
17	0x3e4d830a	0.20069519
18	0x3e4c5cec	0.19957322
19	0x3e1e9b6a	0.15488973
20	0x3e15188b	0.14560144
21	0x3d903a2f	0.07042348
22	0xbd909da3	-0.07061317
23	0xbdd0083b	-0.1015782
24	0xbc992397	-0.018693728
25	0x3d916a0d	0.07100306
26	0x3dc6e83c	0.09712264
27	0x3d932e5e	0.07186578
28	0x3dc192ed	0.09451852
29	0x3dcf3b73	0.10118761
30	0xbb5eedfb	-0.003401636
31	0x3dace156	0.08441417
32	0x3e140cb7	0.14457975
33	0x3e0827c3	0.13296418
34	0x3dbd9ddd	0.09258626
35	0x3e480214	0.19532043
36	0x3e13d560	0.14436865
37	0x3e2e2324	0.17005593
38	0x3dc06ecb	0.09396132
39	0xbb293801	-0.0025820734
40	0x3daba3ae	0.08380829
41	0x3e2d0361	0.1689582
42	0x3e159c31	0.14610364
43	0x3e1f13c0	0.15534878
44	0x3e08cca8	0.1335932
45	0xbb778b99	-0.0037772416
46	0x3d23bade	0.039973132
47	0x3d9a57d9	0.07536287
48	0x3dd984b6	0.10621016
49	0x3e5480e0	0.20752287
50	0xbde79110	-0.11306965
51	0x3e3f4f73	0.18682651
52	0x3e3b7436	0.1830605
53	0x3e687c96	0.22703776
54	0x3d8dc8ff	0.069231026
55	0x3e5d27fe	0.21597287
56	0x3d81f47d	0.063454606
57	0x3dfedd08	0.12444502
58	0x3de57b3a	0.11205144
59	0x3e1bfe76	0.15233788
60	0x3e934421	0.28762916
61	0x3dfecab8	0.12441009
62	0x3e815593	0.252606
63	0x3e2e46a9	0.17019142
64	0x3d9f3030	0.07772863
65	0x3e2f27b0	0.17104983
66	0x3e24f9b5	0.1611088
67	0x3de1caff	0.110250466
68	0x3ce75de8	0.02824302
69	0x3e3f71fa	0.18695822
70	0x3d53c8b8	0.051705092
71	0x3bd6fb67	0.006560731
72	0x3d8bba57	0.06822651
73	0x3e032643	0.12807564
74	0x3e074f2a	0.13213792
75	0x3e136825	0.14395197
76	0x3d8a5049	0.067535944
77	0x3d8d9200	0.06912613
78	0x3dd98263	0.106205724
79	0x3bf8c699	0.007592034
80	0xbd2a19d0	-0.041528523
81	0x3d09b905	0.033623714
82	0x3dfe967c	0.12431046
83	0x3db0dfe4	0.08636454
84	0x3df9386f	0.12168967
85	0x3dfce0cc	0.12347564
86	0x3d6bd475	0.05757566
87	0x3e0cf164	0.13763958
88	0x3e01e308	0.12684262
89	0x3d8f72ea	0.0700434
90	0x3d13399b	0.03594361
91	0x3cb287ba	0.021793235
92	0x3d9aec19	0.07564563
93	0x3d623716	0.055228315
94	0x3cc8e2be	0.024522182
95	0x3e64ee4c	0.22356528
96	0x3d6fd664	0.05855407
97	0x3d4f7e1c	0.050657377
98	0x3801b428	3.092378e-05
99	0x3d0beb96	0.03416022
100	0x3d8c8657	0.06861561
101	0xbdb4b98e	-0.08824454
102	0xbe29f98e	-0.16599104
103	0xbddb0964	-0.106951505
104	0xbd0e7fbc	-0.034789786
105	0xbdab401e	-0.08361839
106	0x3c3dc65c	0.011582937
107	0xbc622944	-0.013803784
108	0xbd2d57e5	-0.04232015
109	0x3cda85ac	0.026675068
110	0x3d9bd2e7	0.07608586
111	0x3d5bd260	0.053667426
112	0x3ce3f6c9	0.027827637
113	0x3dfb7af4	0.12279311
114	0x3e138707	0.14406978
115	0x3e17885d	0.14798112
116	0x3dd560bb	0.104188405
117	0x3dda0bc1	0.10646773
118	0xbdcba8ce	-0.09944306
119	0xbc4f079e	-0.012636093
120	0x3c52fb6b	0.0128773255
121	0xbd0125d2	-0.03153021
122	0xbcfd53cb	-0.030923745
123	0xbcf0998f	-0.029370097
124	0x3cc95b29	0.024579601
125	0x3d9e9c18	0.07744616
126	0x3e0dc1ad	0.13843413
127	0x3dc07f07	0.093992285
128	0xba61471f	-0.0008593667
129	0xbd8ce037	-0.06878703
130	0x3bdb3a1e	0.0066902777
131	0xbd7d4d83	-0.0618415
132	0xbe08fba6	-0.13377246
133	0x3dc6e32d	0.09711299
134	0x3b9c6630	0.004772924
135	0x3cbd3b45	0.023099551
136	0x3d49ee2d	0.049299408
137	0x3d3f5143	0.046708357
138	0xbca1fb24	-0.019773073
139	0x3dd43b46	0.10362868
140	0x3db3c5fe	0.087779984
141	0x3d54f212	0.05198867
142	0xbc8099bc	-0.015698306
143	0xbd787cba	-0.060665824
144	0x3b5aafc0	0.0033368915
145	0xbb46b3dc	-0.0030319607
146	0x3e59c482	0.21266368
147	0x3e20d13a	0.15704814
148	0x3e61e10d	0.22058506
149	0x3e34cdd9	0.1765665
150	0x3e30a434	0.17250139
151	0x3e50bcb6	0.20384488
152	0x3e08cd67	0.13359605
153	0x3e110fbc	0.14166158
154	0x3d753a83	0.059870254
155	0x3bad69da	0.0052921595
156	0x3cad0829	0.021122055
157	0xbb987d2c	-0.0046535935
158	0x3d23108e	0.03981071
159	0xbd153852	-0.036430664
160	0x3d34b7b9	0.044120524
161	0x3cc0dc71	0.023542615
162	0x3b8a0791	0.0042123278
163	0x3dd35437	0.10318797
164	0xbd5ac1cc	-0.053407475
165	0xbd042c40	-0.032268763
166	0x3db9374a	0.09043749
167	0x3d8abd6f	0.06774413
168	0x3c5176de	0.012784688
169	0x3e042442	0.12904456
170	0x3e1a6c6b	0.1508042
171	0x3dd09708	0.10185057
172	0x3e175790	0.14779496
173	0x3df30d79	0.11867804
174	0x3e0adb25	0.1356016
175	0x3dd23e46	0.10265784
176	0x3dba7693	0.091046475
177	0x3d3cddc3	0.046109926
178	0x3daae5f2	0.0834464
179	0x3d907efc	0.0705547
180	0xbdd4cb48	-0.10390335
181	0x3d22dd77	0.039761987
182	0xbd014779	-0.031562302
183	0x3e1d3672	0.153528
184	0x3e179d10	0.14806008
185	0x3cc99f64	0.024612136
186	0x3e02c770	0.12771392
187	0x3daad6cd	0.08341751
188	0x3dcfef5e	0.101530775
189	0x3dfa5a27	0.122242264
190	0xbc2e6a34	-0.010645438
191	0x3d85f8d5	0.065416016
192	0xbd75dceb	-0.060025137
193	0x3df19af1	0.11797131
194	0x3e1f0ba8	0.1553179
195	0x3e132a5e	0.1437163
196	0x3e1a37f8	0.15060413
197	0x3e05843a	0.13038722
198	0x3e051f70	0.13000274
199	0x3c876a6e	0.016530242
200	0x3d9fcce8	0.07802755
201	0x3d94e575	0.07270328
202	0x3e085384	0.13313109
203	0x3db37934	0.08763352
204	0x3d6ac80a	0.05731968
205	0xbc487399	-0.012234592
206	0x3dd338e6	0.10313587
207	0x3dc66c31	0.096886046
208	0x3e1bc7fd	0.15213008
209	0x3dc9bbb5	0.098502554
210	0x3de15ce4	0.110040456
211	0x3e93763d	0.28801146
212	0x3dd4df2b	0.103941284
213	0x3d971e7e	0.07378863
214	0x3e0c16b7	0.1368054
215	0x3dc3db4c	0.09563312
216	0x3d6a14ae	0.057148628
217	0x3c16e292	0.009209292
218	0x3ce1e129	0.027573185
219	0x3d4247d0	0.047431767
220	0x3db9fd75	0.09081546
221	0x3e2b5dad	0.16734953
222	0x3db58f89	0.08865268
223	0x3d68db3d	0.056849707
224	0x3dba74df	0.09104323
225	0x3e940b40	0.28914833
226	0x3da10f19	0.07864208
227	0x3db096d0	0.08622515
228	0x3e181639	0.14852227
229	0x3e27705c	0.16351455
230	0x3e3333b3	0.1750019
231	0x3e1e8d9f	0.15483712
232	0x3dd39d28	0.103327096
233	0x3d8aca16	0.06776826
234	0x3e152f91	0.14568926
235	0x3dbd22e1	0.09235168
236	0x3dcf9070	0.10134971
237	0x3d9ad948	0.07560974
238	0x3c7b6e31	0.015346096
239	0x3d795fbd	0.06088232
240	0xbd39cb9f	-0.045360204
241	0x3cb09067	0.021553231
242	0xbd557ec9	-0.052122865
243	0x3d36f645	0.044668455
244	0x3e2b679e	0.16738746
245	0x3dc29571	0.0950116
246	0x3e19e7a7	0.15029775
247	0x3cc6ce26	0.024268221
248	0x3e495d3c	0.19664472
249	0x3dd956db	0.106122695
250	0x3cab69ff	0.020924566
251	0x3e2c3055	0.16815312
252	0x3e01d3ab	0.12678401
253	0x3df6e197	0.120547466
254	0x3e2ba910	0.16763711
255	0x3c81aea5	0.015830347

fc2.bias f4 [12]
0	0xbe264e51	-0.16240813
1	0xbda98a89	-0.082783766
2	0xbd393007	-0.045211818
3	0xbd6b0396	-0.057376467
4	0xbd501ec4	-0.05081059
5	0xb98eeb46	-0.00027259643
6	0xbe16d528	-0.1472975
7	0x3e4aa8fd	0.19791026
8	0x3cf393f6	0.02973364
9	0xbd6e6453	-0.058201145
10	0x3e3c3e15	0.18383057
11	0xbd845890	-0.064622045
