test_models/100epoch_01_model.pt (torch, 516941 bytes, 12 tensors)

conv1.weight f4 [8, 3, 3, 3]
0.049185228 -0.06466914 0.09684529 -0.12177903 0.029370038 0.19240592 0.10797981 -0.10487852
0.09616091 0.080421224 0.09243998 -0.08670926 -0.17517099 0.07350629 0.18979825 -0.009074894
0.102304436 -0.097438335 0.056403916 0.0033392895 -0.110904604 -0.10764758 0.06482081 0.20702244
0.18434723 -0.037653517 0.012925591 0.0073472974 0.04985164 0.1669445 0.10265944 0.143463
0.074605845 -0.031676196 0.10481838 0.010854164 -0.00044681723 0.01684927 0.18781443 0.020372583
0.21455042 -0.09907526 0.12596536 -0.08755914 0.05369336 0.11853513 -0.00029658884 0.095810495
-0.14527917 0.20821871 0.10557326 0.21047486 0.09234756 -0.10790536 0.014037119 -0.13514288
0.17787789 0.10748808 -0.13685769 -0.031178452 0.00022415331 0.15797856 0.096300624 -0.025946612
-0.09495184 -0.095991366 0.020788174 -0.073388174 -0.16821668 0.078834444 0.034537256 -0.0076758843
0.14789905 0.16164155 -0.0077484124 0.1638328 -0.120938554 -0.14850183 -0.011675862 -0.0048504192
0.11111255 -0.15747638 -0.10212328 0.18094599 -0.16289254 0.20086056 -0.0070094327 0.19165465
-0.16383682 -0.021871533 0.10410319 0.12557836 -0.1620139 -0.08518949 0.077955365 0.1579985
0.035118647 0.011168351 -0.07147298 0.012161079 0.06829535 -0.17853904 -0.13361324 0.042855527
0.07221933 -0.08746151 -0.10460158 0.007447585 -0.09226611 0.14794974 0.17490946 0.15415026
0.09192723 0.12923999 0.09404949 0.15542528 -0.026415141 0.13417646 -0.047793068 0.03728128
0.14934506 0.14378382 -0.11504173 -0.040934958 0.03618573 -0.17449377 0.15548413 -0.11399923
0.17786986 0.05154446 0.20798227 -0.105007485 0.052889585 0.019581841 -0.030073103 -0.07427642
0.0625935 -0.09066317 -0.17654955 0.15319817 0.14637937 -0.16206947 -0.14692986 -0.10612671
-0.020647407 0.18103501 -0.05457855 -0.03453728 0.050872266 -0.17495753 0.077198386 0.00894646
-0.06488706 -0.06661238 0.1940084 0.00045890428 -0.16899277 0.043203812 0.0603577 0.11320209
-0.088242 0.14388299 0.14402002 -0.1812066 0.07725359 0.0749303 0.11462815 0.041710977
-0.14373957 0.056207225 0.06764144 0.05745547 -0.070802435 0.09719333 -0.16997458 -0.02997077
0.058521938 0.019824104 -0.031951714 -0.04267255 -0.12061091 -0.12806627 0.17003842 -0.0106975045
0.09543789 0.064663425 0.12383818 -0.1437923 0.040137265 0.073199384 0.16763726 0.2130174
0.19858338 0.06970938 0.08754252 -0.16839907 0.20728347 -0.009380999 0.06745472 0.19937974
-0.05666352 0.0049766065 0.14635952 -0.1424461 -0.11923491 -0.038547613 0.13805848 0.133178
0.08179569 0.13534135 0.04520844 0.15951446 0.11283451 -0.03450502 -0.08962425 0.08599284
00000000: 7376 493d 4171 84bd d356 c63d 4967 f9bd
00000010: 6f99 f03c 0f06 453e 8524 dd3d 8dca d6bd
00000020: 03f0 c43d e2b3 a43d 2c51 bd3d a094 b1bd
00000030: 0660 33be 778a 963d 795a 423e ddae 14bc
00000040: fd84 d13d c08d c7bd cb07 673d fbd7 5a3b
00000050: f421 e3bd 5676 dcbd c6c0 843d b1fd 533e
00000060: 85c5 3c3e 933a 1abd dcc5 533c 99c1 f03b
00000070: 3c31 4c3d 80f3 2a3e 1d3f d23d f7e7 123e
00000080: f3ca 983d e6be 01bd 05ab d63d aad5 313c
00000090: cb42 eab9 7b07 8a3c 6d52 403e 67e4 a63c
000000a0: 1bb3 5b3e f8e7 cabd 10fd 003e 3552 b3bd
000000b0: 92ed 5b3d 8cc2 f23d 7b7f 9bb9 4b38 c43d
000000c0: 10c4 14be 4937 553e cb36 d83d b986 573e
000000d0: b820 bd3d 7cfd dcbd f2fb 653c e562 0abe
000000e0: 9f25 363e b622 dc3d 6c24 0cbe f469 ffbc
000000f0: b20a 6b39 22c5 213e 4339 c53d fd8d d4bc
00000100: 1c76 c2bd 1f97 c4bd f64b aa3c 8a4c 96bd
00000110: fe40 2cbe f473 a13d f076 0d3d fc85 fbbb
00000120: d972 173e 5d85 253e 65e6 fdbb c9c3 273e
00000130: a2ae f7bd dd10 18be 1d4c 3fbc 44f0 9ebb
00000140: fa8e e33d 7d41 21be 0326 d1bd e849 393e
00000150: 4dcd 26be 64ae 4d3e 62af e5bb 1e41 443e
00000160: d7c4 27be ee2b b3bc 0e34 d53d 9d97 003e
00000170: f9e6 25be d477 aebd 10a7 9f3d 5cca 213e
00000180: 92d8 0f3d 76fb 363c 6d60 92bd 433f 473c
00000190: 6fde 8b3d f0d2 36be e9d1 08be 4789 2f3d
000001a0: bae7 933d 051f b3bd 5a39 d6bd df0a f43b
000001b0: 04f6 bcbd 2380 173e 771b 333e 91d9 1d3e
000001c0: 5844 bc3d 7d57 043e 059d c03d ce27 1f3e
000001d0: 9164 d8bc 8e65 093e aac2 43bd 41b4 183d
000001e0: e9ed 183e 113c 133e 009b ebbd 6aab 27bd
000001f0: 7d37 143d 7fae 32be 3b37 1f3e 6e78 e9bd
00000200: 8423 363e 4920 533d 4ef9 543e 2a0e d7bd
00000210: c0a2 583d 196a a03c de5b f6bc 3c1e 98bd
00000220: 0531 803d 9dad b9bd 68c9 34be fbdf 1c3e
00000230: 79e4 153e 8af5 25be c874 16be f658 d9bd
00000240: c024 a9bc 3e61 393e c28d 5fbd f776 0dbd
00000250: 705f 503d 1128 33be 301a 9e3d 2c94 123c
00000260: 82e3 84bd 126c 88bd 23aa 463e 1799 f039
00000270: 710c 2dbe 7bf6 303d a339 773d 7fd6 e73d
00000280: 39b8 b4bd 1056 133e fc79 133e 398e 39be
00000290: 2137 9e3d 0f75 993d 2ac2 ea3d 21d9 2a3d
000002a0: 7730 13be 8c39 663d 9887 8a3d 6d56 6b3d
000002b0: de00 91bd 4c0d c73d d10d 2ebe 4385 f5bc
000002c0: b3b4 6f3d 2966 a23c cddf 02bd 69c9 2ebd
000002d0: da02 f7bd ce23 03be 8d1e 2e3e 9644 2fbc
000002e0: f174 c33d 426e 843d df9e fd3d 4a3e 13be
000002f0: f966 243d 8fe9 953d 1aa9 2b3e 3c21 5a3e
00000300: 7159 4b3e cbc3 8e3d 7e49 b33d ce70 2cbe
00000310: 1e42 543e c3b2 19bc b325 8a3d 342a 4c3e
00000320: 0218 68bd cd12 a33b 45df 153e 64dd 11be
00000330: 6f31 f4bd 1ae4 1dbd 345f 0d3e d05f 083e
00000340: 8084 a73d ec96 0a3e 7c2c 393d c257 233e
00000350: c815 e73d 2355 0dbd eb8c b7bd 041d b03d

conv1.bias f4 [8]
-0.1429394 -0.031176602 0.11813085 -0.01738509 0.12674014 0.14573756 0.15452306 -0.13931645
00000000: b55e 12be 1366 ffbc 96ee f13d 2d6b 8ebc
00000010: 2bc8 013e 3a3c 153e 4b3b 1e3e f9a8 0ebe

conv2.weight f4 [16, 8, 3, 3]
-0.00530567 -0.117019884 -0.08820438 0.032371856 -0.033602193 -0.0969244 -0.05970416 -0.011119912
0.057432007 0.015523078 -0.018844798 0.09338719 -0.006768559 0.065047465 -0.038130127 0.10834946
-0.027394805 -0.092151105 0.08210737 -0.044504598 -0.015876338 -0.031844642 0.05749811 0.05448094
-0.089257054 -0.058382306 -0.098736815 0.09565656 0.014616078 0.049666703 -0.0567212 0.103486165
0.07378295 -0.11370276 -0.10420897 0.1035224 0.009707136 0.030367002 0.030354891 -0.03568995
-0.11436092 0.0054681604 0.08264306 -0.11332047 0.07678872 -0.08566597 0.10385041 -0.09527312
-0.09175921 -0.104871854 -0.09561246 0.00185751 0.07244778 0.10176656 0.09917144 -0.06799696
-0.0504603 -0.07124098 -0.0017404541 -0.10115353 0.037572425 0.087583244 -0.00013085191 -0.04878332
-0.09683529 -0.007872484 0.013764598 -0.062396318 -0.1070875 -0.08286027 -0.014321345 -0.020001657
-0.10543093 -0.0188921 0.006354073 0.103487104 -0.051481195 -0.063133396 0.11527594 0.038943168
-0.059327535 -0.015400993 -0.0019699016 -0.061870366 -0.102815524 -0.11015565 -0.053089127 0.057406314
-0.0878327 0.0042194333 -0.050103217 -0.05994886 0.01610795 0.100845635 0.014321064 -0.027412508
-0.0841953 -0.10873844 -0.0038732532 -0.06629089 -0.013876681 0.002341721 -0.04966472 -0.030256141
-0.027701579 0.019445179 0.082624204 -0.10870875 -0.049505536 -0.10416063 0.031067692 -0.027070584
0.04077875 -0.070695885 -0.017508868 -0.07888971 -0.08574001 -0.009424569 -0.06665219 -0.057775714
0.060614727 0.050210595 -0.012647229 0.0657607 -0.052057553 0.027486615 -0.05955268 0.070941925
0.10918831 0.0976874 -0.09109525 0.030431654 -0.040552575 -0.10704156 -0.10590642 -0.0026240768
-0.07710458 -0.09250638 -0.07274272 0.10812916 -0.02533537 -0.08336198 -0.07840654 -0.033082087
0.118077725 0.0025574006 -0.10664767 -0.05261788 0.083966196 -0.11328618 0.06550277 0.038543817
0.07655356 -0.09396847 -0.04595603 0.08426955 0.07306224 0.074438 -0.082149886 -0.023493713
-0.0520084 -0.05319649 -0.07723181 0.04990833 0.014188178 0.004511762 0.012907615 -0.027593087
-0.073665835 0.017313503 0.066502936 0.027815761 -0.10506505 0.074144945 -0.022961361 -0.0073845237
0.04125949 -0.034238845 0.08569477 0.0017575409 0.017367898 -0.10449093 0.072725214 0.05471167
-0.055833336 -0.12685303 -0.0415748 0.08641592 0.042021558 -0.07390148 -0.0016600791 0.055730324
-0.029750766 0.02078096 0.087086864 -0.107624106 0.089395575 -0.07224209 0.012121709 -0.065873146
-0.09089268 0.043015942 0.020534817 -0.10477644 0.0026083253 -0.1261794 0.08272845 0.09071121
-0.119828016 -0.017376995 -0.021679513 0.10440006 0.03520333 -0.079441585 -0.004747628 -0.014907335
0.03236286 0.11561108 -0.030466089 0.040401384 0.04880481 0.03578382 -0.043427803 -0.020350134
0.06313228 -0.066481866 0.022349924 -0.053851053 -0.0004092844 -0.084815934 -0.06758214 0.12927918
0.115060255 -0.0725596 0.07791586 0.06070447 -0.089194626 -0.038585737 0.06148818 -0.018602204
0.06768407 0.077770285 -0.09151093 -0.09111238 -0.05844338 -0.097360626 0.13518098 0.016840758
0.079598464 0.06255379 -0.06873595 0.085955985 0.06523765 0.027220681 0.087724544 -0.05502946
00000000: 30db adbb 1fa8 efbd 7fa4 b4bd 5a98 043d
00000010: 74a2 09bd 4d80 c6bd 598c 74bd 4b30 36bc
00000020: d33d 6b3d 8254 7e3c 6860 9abc c841 bf3d
00000030: caca ddbb 9b37 853d 562e 1cbd 52e6 dd3d
00000040: 126b e0bc b8b9 bcbd e927 a83d 744a 36bd
00000050: 180f 82bc 876f 02bd 2383 6b3d 6827 5f3d
00000060: 67cc b6bd 4922 6fbd 8736 cabd 96e7 c33d
00000070: 4678 6f3c 506f 4b3d 7d54 68bd 8ef0 d33d
00000080: 841b 973d fedc e8bd 836b d5bd 8d03 d43d
00000090: ae0a 1f3c 38c4 f83c d2aa f83c a02f 12bd
000000a0: 0f36 eabd 412e b33b c440 a93d 9014 e8bd
000000b0: 6843 9d3d a471 afbd 86af d43d 8e1e c3bd
000000c0: 41ec bbbd 0ec7 d6bd 77d0 c3bd b177 f33a
000000d0: 805f 943d fc6a d03d 651a cb3d fd41 8bbd
000000e0: 76af 4ebd cae6 91bd f31f e4ba 9529 cfbd
000000f0: 8be5 193d d85e b33d 4b35 09b9 05d1 47bd
00000100: 9551 c6bd 97fb 00bc e984 613c 4893 7fbd
00000110: b150 dbbd a5b2 a9bd 13a4 6abc 84da a3bc
00000120: 2cec d7bd 9bc3 9abc d435 d03b 0cf1 d33d
00000130: f2dd 52bd 154c 81bd cb15 ec3d df82 1f3d
00000140: 6e01 73bd 7254 7cbc 7719 01bb c86b 7dbd
00000150: f290 d2bd 4999 e1bd fc73 59bd e222 6b3d
00000160: a1e1 b3bd 2c43 8a3b 0839 4dbd f08c 75bd
00000170: d2f4 833c 2888 ce3d e5a2 6a3c 3290 e0bc
00000180: 966e acbd 42b2 debd 68d6 7dbb 85c3 87bd
00000190: 055b 63bc 8f77 193b 3c6d 4bbd badb f7bc
000001a0: 6cee e2bc 7f4b 9f3c e136 a93d b1a2 debd
000001b0: 51c6 4abd 2b52 d5bd ac81 fe3c 21c3 ddbc
000001c0: 9e07 273d 01c9 90bd c26e 8fbc ee90 a1bd
000001d0: 7598 afbd 8269 1abc f280 88bd 3aa6 6cbd
000001e0: 2647 783d a0a9 4d3d 5336 4fbc 8cad 863d
000001f0: 4d3a 55bd 9c2b e13c 83ed 73bd 004a 913d
00000200: 1f9e df3d 5510 c83d 2590 babd ce4b f93c
00000210: 751a 26bd 9b38 dbbd 77e5 d8bd b4f8 2bbb
00000220: 02e9 9dbd fc73 bdbd 23fa 94bd d272 dd3d
00000230: 1f8c cfbc b0b9 aabd 9c93 a0bd 1581 07bd
00000240: bcd2 f13d 109a 273b 186a dabd d985 57bd
00000250: 78f6 ab3d 9602 e8bd 5126 863d 1fe0 1d3d
00000260: 1dc8 9c3d 8b72 c0bd 643c 3cbd 8495 ac3d
00000270: a8a1 953d f372 983d 333e a8bd e375 c0bc
00000280: c306 55bd 90e4 59bd b62b 9ebd ad6c 4c3d
00000290: 8875 683c 67d7 933b 767a 533c e60a e2bc
000002a0: 1dde 96bd 0cd5 8d3c b132 883d e1dd e33c
000002b0: 582c d7bd 4ed9 973d 7719 bcbc e0f9 f1bb
000002c0: b6ff 283d 083e 0cbd bd80 af3d 495d e63a
000002d0: 1f47 8e3c 57ff d5bd f5f0 943d 5819 603d
000002e0: 7fb1 64bd c3e5 01be 564a 2abd d4fa b03d
000002f0: cc1e 2c3d a959 97bd 0397 d9ba 7b45 643d
00000300: e1b7 f3bc d53c aa3c 995a b23d 076a dcbd
00000310: 0715 b73d a9f3 93bd 229a 463c 80e8 86bd
00000320: f125 babd 7c31 303d a238 a83c 0895 d6bd
00000330: 70f0 2a3b 2c35 01be 896d a93d cdc6 b93d
00000340: 6468 f5bd 335a 8ebc 3c99 b1bc b3cf d53d
00000350: 5e31 103d 45b2 a2bd fd91 9bbb e53d 74bc
00000360: eb8e 043d 80c5 ec3d 0594 f9bc ec7b 253d
00000370: 8de7 473d 0e92 123d 5ae1 31bd 53b5 a6bc
00000380: 7f4b 813d a527 88bd 3017 b73c ec92 5cbd
00000390: 3995 d6b9 fab3 adbd 8168 8abd c361 043e
000003a0: b6a4 eb3d 219a 94bd 5a92 9f3d 40a5 783d
000003b0: acab b6bd 140c 1ebd 08db 7b3d a663 98bc
000003c0: f29d 8a3d 0746 9f3d 156a bbbd 2199 babd
000003d0: 5362 6fbd 0265 c7bd e26c 0a3e a1f5 893c
000003e0: 8504 a33d 341c 803d 6fc5 8cbd b109 b03d
000003f0: 519b 853d e8fd de3c eda8 b33d 9266 61bd

conv2.bias f4 [16]
-0.06385933 -0.10326414 -0.0462119 0.10700441 -0.038260914 0.026017051 -0.013020108 0.049754146
-0.094068706 -0.09731254 0.06512883 0.015415807 0.011398276 0.08538027 0.0597418 -0.05554035
00000000: aec8 82bd 267c d3bd b048 3dbd 2125 db3d
00000010: 7ab7 1cbd b621 d53c 4b52 55bc 01cb 4b3d
00000020: 18a7 c0bd cc4b c7bd 4462 853d 9592 7c3c
00000030: d6bf 3a3c dadb ae3d d1b3 743d 477e 63bd

conv3.weight f4 [32, 16, 3, 3]
0.0067225397 -0.05133438 0.009178212 0.055041116 0.010867844 -0.0042467914 0.068063915 0.05098527
-0.025955379 -0.06440179 -0.020797431 0.0130941775 0.022883018 0.0019720297 0.055535864 -0.020486426
-0.0017052194 0.055875987 -0.041709777 0.013603358 -0.043329965 -0.053690046 -0.051860347 -0.0008540907
0.020845491 -0.05076428 0.078267805 -0.045955345 -0.04987792 -0.012783185 -0.03302602 -0.06043233
-0.060442287 0.07435335 0.04718304 -0.048666656 -0.035619855 -0.04626985 0.076355875 -0.05584413
-0.00038519956 0.08143251 -0.011252479 0.00014770249 -0.041825745 0.07291003 -0.025024122 -0.026890002
0.072376974 0.06510276 -0.0123077845 -0.04505441 -0.018846476 0.06585443 0.08104729 0.08221793
0.089289136 0.088781096 0.07929853 -0.0058465227 0.007273884 0.06623021 0.07630766 0.0022897287
-0.0039300057 0.0021654852 0.03351482 -0.05219675 0.08740371 -0.052642982 -0.023197861 -0.031155227
0.00645525 0.0042112437 0.09552023 -0.008705729 -0.041947227 -0.02643882 0.078861795 -0.0511471
-0.009910272 -0.0024837602 0.052670978 0.028999677 0.095024176 0.08916204 0.07047748 0.043034915
-0.005177306 0.045856193 -0.040538356 0.047364376 0.024282414 -0.008994769 0.06522687 0.06987765
-0.0027371673 0.08112564 -0.014581418 -0.07376218 0.047979537 0.02564979 0.086555496 0.057517823
-0.012891741 -0.001267758 0.06543316 -0.051237818 3.0202675e-05 -0.013959774 -0.011995453 -0.004085136
0.07318189 0.06934003 -0.036737256 0.04432159 -0.047526717 -0.018473389 0.06526215 -0.08328976
0.07432008 0.049999304 0.07000155 -0.03212015 -0.010455311 0.07604565 -0.0023488258 0.04479997
0.06324363 -0.017984513 0.04789325 -0.014285254 -0.07171568 -0.015598895 -0.062340356 -0.04230292
0.007655374 0.01669004 0.077104904 0.02943039 0.04020981 0.053130165 -0.044694938 0.06412896
-0.0071047745 0.013854116 -0.05170397 -0.06035345 0.022531372 0.07598333 -0.018660855 0.06989485
0.05394892 -0.041234057 0.038574032 0.027215114 0.06343059 -0.032380622 -0.010852347 -0.005132447
-0.009772509 0.0804758 -0.007426344 -0.01884757 -0.031174915 0.06883513 -0.0007704767 0.026048467
0.036008548 -0.042697635 0.025911942 0.013158741 -0.048366908 0.10233578 -0.006856165 -0.030953929
0.06531099 0.07942092 0.009773779 0.060870852 0.036442272 -0.010217338 0.030025199 0.023881236
-0.07316924 0.044544738 -0.029749567 0.06574229 0.025855297 0.06471266 0.05096814 0.02166179
-0.009941747 -0.0014803916 -0.008302139 0.06545125 0.054853193 -0.04447137 -0.032115396 -0.061577756
0.048136335 -0.06392637 0.05381272 -0.035744056 0.019926006 -0.08337832 0.054717597 0.023238618
0.007729763 0.068469234 -0.04861119 -0.07028277 -0.049258538 -0.037725408 -0.011739025 -0.018837519
0.011621956 -0.033875268 0.068438075 -0.048231643 0.0038135413 0.02710386 -0.03251647 -0.021160338
0.010548744 -0.058706764 0.09476628 0.077329345 0.015687978 -0.03901899 -0.02458931 -0.039783288
-0.053104293 -0.03132177 -0.0094462 0.012930548 0.091227196 0.05669178 -0.07165092 -0.070693426
-0.035301726 0.014092416 -0.08731593 0.003987129 0.0077193067 0.030613426 -0.02134136 -0.03759695
-0.066796124 0.046751678 -0.053549506 -0.042231034 -0.0065621682 0.029049091 0.022167796 0.076080106
00000000: c048 dc3b 0044 52bd 3660 163c cb72 613d
00000010: 0b0f 323c ab28 8bbb 1865 8b3d eed5 503d
00000020: 60a0 d4bc 16e5 83bd 605f aabc f688 563c
00000030: 2b75 bb3c 2b3d 013b 9379 633d 26d3 a7bc
00000040: ab81 dfba 38de 643d dfd7 2abd 9ee0 5e3c
00000050: c37a 31bd 18ea 5bbd 846b 54bd 0ee5 5fba
00000060: 2ac4 aa3c 35ee 4fbd df4a a03d ac3b 3cbd
00000070: ca4c 4cbd 9070 51bc 4b46 07bd e487 77bd
00000080: 5592 77bd 9246 983d 0143 413d b056 47bd
00000090: 20e6 11bd 7485 3dbd 7860 9c3d d1bc 64bd
000000a0: 9cf4 c9b9 16c6 a63d 515c 38bc 96e0 1a39
000000b0: 7951 2bbd db51 953d 63ff ccbc 6c48 dcbc
000000c0: 613a 943d 9954 853d 97a6 49bc f98a 38bd
000000d0: ed63 9abc b0de 863d 1ffc a53d e061 a83d
000000e0: 39dd b63d ddd2 b53d 4567 a23d 3094 bfbb
000000f0: c359 ee3b b4a3 873d 3147 9c3d 460f 163b
00000100: 47c7 80bb d0ea 0d3b d646 093d 42cc 55bd
00000110: b700 b33d 2ba0 57bd 7109 bebc 3f39 ffbc
00000120: 9086 d33b 79fe 893b 1ca0 c33d 79a2 0ebc
00000130: dbd0 2bbd 3996 d8bc 4b82 a13d 9f7f 51bd
00000140: b25e 22bc 95c6 22bb 86bd 573d bb90 ed3c
00000150: 099c c23d 969a b63d 7f56 903d 6145 303d
00000160: 64a6 a9bb b4d3 3b3d 8c0b 26bd 2601 423d
00000170: eaeb c63c cc5e 13bc aa95 853d 031c 8f3d
00000180: 0c62 33bb 3325 a63d e6e6 6ebc a010 97bd
00000190: 3186 443d 821f d23c 0244 b13d cf97 6b3d
000001a0: e137 53bc e62a a6ba d201 863d bfde 51bd
000001b0: c05b fd37 89b7 64bc 9488 44bc 9bdc 85bb
000001c0: 63e0 953d 2502 8e3d ce79 16bd 8e8a 353d
000001d0: 60ab 42bd 8155 97bc 29a8 853d d293 aabd
000001e0: 2035 983d 12cc 4c3d f95c 8f3d 6b90 03bd
000001f0: c14c 2bbc d2bd 9b3d c2ee 19bb 2c80 373d
00000200: e085 813d 4254 93bc b62b 443d b30c 6abc
00000210: acdf 92bd 8292 7fbc 9a58 7fbd d445 2dbd
00000220: eed9 fa3b 8db9 883c 2de9 9d3d 0018 f13c
00000230: 0bb3 243d 049f 593d 0a12 37bd 0b56 833d
00000240: 2bcf e8bb 60fc 623c 8bc7 53bd 2e35 77bd
00000250: b693 b83c 269d 9b3d a6de 98bc 0825 8f3d
00000260: 8bf9 5c3d 0be5 28bd ceff 1d3d 3bf2 de3c
00000270: e6e7 813d 8ba1 04bd 0bce 31bc 162e a8bb
00000280: e01c 20bc 7fd0 a43d b058 f3bb 3866 9abc
00000290: 8962 ffbc 6ff9 8c3d d1f9 49ba 9863 d53c
000002a0: b37d 133d b7e3 2ebd 4845 d43c c397 573c
000002b0: 611c 46bd 6c95 d13d aea9 e0bb 1893 fdbc
000002c0: c5c1 853d 6fa7 a23d 3322 203c b753 793d
000002d0: 7e44 153d 9f66 27bc 68f7 f53c 95a2 c33c
000002e0: c1d9 95bd 8b74 363d 5db5 f3bc e5a3 863d
000002f0: 7dce d33c 1288 843d f8c3 503d 1174 b13c
00000300: b6e2 22bc b309 c2ba b205 08bc 4e0b 863d
00000310: bead 603d 9c27 36bd 6f8b 03bd f538 7cbd
00000320: 9b2a 453d d4eb 82bd ba6a 5c3d 5c68 12bd
00000330: dd3b a33c 41c2 aabd 8f1f 603d ea5e be3c
00000340: f449 fd3b 9939 8c3d 871c 47bd 6af0 8fbd
00000350: 52c3 49bd f585 1abd 0a55 40bc 2451 9abc
00000360: 046a 3e3c cbc0 0abd 4329 8c3d 8b8e 45bd
00000370: 9bec 793b ea08 de3c fd2f 05bd 7258 adbc
00000380: a4d4 2c3c 8176 70bd d314 c23d d95e 9e3d
00000390: 1384 803c 60d2 1fbd 856f c9bc cdf3 22bd
000003a0: e383 59bd 424b 00bd 3cc4 1abc a6da 533c
000003b0: 53d5 ba3d a435 683d b8bd 92bd b7c7 90bd
000003c0: 8b98 10bd e0e3 663c b2d2 b2bd 76a6 823b
000003d0: 3df2 fc3b 02c9 fa3c 13d4 aebc 42ff 19bd
000003e0: 68cc 88bd b07e 3f3d ba56 5bbd 73fa 2cbd
000003f0: 7507 d7bb 5cf8 ed3c 3d99 b53c e3cf 9b3d

conv3.bias f4 [32]
0.029078025 0.02436663 -0.08081549 -0.07768901 0.07853074 -0.05772272 -0.08846095 -0.003223408
-0.032757815 -0.013179428 0.061628286 0.07927617 -0.018888587 0.048246495 -0.07295961 0.05793299
0.017731516 -0.04748997 -0.02581045 0.078187965 -0.0031659696 -0.06990044 -0.012189664 0.037656352
-0.048944876 0.0077118836 -0.08485545 -0.071446635 0.0034756851 0.00864838 -0.0105063105 0.015639942
00000000: 0a35 ee3c 879c c73c 9782 a5bd 6a1b 9fbd
00000010: bad4 a03d a96e 6cbd 042b b5bd d03f 53bb
00000020: 0f2d 06bd 87ee 57bc f16d 7c3d 8b5b a23d
00000030: 3dbc 9abc 1e9e 453d d96b 95bd 254b 6d3d
00000040: af41 913c d884 42bd 7070 d3bc 0321 a03d
00000050: 287c 4fbb f627 8fbd 28b7 47bc 8c3d 1a3d
00000060: 6c7a 48bd f8b3 fc3b b2c8 adbd 9d52 92bd
00000070: 52c8 633b efb1 0d3c a922 2cbc 561f 803c

conv4.weight f4 [64, 32, 3, 3]
0.0523148 -0.007717995 0.06729813 0.026619034 0.035811886 0.04677978 -0.05333562 0.03599733
-0.0056624277 0.035695296 -0.04465689 -0.05631165 0.025579052 -0.0389359 -0.06199316 -0.04883035
-0.009393939 0.05044859 -0.022894412 0.07350612 0.026892353 0.007882871 -0.0020776829 -0.0016127588
-0.03641039 0.0324966 0.07343221 0.0075419093 0.016606815 0.03954567 0.041556187 0.050316572
0.049787056 -0.06588231 -0.039277747 0.021733884 0.016603786 0.037547693 -0.029279131 0.038654834
-0.06503414 -0.051933352 -0.08018115 -0.086609945 -0.033823457 0.04177977 0.021774694 -0.0013212897
0.009631731 0.04333437 -0.033783276 0.029199684 -0.053512905 -0.03426367 0.05063326 0.03470494
-0.041303553 0.06653782 0.021129549 -0.033817083 0.05542771 -0.050867897 0.057745766 -0.0113506215
0.066147834 0.041721668 0.024432791 -0.009586043 0.045263045 -0.007953306 0.018487144 -0.01351941
-0.05625916 -0.04468479 -0.049537685 -0.0019894647 0.03174206 0.0196508 -0.048277438 -0.04012111
-0.040342078 -0.03765583 0.02771843 0.06328537 -0.0432719 0.024181578 -0.01274223 -0.022881297
0.002333699 0.005300393 0.032393936 0.032846894 -0.04062298 -0.008997319 -0.050869953 -0.03663919
-0.03287683 0.026952004 0.044093553 -0.08587905 -0.011951117 -0.044446822 0.027961312 0.001016492
0.0142546985 -0.060878515 -0.02022453 -0.02676955 0.045798298 0.03677895 0.08189594 0.037920374
0.052845433 -0.03148158 0.03143776 0.03120111 -0.05364198 -0.030069465 0.010973898 -0.03708519
0.013831051 0.0074425503 0.063207954 -0.03550865 0.009434898 -0.04466966 0.0016130669 0.015792508
0.0057481457 -0.022191323 0.03227343 -0.043782152 -0.0601535 -0.011728928 -0.09035207 0.018285966
-0.034171704 -0.032543257 -0.063751206 -0.064116076 -0.013369456 -0.036483686 -0.022029147 0.0019269894
0.080715425 -0.0068040797 0.051550943 0.039693713 0.04723772 -0.007694909 -0.05964296 -0.02836852
0.00027427266 0.022316828 0.016109854 -0.03582962 0.032394648 -0.06828934 -0.012854418 -0.033333857
-0.028251719 -0.029307747 0.029982805 0.027982352 0.06453965 -0.019666716 0.043398354 -0.03557116
-0.047706127 0.02765113 0.036647525 0.051119655 0.060664535 0.055999756 -0.002080918 -0.0031949852
-0.03204627 -0.023961572 0.058001827 0.048485972 0.053493433 -0.03959937 -0.013015642 -0.021882469
-0.0024540038 -0.059223704 -0.024009423 -0.041936334 0.05912793 0.04368757 0.02800814 -0.033994514
0.013207183 0.036691785 -0.002720661 0.03299018 0.0013159367 0.008194749 0.027119804 -0.030885361
0.0049141916 -0.012671012 -0.043630626 -0.02560921 0.044824228 -0.014610721 0.0056729415 0.03904948
-0.02909847 -0.056475 -0.038217075 -0.020467965 0.043642048 -0.016453426 0.04060404 -0.07318931
-0.04622005 -0.020563267 -0.013082569 -0.0063360785 0.014136095 0.025317155 -0.04028656 -0.029166305
-0.04000226 -0.017622406 -0.00032530344 -0.01308614 0.0497326 -0.0166454 0.019899186 -0.02155583
-0.03252857 -0.0021909338 -0.031345464 0.068833984 -0.028860925 0.006028129 0.037040774 0.053967115
-0.0002531412 -0.01812521 -0.012118195 0.019007294 0.04637716 -0.008256631 0.024488347 0.014692565
-0.015031957 -0.050473243 -0.015812552 0.026445461 -0.039459568 0.04413271 -0.0061919712 0.014389301
00000000: 0b48 563d 3ce7 fcbb 9ad3 893d 2910 da3c
00000010: 7caf 123d 289c 3f3d 7376 5abd f071 133d
00000020: e38b b9bb 3b35 123d 25ea 36bd 0ba7 66bd
00000030: 298b d13c 407b 1fbd 8aec 7dbd 5502 48bd
00000040: 09e9 19bc 2ea3 4e3d 108d bbbc 608a 963d
00000050: 5a4d dc3c 2827 013c bc29 08bb 3563 d3ba
00000060: 1023 15bd 281b 053d a063 963d 1f22 f73b
00000070: 040b 883c a4fa 213d d236 2a3d c018 4e3d
00000080: 83ed 4b3d 4eed 86bd b4e1 20bd 420b b23c
00000090: aa04 883c 9ccb 193d cada efbc 8854 1e3d
000000a0: 9f30 85bd 11b8 54bd 0436 a4bd 8e60 b1bd
000000b0: 778a 0abd 4421 2b3d d860 b23c 202f adba
000000c0: 68ce 1d3c 617f 313d 5560 0abd 2d34 ef3c
000000d0: 5930 5bbd 1058 0cbd d264 4f3d c426 0e3d
000000e0: ea2d 29bd fb44 883d e017 ad3c c883 0abd
000000f0: 2b08 633d db5a 50bd d386 6c3d f5f7 39bc
00000100: 8478 873d 57e4 2a3d 4727 c83c c70e 1dbc
00000110: be65 393d 954e 02bc 5a72 973c 8480 5dbc
00000120: 0170 66bd 6607 37bd 07e8 4abd ae61 02bb
00000130: f603 023d b7fa a03c 90be 45bd 0856 24bd
00000140: bc3d 25bd 003d 1abd c311 e33c c39b 813d
00000150: e03d 31bd 7218 c63c c9c4 50bc 8f71 bbbc
00000160: f9f0 183b ebae ad3b 81af 043d 778a 063d
00000170: 4864 26bd 7e69 13bc 035d 50bd fa12 16bd
00000180: dba9 06bd 73ca dc3c 719b 343d 5be1 afbd
00000190: 9ece 43bc df0d 36bd 1f0f e53c d03b 853a
000001a0: 8a8c 693c c05b 79bd eaad a5bc d14b dbbc
000001b0: ff96 3b3d 86a5 163d 0fb9 a73d 6552 1b3d
000001c0: 7474 583d d4f2 00bd e1c4 003d 7899 ff3c
000001d0: b1b7 5bbd 3d54 f6bc ddcb 333c a4e6 17bd
000001e0: a29b 623c a3e0 f33b 2c73 813d 8571 11bd
000001f0: d594 1a3c 89f7 36bd 8b6d d33a 4a5f 813c
00000200: f15a bc3b 94ca b5bc 2531 043d ea54 33bd
00000210: 8463 76bd b12a 40bc 820a b9bd 73cc 953c
00000220: a1f7 0bbd 144c 05bd fe8f 82bd 4a4f 83bd
00000230: 900b 5bbc eb6f 15bd 7876 b4bc 0993 fc3a
00000240: 214e a53d c2f4 debb 1527 533d e095 223d
00000250: 577c 413d 9325 fcbb 2d4c 74bd 1965 e8bc
00000260: 41cc 8f39 c8d1 b63c d0f8 833c 14c2 12bd
00000270: 40b0 043d 48db 8bbd 569b 52bc 1589 08bd
00000280: 2670 e7bc cd16 f0bc 809e f53c 3f3b e53c
00000290: 5d2d 843d 181c a1bc 79c2 313d 11b3 11bd
000002a0: 8067 43bd 9f84 e23c b71b 163d d862 513d
000002b0: 607b 783d 0060 653d 0360 08bb f562 51bb
000002c0: f342 03bd 0f4b c4bc 5393 6d3d 3a99 463d
000002d0: ee1b 5b3d f332 22bd 8f3f 55bc dd42 b3bc
000002e0: 5ad3 20bb 8e94 72bd 69af c4bc 6fc5 2bbd
000002f0: 2130 723d bdf1 323d 5471 e53c d53d 0bbd
00000300: f162 583c 204a 163d 1e4d 32bb b620 073d
00000310: 827b ac3a 4543 063c 5a2a de3c 4c03 fdbc
00000320: 3a07 a13b 149a 4fbc 07b6 32bd 68ca d1bc
00000330: 9c99 373d ce61 6fbc 15e4 b93b 59f2 1f3d
00000340: ea5f eebc 5452 67bd 8289 1cbd 6fac a7bc
00000350: 01c2 323d 56c9 86bc 6c50 263d 47e4 95bd
00000360: 3c51 3dbd 4c74 a8bc 4658 56bc e19e cfbb
00000370: 149b 673c ec65 cf3c 8503 25bd 2dee eebc
00000380: 69d9 23bd dd5c 90bc 7d8d aab9 4067 56bc
00000390: 69b4 4b3d ef5b 88bc 9e03 a33c da95 b0bc
000003a0: ae3c 05bd c595 0fbb 1a64 00bd d5f8 8c3d
000003b0: bf6d ecbc 9c87 c53b 11b8 173d 9f0c 5d3d
000003c0: 09b8 84b9 527b 94bc 658b 46bc 2fb5 9b3c
000003d0: faf5 3d3d d246 07bc c99b c83c 16b9 703c
000003e0: 9948 76bc 08bd 4ebd 5389 81bc 27a4 d83c
000003f0: 5ba0 21bd 80c4 343d 05e6 cabb 1ac1 6b3c

conv4.bias f4 [64]
-0.040330585 -0.04385764 0.0074328855 0.04560239 0.031413697 0.046545822 0.032445997 0.020331234
0.05330923 -0.015270894 -0.056405056 -0.043416236 0.030167617 0.038930368 0.030547995 -0.055938024
0.05442531 0.019964637 -0.03045674 0.054274157 -0.033201672 -0.054044895 0.039626826 -0.047230426
-0.03586553 0.067225665 0.025299842 -0.016146066 0.050279927 -0.055366628 0.07228701 -0.044489413
-0.025001261 0.021991467 0.04613783 -0.017510932 0.047150273 0.060981456 -0.024193937 -0.0011759814
-0.0072984216 -0.036712192 0.030322105 0.04515963 0.04724767 -0.029468445 -0.037856754 -0.0019129767
-0.021073256 -0.03647129 -0.048963103 0.057317123 -0.016325725 0.015551963 0.009425121 -0.046587273
0.013994835 0.045824822 -0.000105784726 0.050729677 0.03991413 0.01617274 -0.0447074 -0.030773755
00000000: af31 25bd 12a4 33bd 908f f33b 92c9 3a3d
00000010: a6ab 003d d5a6 3e3d 18e6 043d b08d a63c
00000020: c75a 5a3d c632 7abc fd08 67bd 39d5 31bd
00000030: 1422 f73c 7375 1f3d ca3f fa3c 451f 65bd
00000040: 13ed 5e3d e18c a33c 6a80 f9bc 944e 5e3d
00000050: 7afe 07bd 2e5e 5dbd bd4f 223d b174 41bd
00000060: bce7 12bd 9cad 893d 9d41 cf3c c144 84bc
00000070: 53f2 4d3d 1ec8 62bd 360b 943d 883a 36bd
00000080: 72cf ccbc 7327 b43c 05fb 3c3d 1673 8fbc
00000090: a520 413d b1c7 793d 5d32 c6bc 6323 9aba
000000a0: 9927 efbb 865f 16bd 1066 f83c 4ef9 383d
000000b0: c686 413d cf67 f1bc af0f 1bbd d9bc faba
000000c0: d2a1 acbc eb62 15bd 898d 48bd 5cc5 6a3d
000000d0: 87bd 85bc a9cd 7e3c d36b 1a3c 4cd2 3ebd
000000e0: 984a 653c cfb2 3b3d bed8 ddb8 ecc9 4f3d
000000f0: 007d 233d b27c 843c 1b1f 37bd 3e19 fcbc

fc1.weight f4 [100, 1024]
-0.018559236 -0.03417146 -0.024820022 -0.039550688 0.010536494 0.024863934 0.00011576627 0.023010889
0.018512936 0.020877946 -0.018246569 0.028818982 0.0018618659 0.013504454 0.010743053 -0.01878777
0.030745339 0.015749587 0.010062042 0.0036774045 -0.005622337 -0.020963259 -0.010193774 0.0013973447
0.01909636 -0.0061242795 -0.02246211 0.032025617 -0.00042531829 -0.010016246 -0.0070061837 0.02485303
0.01027469 0.0076075457 -0.018287316 0.016738571 0.025764711 0.01006886 0.023245815 -0.0019921926
0.018358093 -0.030178286 0.011256218 -0.021061033 0.006532334 -0.019059971 0.011874583 0.017773207
-0.0025911636 -0.021412184 -0.022800302 0.00039975464 -0.01868147 -0.018974196 0.018005459 -0.0079457695
0.023091724 -0.011058781 0.005566448 0.0069346908 -0.010891885 0.0014817793 0.029943217 0.032607134
0.01136254 0.036539014 0.026578888 0.021380607 -0.00950803 0.015625305 0.0070652813 0.03362384
0.008225968 0.029232934 0.003219464 0.04019407 0.05301864 0.015111534 0.012691639 0.01785906
0.020446613 0.01923894 -0.012672796 0.04151497 0.014886601 0.002829366 0.01772508 0.013799637
0.02989715 0.013089846 -0.00976298 0.010777976 0.0028169386 -0.021379868 0.018669376 0.035810612
0.02345648 -0.014820919 0.016874943 0.017990297 0.021412803 0.0117202 0.016394451 0.03203953
-0.008739374 0.030501254 0.026322879 0.0074072154 -0.028859155 0.010936085 0.027192557 -0.026868105
-0.0021550823 -0.013646393 0.017047381 -0.024576887 -0.0052149934 0.012174176 0.017966166 -0.019863725
0.02349635 -0.010998064 0.0013310309 -0.013582771 0.019560402 0.024218576 0.005971392 -0.00055155606
0.01984027 0.03348737 0.012607798 0.035352424 0.0027683398 -0.008713596 0.021354904 0.023116553
0.026643723 0.014823766 0.011184551 0.0076094912 0.04711823 0.028340938 0.042866416 0.04457344
-0.03459232 -0.036563616 0.004171118 -0.02935274 0.005921749 0.01130218 -0.014730661 -0.0087096
0.003958028 0.01177819 -0.0047029154 -0.004663084 -0.014289031 -0.0020181125 -0.01864199 -0.036452617
0.0109552285 0.029941736 0.004220184 0.020587761 -0.03144738 0.011103549 0.011676215 0.0025149176
0.014012069 0.013967195 0.007162822 0.0049896203 -0.008732004 0.02010507 0.008251556 0.013742398
-0.008079228 0.01684038 -0.031484205 -0.028505668 -0.012209929 0.024658352 0.014194217 0.02396999
0.005862622 -0.009670509 0.031615965 -0.01991539 0.014884431 0.011831117 0.006114338 -0.0007466688
-0.013618026 -0.004959464 -0.017158967 0.01866622 -0.006993471 0.0035121795 0.03192103 -0.0070033516
0.0068325065 -0.012079768 0.042369038 -0.027215136 -0.015450215 -0.003282023 -0.032993276 -0.026045045
0.007037822 0.009518854 0.029192481 -0.024328303 0.011634037 -0.02192995 0.0015247568 0.017506313
0.022720307 -0.020443223 -0.029963719 -0.014592305 0.011417117 0.017086715 0.021445513 0.010729615
0.002241051 0.001132912 -0.04045674 0.010292924 -0.003174698 -0.01674592 -0.016851371 -0.025318068
0.0005658441 -0.011400697 -0.03078044 0.007426722 0.009257541 0.024078464 -0.017864525 -0.036855888
0.013312947 -0.01947169 0.01974238 -0.0026589483 -0.030563671 -0.0025112368 -0.0027072951 0.009139437
-0.01986118 -0.011755444 0.01145168 0.013380088 -0.008193601 0.015205331 -0.031912543 0.012177253
00000000: 8a09 98bc 5ff7 0bbd 5c53 cbbc e7ff 21bd
00000010: 42a1 2c3c 73af cb3c 8bc7 f238 5581 bc3c
00000020: 71a8 973c 3a08 ab3c d479 95bc c915 ec3c
00000030: da09 f43a c941 5d3c a103 303c cfe8 99bc
00000040: a6dd fb3c 4705 813c 43db 243c 9c00 713b
00000050: 953b b8bb 24bb abbc c903 27bc 1c27 b73a
00000060: f86f 9c3c 2eae c8bb 7502 b8bc 4b2d 033d
00000070: 41fd deb9 2e1b 24bc 2194 e5bb 9598 cb3c
00000080: 2c57 283c b848 f93b 48cf 95bc 541f 893c
00000090: 8410 d33c dcf7 243c 026e be3c 728f 02bb
000000a0: b663 963c 7438 f7bc 006c 383c 3088 acbc
000000b0: 300d d63b a823 9cbc 9c8d 423c 1e99 913c
000000c0: 83d0 29bb 9b68 afbc b3c7 babc 2996 d139
000000d0: e209 99bc c66f 9bbc 2f80 933c f92e 02bc
000000e0: db2a bd3c e42f 35bc c066 b63b 673c e33b
000000f0: e073 32bc 4338 c23a 7a4b f53c 0f8f 053d
00000100: f229 3a3c efa9 153d f8bb d93c 6226 af3c
00000110: 91c7 1bbc a400 803c e083 e73b 27b9 093d
00000120: 36c6 063c e879 ef3c a5fd 523b 8aa2 243d
00000130: 132a 593d 5e96 773c 98f0 4f3c 2a4d 923c
00000140: a87f a73c fb9a 9d3c 8fa1 4fbc 9a0b 2a3d
00000150: eee6 733c e26c 393b 3034 913c df17 623c
00000160: deea f43c cb76 563c e8f4 1fbc 1c96 303c
00000170: 639c 383b d524 afbc 85f0 983c 26ae 123d
00000180: ce27 c03c 71d3 72bc 523d 8a3c 6360 933c
00000190: e769 af3c 1506 403c a84d 863c e23b 033d
000001a0: 972f 0fbc c4dd f93c 14a3 d73c 3ab8 f23b
000001b0: 096a ecbc 442d 333c edc2 de3c 801a dcbc
000001c0: 483c 0dbb 1f95 5fbc f3a6 8b3c 7855 c9bc
000001d0: 89e2 aabb 3276 473c c82d 933c 40b9 a2bc
000001e0: 6b7b c03c 3931 34bc fc75 ae3a 458a 5ebc
000001f0: 233d a03c 0966 c63c abab c33b 4d96 10ba
00000200: 1088 a23c 0d2a 093d f090 4e3c b4cd 103d
00000210: 096d 353b 78c3 0ebc 7bf0 ae3c ed5e bd3c
00000220: f043 da3c 62df 723c 683f 373c 0a59 f93b
00000230: 0cff 403d 412b e83c b294 2f3d a492 363d
00000240: adb0 0dbd bbc3 15bd e0ad 883b 2875 f0bc
00000250: 3b0b c23b c72c 393c df58 71bc b6b2 0ebc
00000260: 58b2 813b 4ff9 403c ea1a 9abb c9cc 98bb
00000270: 8a1c 6abc 4f42 04bb 16b7 98bc 574f 15bd
00000280: 8f7d 333c 5f48 f53c 7849 8a3b aaa7 a83c
00000290: f8ce 00bd a9eb 353c 984d 3f3c 51d1 243b
000002a0: e192 653c a9d6 643c 1bb6 ea3b f87f a33b
000002b0: ae10 0fbc 63b3 a43c 8931 073c cb27 613c
000002c0: bd5e 04bc d6f4 893c 95f5 00bd b884 e9bc
000002d0: 270c 48bc 5000 ca3c dc8e 683c b65c c43c
000002e0: 3d1b c03b 0e71 1ebc be7f 013d 9a25 a3bc
000002f0: d4dd 733c 4dd7 413c c95a c83b 18bc 43ba
00000300: 241e 5fbc 0083 a2bb f690 8cbc e7e9 983c
00000310: 7d29 e5bb 982c 663b a0bf 023d 5f7c e5bb
00000320: 38e3 df3b 38ea 45bc 288b 2d3d 47f2 debc
00000330: e622 7dbc 3517 57bb f523 07bd 6b5c d5bc
00000340: 889d e63b f8f4 1b3c 1225 ef3c 264c c7bc
00000350: b09c 3e3c 70a6 b3bc 59da c73a 6669 8f3c
00000360: f01f ba3c 8c78 a7bc 7976 f5bc 9014 6fbc
00000370: dc0e 3b3c 70f9 8b3c 80ae af3c 44cb 2f3c
00000380: 99de 123b 387e 943a f7b5 25bd a7a3 283c
00000390: 980e 50bb bd2e 89bc e30b 8abc d667 cfbc
000003a0: 2855 143a fdc9 3abc 4327 fcbc dc5b f33b
000003b0: f1ac 173c 3340 c53c a058 92bc 33f6 16bd
000003c0: 8c1e 5a3c 1883 9fbc c6ba a13c c041 2ebb
000003d0: aa60 fabc 9093 24bb e06c 31bb 94bd 153c
000003e0: eab3 a2bc e899 40bc d49f 3b3c 2838 5b3c
000003f0: 743e 06bc c81f 793c bab6 02bd 1a83 473c

fc1.bias f4 [100]
0.0036293888 0.00833643 -0.017224608 -0.0026056706 0.020080887 0.03207819 -0.023455618 -0.017860858
-0.0003550093 -0.005914552 0.021777885 0.013003555 0.008672519 0.006249746 -0.02132 0.03154607
-0.024383312 0.0045197806 -0.013928298 0.013941346 0.028837703 0.0037090618 0.034166522 -0.00020369375
0.022036219 0.02502721 -0.01468886 -0.023119869 0.01975132 -0.018002544 0.006361308 -0.011294007
0.026785828 -0.0013465991 -0.023852563 0.0015885625 -0.014207398 -0.019404441 0.0065712878 0.003861532
-0.031077787 0.021402221 -0.0040581315 -0.019261362 0.002467856 0.0039305626 0.01531241 -0.0022089786
-0.031029755 -0.008316528 -0.0066986145 0.0033842744 -0.016098304 -0.02009078 0.027848354 -0.020407801
-0.034450997 -0.0060720295 -0.011095353 -0.010224828 0.019708881 -0.0039614653 -0.01152393 0.0008224701
0.017120708 0.01967151 -0.008393806 0.022689957 -0.032454208 0.0165394 0.032574162 0.004911877
-0.018943416 -0.0065334537 0.01304151 0.0055931974 -0.016423592 -0.022757111 -0.00066632795 0.001871814
0.000824592 0.013083575 0.0046861637 -0.026532963 -0.007900569 -0.009922012 -0.022946287 0.038239896
0.034099825 0.023068657 -0.023246322 0.010083957 -0.0036257505 -0.003209335 -0.004595699 0.009325047
-0.020143636 -0.017213158 -0.0037542474 0.024495877
00000000: 0adb 6d3b 8695 083c 9f1a 8dbc e6c3 2abb
00000010: ac80 a43c 6c64 033d ff25 c0bc ef50 92bc
00000020: 8b20 bab9 dcce c1bb 8967 b23c dd0c 553c
00000030: 2e17 0e3c abca cc3b 48a7 aebc 7436 013d
00000040: 83bf c7bc ab1a 943b 8433 64bc 3e6a 643c
00000050: 0c3d ec3c bb13 733b 32f2 0b3d a096 55b9
00000060: 4d85 b43c dd05 cd3c 8ba9 70bc e165 bdbc
00000070: 85cd a13c 127a 93bc 8572 d03b 800a 39bc
00000080: f46d db3c 5e80 b0ba 7366 c3bc 5037 d03a
00000090: 25c6 68bc 10f6 9ebc f553 d73b c211 7d3b
000000a0: d896 febc b653 af3c 13fa 84bb 01ca 9dbc
000000b0: c1bb 213b f3cb 803b e7e0 7a3c 83c4 10bb
000000c0: 1d32 febc 0c42 08bc 0d80 dbbb b4ca 5d3b
000000d0: 97e0 83bc 6b95 a4bc 3b22 e43c 432e a7bc
000000e0: 7d1c 0dbd e0f7 c6bb 49c9 35bc 0986 27bc
000000f0: 8574 a13c 2ecf 81bb dece 3cbc 099b 573a
00000100: ba40 8c3c 2626 a13c 2d86 09bc 4ae0 b93c
00000110: b4ee 04bd a37d 873c 7c6c 053d d0f3 a03b
00000120: 392f 9bbc 9516 d6bb 0fac 553c 2447 b73b
00000130: c58a 86bc 1f6d babc 83ac 2eba a857 f53a
00000140: 6f29 583a 7e5c 563c 648e 993b a85b d9bc
00000150: 6371 01bc ef8f 22bc daf9 bbbc 70a1 1c3d
00000160: 42ac 0b3d 7bfa bc3c 126f bebc 2e37 253c
00000170: 009e 6dbb b553 52bb 8497 96bb 15c8 183c
00000180: 4404 a5bc 9c02 8dbc d209 76bb 94ab c83c

fc2.weight f4 [12, 100]
-0.008955255 -0.10114093 0.036839917 -0.041440774 0.032088723 0.037901882 0.09188416 -0.013627286
0.09126593 0.09711281 -0.020533687 0.05956735 0.02654254 -0.085270844 0.09574225 0.02003559
-0.051204138 -0.01990979 -0.069838785 0.009112556 0.059512116 0.034214396 -0.0018364522 0.08780241
0.0640556 0.09341244 -0.047653932 0.017988041 -0.09701046 -0.07857533 -0.08703249 0.032199062
-0.08424469 -0.086135395 -0.09237576 -0.08296034 -0.03960278 0.020267071 0.0920635 0.02043614
-0.094757795 -0.08086923 -0.069883466 0.05590617 -0.012900054 -0.06602087 -0.032159336 0.070561066
-0.08994094 0.037139386 -0.088100895 -0.03223958 -0.0043615648 0.04971955 -0.09183368 -0.022608215
0.08186723 0.07919371 -0.06513443 -0.008794489 -0.037804514 0.07589334 0.013557332 0.02205733
0.05603353 0.010224482 0.061939776 -0.066531606 -0.08788648 -0.014135534 0.08065116 0.0049798405
-0.06695822 0.086489804 -0.022988623 -0.087946914 -0.10004115 0.033533633 -0.036721878 0.036917698
-0.059944622 0.099932596 0.041141093 0.008025827 -0.058693927 -0.057244066 0.028053295 -0.0499142
0.07941882 -0.08403687 0.03605164 0.029619964 0.002350269 0.012987761 0.07734591 0.02195871
-0.0221035 0.023719693 0.018492993 0.09055291 0.077799655 -0.008559888 0.07173312 -0.03767621
-0.027488053 0.04505635 0.013969129 -0.08787865 -0.06116 0.0085883625 0.08619607 0.027876439
-0.05191896 -0.016171776 0.054351475 -0.041761782 -0.03231508 -0.011082388 0.021849548 0.03826575
-0.04823141 -0.09737028 0.07526609 -0.07024475 -0.0024116996 0.09008382 0.0017077532 0.092070326
-0.05208681 0.0076140855 0.025077716 -0.090992704 -0.064456105 0.003858143 0.07358159 -0.06938391
-0.03091917 -0.013638922 -0.061075963 -0.08711709 0.004905993 0.051558435 0.09216449 0.075329505
-0.05549014 -0.0017650587 0.00050767703 0.037410036 -0.0084251445 -0.021976182 0.047808688 0.084108315
0.0143599 0.033589236 0.022480477 -0.06378825 -0.03441638 -0.10189805 -0.041945513 0.04800335
-0.041492555 0.004450096 0.083077 0.033250816 0.049789686 -0.026486907 0.019463645 -0.09367522
-0.01986626 0.093428984 -0.08280006 -0.057242773 -0.07922339 -0.045218036 0.03577771 -0.054330308
-0.08340338 0.018777478 0.010744956 0.02427285 -0.048333254 0.049669243 -0.073296554 -0.014769785
-0.005702156 0.06822582 0.015672812 0.085723706 -0.035514195 0.064762495 -0.029265363 0.06508835
-0.029063227 0.078077815 -0.06619487 -0.084991634 -0.06521098 -0.019887447 -0.069162115 0.023479167
0.03135213 -0.04617356 -0.007958373 0.082040295 0.10793976 -0.07735282 0.00036404748 -0.014161128
-0.062782735 -0.10318412 -0.021323808 -0.00027574034 0.10516426 -0.11834297 0.014550084 0.016352808
0.01537628 0.0689172 0.08086994 0.06431336 -0.017744103 0.09471765 -0.09788904 -0.03713834
-0.052325644 0.012149988 0.07260938 0.04898107 -0.093502104 -0.060404573 0.053432852 -0.08461139
0.030586522 0.047937352 -0.054273345 0.047465548 -0.0020182482 0.015873225 0.080622956 0.052018084
-0.029802322 0.013064012 -0.092950426 -0.06327956 -0.12429621 0.05459881 -0.00051205396 -0.09039764
0.06654774 0.06915226 -0.097698644 0.015389934 0.03771182 0.09975433 -0.06225726 0.01850553
00000000: 10b9 12bc fa22 cfbd 74e5 163d cdbd 29bd
00000010: 776f 033d 013f 1b3d c32d bc3d fb44 5fbc
00000020: a2e9 ba3d 15e3 c63d 4336 a8bc e5fc 733d
00000030: be6f d93c 7ba2 aebd 8314 c43d ad21 a43c
00000040: 6ebb 51bd db19 a3bc a307 8fbd d54c 153c
00000050: fac2 733d 6524 0c3d 1cb5 f0ba c0d1 b33d
00000060: 952f 833d 054f bf3d c530 43bd a85b 933c
00000070: 6cad c6bd 1aec a0bd 173e b2bd 2ae3 033d
00000080: 7b88 acbd c167 b0bd 812f bdbd 1ce7 a9bd
00000090: 8636 22bd 2107 a63c ca8b bc3d b169 a73c
000000a0: 6010 c2bd c49e a5bd 101f 8fbd defd 643d
000000b0: c05a 53bc f335 87bd 82b9 03bd 5282 903d
000000c0: f532 b8bd 781f 183d 3e6e b4bd a60d 04bd
000000d0: 75eb 8ebb baa6 4b3d 4c13 bcbd dd34 b9bc
000000e0: 02aa a73d 5030 a23d 3365 85bd c316 10bc
000000f0: e8d8 1abd f86d 9b3d 921f 5e3c 93b1 b43c
00000100: 6a83 653d 9684 273c 90b4 7d3d b941 88bd
00000110: d4fd b3bd ba98 67bc 6f2c a53d ee2d a33b
00000120: 6421 89bd 9121 b13d a352 bcbc 831d b4bd
00000130: 60e2 ccbd 905a 093d ae69 16bd 0337 173d
00000140: 7e88 75bd 76a9 cc3d 9083 283d c27e 033c
00000150: 0b69 70bd c178 6abd 06d0 e53c d572 4cbd
00000160: 56a6 a23d 861b acbd e2aa 133d 91a5 f23c
00000170: f806 1a3b 9eca 543c 8867 9e3d c1e2 b33c
00000180: 6612 b5bc cd4f c23c 9e7e 973c ce73 b93d
00000190: 6d55 9f3d c63e 0cbc d0e8 923d 5f52 1abd
000001a0: a02e e1bc 028d 383d c6de 643c b9f9 b3bd
000001b0: e882 7abd 34b6 0c3c 9187 b03d 215d e43c
000001c0: faa8 54bd ac7a 84bc a79f 5e3d 670e 2bbd
000001d0: d15c 04bd e892 35bc d3fd b23c 8cbc 1c3d
000001e0: 4d8e 45bd 126a c7bd 1c25 9a3d 7bdc 8fbd
000001f0: 9b0d 1ebb de7d b83d b0d6 df3a 5e8f bc3d
00000200: fb58 55bd 947f f93b c86f cd3c 625a babd
00000210: 9001 84bd e6d8 7c3b f2b1 963d 2719 8ebd
00000220: 334a fdbc c975 5fbc ca2a 7abd 726a b2bd
00000230: 74c2 a03b f02e 533d bcc0 bc3d 5b46 9a3d
00000240: a149 63bd 8b59 e7ba a115 053a 443b 193d
00000250: 9e09 0abc 6507 b4bc 0bd3 433d fb40 ac3d
00000260: c945 6b3c de94 093d fa28 b83c 6aa3 82bd
00000270: 31f8 0cbd edaf d0bd 0fcf 2bbd 299f 443d
00000280: 19f4 29bd 1cd2 913b 4624 aa3d 0232 083d
00000290: 45f0 4b3d 12fb d8bc 3972 9f3c cbd8 bfbd
000002a0: 91be a2bc b257 bf3d 1493 a9bd 6677 6abd
000002b0: df3f a2bd 8c36 39bd a68b 123d 7589 5ebd
000002c0: 64cf aabd 3ad3 993c 9d0b 303c dbd7 c63c
000002d0: 17f9 45bd fa71 4b3d 811c 96bd f8fc 71bc
000002e0: 27d9 babb fbb9 8b3d 4564 803c e98f af3d
000002f0: 5577 11bd 33a2 843d eabd efbc 0a4d 853d
00000300: 0116 eebc 43e7 9f3d 2d91 87bd 1810 aebd
00000310: 568d 85bd 00eb a2bc dea4 8dbd 6257 c03c
00000320: 176b 003d 7d20 3dbd d663 02bc be04 a83d
00000330: 850f dd3d 286b 9ebd a0dd be39 1304 68bc
00000340: 3c94 80bd 3252 d3bd 44af aebc 3e91 90b9
00000350: 5c60 d73d cd5d f2bd 7a63 6e3c 53f6 853c
00000360: cbec 7b3c 7624 8d3d 249f a53d b9b6 833d
00000370: 155c 91bc 54fb c13d 0d7a c8bd 5f1e 18bd
00000380: 6a53 56bd be10 473c 3ab4 943d 60a0 483d
00000390: 087e bfbd c96a 77bd 68dc 5a3d bd48 adbd
000003a0: 9690 fa3c f559 443d ba4d 5ebd 3c6b 423d
000003b0: 9644 04bb 9108 823c a61d a53d ea10 553d
000003c0: 0024 f4bc 700a 563c cb5c bebd b798 81bd
000003d0: 038f febd 00a3 5f3d 5c3b 06ba 6622 b9bd
000003e0: 2e4a 883d b39f 8d3d 3a16 c8bd 1026 7c3c
000003f0: b677 1a3d 004c cc3d 7801 7fbd e998 973c

fc2.bias f4 [12]
0.03729361 -0.052690253 0.05799749 0.0033181466 0.037645828 -0.03035806 0.07635539 -0.008387793
-0.07456143 -0.0549357 -0.032784235 0.044833325
00000000: 2fc1 183d bcd1 57bd c78e 6d3d 4375 593b
00000010: 8332 1a3d 77b1 f8bc 3760 9c3d f46c 09bc
00000020: aab3 98bd 4204 61bd c348 06bd 26a3 373d
