test_models/10epoch_5fold_model06.pt (torch, 414151 bytes, 6 tensors)

conv1.weight f4 [8, 3, 3, 3]
-0.110903926 -0.19012462 0.05979057 -0.13062307 -0.026937399 0.13313755 -0.19020952 0.10000896
-0.19061604 0.046019074 0.17399825 0.11520364 -0.1520002 -0.17279771 0.043317046 0.016769322
-0.07995305 0.20019014 -0.010473757 0.030012546 0.09728771 0.20599477 0.17485224 -0.117465705
-0.15297513 -0.1550625 0.116713986 -0.19844879 -0.051559094 -0.1141902 0.049073163 0.13672753
-0.15828376 -0.104124896 -0.09090278 -0.09735603 -0.13656932 -0.071186066 0.016844718 -0.100546554
-0.069556944 0.103871614 0.010985104 0.13869007 0.09615547 0.012473577 0.11817002 -0.16268161
0.13935144 -0.09820295 -0.12432973 0.00051795185 0.15692097 -0.11570051 -0.14680034 0.11642984
-0.052207075 -0.08905015 0.016013168 0.17298312 0.14438564 0.016168596 -0.16711913 0.1311429
-0.037646532 -0.14411883 0.15564926 0.15122654 -0.09001329 -0.087105304 -0.123573504 0.054105822
0.051803328 -0.03588698 -0.06461232 0.09373588 -0.0019160999 -0.050959583 0.05686903 -0.09865794
-0.011862385 0.039173573 -0.2085777 -0.13567872 -0.03848242 0.19735898 0.2250405 -0.09877187
-0.045935545 0.05227872 -0.07006985 -0.22741649 -0.0899188 0.09657886 0.14242162 0.20471157
-0.0693829 0.14009051 0.1709016 0.09650322 -0.19100876 0.07783502 -0.02623779 0.14351743
-0.15693529 -0.18307446 -0.076751485 -0.08670052 0.1417949 -0.12622479 -0.05051631 0.07953378
0.097400635 0.022849228 0.077476725 0.12337817 0.20164318 0.052124295 -0.1636152 0.064199895
0.1427632 0.20672181 -0.14493565 -0.114816494 0.16018082 0.14179036 -0.10733077 0.19947338
0.0175926 0.13343905 0.14994866 0.053832524 -0.12488012 -0.15129478 0.05884225 0.040115036
-0.18573725 -0.035017956 0.014656876 0.03538518 0.023644146 0.029857563 0.18484077 0.105543345
-0.1401668 0.06834417 -0.09007975 0.0049639386 0.09114774 -0.07068017 0.011585022 -0.0054301093
0.20061083 -0.031131702 0.10578013 0.17002618 -0.15943284 -0.119811445 -0.04494074 -0.072698414
-0.18848714 0.03503998 -0.09566233 0.16197875 0.08971165 0.05715795 -0.2068086 -0.08265343
0.17406464 0.020601947 -0.01812829 -0.1344722 -0.081193544 0.17953214 -0.016654324 -0.0071089985
-0.08660136 0.17377041 -0.0070444704 -0.0376872 -0.08332918 0.014998197 0.13195308 0.04355818
-0.15255055 0.16814771 0.13297422 0.0043890756 -0.1656562 -0.033265475 0.040711757 -0.070127495
0.07391673 0.052643154 -0.16956188 -0.04557519 -0.14867285 0.114611596 -0.11774241 0.13849624
0.077417225 0.1008941 -0.02082859 0.15417378 0.07369503 0.051151168 0.007484798 -0.1230902
-0.093524344 -0.14785345 -0.09518685 -0.048770223 -0.13494109 -0.053146176 0.04659578 -0.092014164
00000000: 9921 e3bd 07b0 42be f5e6 743d 0ec2 05be
00000010: d2ab dcbc 3655 083e 49c6 42be 7fd1 cc3d
00000020: da30 43be 7f7e 3c3d 992c 323e e3ef eb3d
00000030: f1a5 1bbe e2f1 30be 376d 313d d15f 893c
00000040: 6dbe a3bd a5fe 4c3e 1f9a 2bbc dfdc f53c
00000050: c73e c73d 4bf0 523e 770c 333e dc91 f0bd
00000060: 83a5 1cbe b4c8 1ebe be07 ef3d 2936 4bbe
00000070: a12f 53bd 8ddc e9bd f100 493d 4d02 0c3e
00000080: 2315 22be 6f3f d5bd 3d2b babd 9962 c7bd
00000090: d4d8 0bbe 00ca 91bd effd 893c 5aeb cdbd
000000a0: df73 8ebd a4ba d43d defa 333c c504 0e3e
000000b0: 29ed c43d f95d 4c3c 2003 f23d 0296 26be
000000c0: 25b2 0e3e a11e c9bd 96a0 febd 29c7 073a
000000d0: e4af 203e 64f4 ecbd d452 16be c572 ee3d
000000e0: 16d7 55bd ed5f b6bd 0c2e 833c 7d22 313e
000000f0: d4d9 133e 0174 843c 4721 2bbe 534a 063e
00000100: 4033 1abd e393 13be 8562 1f3e 21db 1a3e
00000110: e358 b8bd 4464 b2bd 1b14 fdbd 119e 5d3d
00000120: ba2f 543d 3afe 12bd 7753 84bd 99f8 bf3d
00000130: a525 fbba ffba 50bd 80ef 683d 2d0d cabd
00000140: 735a 42bc 7874 203d 6595 55be 5def 0abe
00000150: be9f 1dbd 7918 4a3e 0471 663e e848 cabd
00000160: e926 3cbd 3622 563d c880 8fbd dedf 68be
00000170: 5927 b8bd 23cb c53d f9d6 113e e99f 513e
00000180: 9f18 8ebd e373 0f3e d400 2f3e 7ba3 c53d
00000190: cd97 43be f867 9f3d a2f0 d6bc 3cf6 123e
000001a0: a5b3 20be df77 3bbe e22f 9dbd 0b90 b1bd
000001b0: af32 113e 1241 01be 31ea 4ebd 9be2 a23d
000001c0: fc79 c73d 4e2e bb3c 1eac 9e3d b2ad fc3d
000001d0: 8d7b 4e3e 4980 553d be8a 27be 3c7b 833d
000001e0: 8430 123e e2ae 533e 036a 14be e924 ebbd
000001f0: 7106 243e 7e31 113e 3cd0 dbbd c042 4c3e
00000200: 5b1e 903c 3fa4 083e 248c 193e 7e7f 5c3d
00000210: 26c1 ffbd 05ed 1abe 9204 713d aa4f 243d
00000220: e831 3ebe fd6e 0fbd 6523 703c 0df0 103d
00000230: 5eb1 c13c d997 f43c e646 3d3e 1c27 d83d
00000240: e387 0fbe 07f8 8b3d bb7b b8bd 89a8 a23b
00000250: abab ba3d c4c0 90bd 1bcf 3d3c 0fef b1bb
00000260: ed6c 4d3e e907 ffbc 41a3 d83d 581b 2e3e
00000270: 5d42 23be b45f f5bd c813 38bd e8e2 94bd
00000280: c602 41be 1586 0f3d 9dea c3bd c2dd 253e
00000290: beba b73d 741e 6a3d a2c5 53be 3446 a9bd
000002a0: 003e 323e 6ac5 a83c c881 94bc 15b3 09be
000002b0: cd48 a6bd 46d7 373e a66e 88bc 9af2 e8bb
000002c0: 0e5c b1bd dff0 313e 4dd5 e6bb e55d 1abd
000002d0: 7da8 aabd ffba 753c b51e 073e 106a 323d
000002e0: 3636 1cbe ea2e 2c3e 652a 083e 3cd2 8f3b
000002f0: c7a1 29be 6141 08bd 5fc1 263d 019f 8fbd
00000300: a861 973d 59a0 573d a1a1 2dbe 0dad 3abd
00000310: b23d 18be 7cb9 ea3d ef22 f1bd f5d1 0d3e
00000320: ec8c 9e3d 91a1 ce3d b8a0 aabc bbdf 1d3e
00000330: 6bed 963d e383 513d 0943 f53b b716 fcbd
00000340: b189 bfbd e566 17be 53f1 c2bd 49c3 47bd
00000350: ff2d 0abe ceaf 59bd 37db 3e3d ec71 bcbd

conv1.bias f4 [8]
0.019484716 -0.034420907 -0.05562496 -0.06500408 -0.12754014 0.080345936 -0.14609286 -0.044715617
00000000: 699e 9f3c f0fc 0cbd 00d7 63bd dc20 85bd
00000010: e299 02be 698c a43d 5e99 15be b927 37bd

conv2.weight f4 [16, 8, 3, 3]
0.04350101 -0.121510014 -0.030533811 -0.0457572 0.09173406 0.007433399 -0.039277434 -0.044882674
-0.039661963 -0.11288937 0.012170065 0.06697156 -0.066631325 0.013701559 0.054048046 -0.13597718
0.026289592 0.02020839 0.006421038 -0.06569666 0.003630939 -0.11517499 -0.10638086 0.06545509
0.030704541 0.068472706 -0.11115759 0.108019374 0.11221562 -0.06368389 0.023936654 -0.051330317
-0.037205674 0.08036957 0.013896979 -0.08546128 0.084813364 -0.026283521 0.05525214 0.092694916
-0.029274637 -0.07174086 0.01871626 -0.12973867 -0.16410281 -0.020810684 0.051568326 0.04117368
-0.0271969 -0.003889295 0.07338715 0.0074183005 0.08484445 -0.091703646 0.078392416 -0.11752177
0.051510252 0.04669229 0.09677587 -0.020426583 0.05613199 0.03667132 0.054103788 -0.04372017
0.030426523 0.019958716 -0.048771676 0.028076163 -0.03011465 -0.07856907 0.00014128012 -0.091936186
0.035766963 -0.022655899 -0.119327545 -0.04327102 0.018124681 0.0359186 -0.08743959 -0.03854864
-0.077445306 -0.10950166 0.046391822 -0.082361706 -0.054018833 0.069648884 -0.115457304 0.034985356
0.079099804 -0.12240873 -0.13292456 -0.09932822 -0.041764975 -0.061355118 -0.099309996 -0.034593858
0.022751182 -0.12657055 0.06774583 -0.13479267 0.07387469 -0.061296683 -0.020186756 -0.042271283
-0.10789843 0.041713186 -0.08171159 0.050349414 0.0048733926 0.00045543778 -0.10384248 0.008112694
-0.13314083 -0.09205979 -0.09278834 -0.12638557 0.055404738 0.029145142 -0.025449844 -0.03173652
0.057829387 0.012584355 -0.020051615 -0.10319631 -0.043239597 -0.0481428 0.023871128 -0.0020601097
0.04257205 0.08395924 -0.09678993 -0.14790466 -0.0014428367 -0.13126697 0.053151976 0.009997325
0.04739995 0.075761795 -0.05623684 -0.10199042 -0.058385365 0.073240824 0.08379099 0.07812706
-0.05275312 -0.099926196 0.019532988 -0.118235976 -0.0054057394 0.022161314 -0.06937435 -0.0049935086
-0.12282323 0.041588716 -0.108987585 0.02068141 0.028224021 -0.099881224 -0.14391401 -0.13534763
-0.09017604 -0.20915443 -0.043656293 -0.033553112 -0.049142353 0.032701954 -0.1260798 -0.015710346
-0.08795044 -0.14513958 -0.0443337 -0.15964122 -0.16879515 -0.22808477 -0.30666992 -0.06531519
-0.27574834 -0.05613428 -0.18358837 -0.09022447 0.01724255 0.082882464 0.09132921 0.056312535
-0.13273242 0.03326165 0.03333979 -0.0031674046 0.044387743 0.0906366 -0.08157124 0.0831478
0.04417282 0.012931724 -0.07086816 -0.053802047 -0.02303969 -0.02060926 -0.16686544 -0.006587142
0.013192347 -0.089493915 0.011541776 -0.116682835 -0.070282504 0.008277769 -0.11619378 0.016264189
-0.048841543 -0.014931101 0.031870726 0.0576998 -0.13212469 -0.033813607 -0.10698597 -0.049788304
0.016455011 -0.10675563 0.024101298 -0.035463415 0.021691525 0.004921064 0.011568078 -0.094098456
0.021997726 -0.0112782465 -0.05662301 -0.060890965 0.0039129355 -0.09196375 -0.11502972 -0.046912108
-0.095932186 -0.009837785 -0.110992976 -0.0060561285 -0.00063129445 -0.12454041 0.0016999919 0.0034476318
0.05269381 -0.12418651 -0.008729982 0.0031170393 0.064853355 -0.015432113 -0.13576734 -0.05777163
-0.071663454 -0.10367173 0.08019893 0.10375902 0.04974998 0.036350522 -0.09755876 -0.0828673
00000000: 1d2e 323d 3eda f8bd 0b22 fabc e76b 3bbd
00000010: 11df bb3d df93 f33b 60e1 20bd e5d6 37bd
00000020: 9574 22bd 8b32 e7bd f464 473c 6328 893d
00000030: 0176 88bd 817c 603c 7c61 5d3d 9a3d 0bbe
00000040: 455d d73c 118c a53c 9267 d23b f88b 86bd
00000050: 0cf5 6d3b dde0 ebbd 35de d9bd 510d 863d
00000060: 1788 fb3c 6b3b 8c3d 97a6 e3bd 4339 dd3d
00000070: 4ed1 e53d b36c 82bd cd16 c43c bd3f 52bd
00000080: fa64 18bd cd98 a43d 28b0 633c 5306 afbd
00000090: a1b2 ad3d 8a50 d7bc 1150 623d d5d6 bd3d
000000a0: 5dd1 efbc dfec 92bd d852 993c 37da 04be
000000b0: 910a 28be 2b7b aabc 4f39 533d bca5 283d
000000c0: 09cc debc 8be3 7ebb 014c 963d 3715 f33b
000000d0: edc2 ad3d 1fcf bbbd 348c a03d 41af f0bd
000000e0: 6afc 523d 6a40 3f3d 6d32 c63d a655 a7bc
000000f0: a8ea 653d ab34 163d ef9b 5d3d ec13 33bd
00000100: 0b41 f93c 7680 a33c cfc4 47bd fbff e53c
00000110: 00b3 f6bc d2e8 a0bd 9824 1439 0a49 bcbd
00000120: 6180 123d dd98 b9bc 0062 f4bd f43c 31bd
00000130: 367a 943c 621f 133d 8713 b3bd 2ee5 1dbd
00000140: a59b 9ebd 6842 e0bd 5a05 3e3d 41ad a8bd
00000150: da42 5dbd 13a4 8e3d e174 ecbd ce4c 0f3d
00000160: 14ff a13d 6eb1 fabd 601d 08be 986c cbbd
00000170: c011 2bbd 814f 7bbd 0a63 cbbd 4ab2 0dbd
00000180: b060 ba3c b69b 01be 53be 8a3d 1707 0abe
00000190: 9d4b 973d 3b12 7bbd b25e a5bc a724 2dbd
000001a0: daf9 dcbd 72db 2a3d 6858 a7bd 303b 4e3d
000001b0: fbb0 9f3b d3c7 ee39 5eab d4bd 1beb 043c
000001c0: 1256 08be d889 bcbd d007 bebd 386b 01be
000001d0: 14f0 623d cbc1 ee3c 317c d0bc 27fe 01bd
000001e0: 82de 6c3d 9c2e 4e3c 4943 a4bc 9658 d3bd
000001f0: 011c 31bd 6231 45bd 628d c33c e802 07bb
00000200: 0860 2e3d d2f2 ab3d cc39 c6bd 5274 17be
00000210: 911d bdba d96a 06be e3b5 593d d2cb 233c
00000220: 7326 423d 0029 9b3d 9a58 66bd 5ae0 d0bd
00000230: 7e25 6fbd 49ff 953d 9c9a ab3d 1401 a03d
00000240: a813 58bd 1ba6 ccbd a503 a03c b425 f2bd
00000250: a122 b1bb a58b b53c 2414 8ebd 96a0 a3bb
00000260: bf8a fbbd ee58 2a3d e234 dfbd 0f6c a93c
00000270: 1036 e73c 878e ccbd 325e 13be 9298 0abe
00000280: 37ae b8bd 942c 56be f1d0 32bd fd6e 09bd
00000290: 7e49 49bd 7cf2 053d 101b 01be fcb2 80bc
000002a0: 5c1f b4bd 789f 14be 4197 35bd fd78 23be
000002b0: a3d8 2cbe 0e8f 69be d703 9dbe f8c3 85bd
000002c0: e32e 8dbe 0fed 65bd 97fe 3bbe 9bc7 b8bd
000002d0: 4040 8d3c 48be a93d cf0a bb3d f9a7 663d
000002e0: 02eb 07be 5e3d 083d 4e8f 083d 3b94 4fbb
000002f0: eccf 353d af9f b93d d30e a7bd 6549 aa3d
00000300: 8fee 343d 95df 533c 5323 91bd 895f 5cbd
00000310: bbbd bcbc c0d4 a8bc c6de 2abe f4d8 d7bb
00000320: b724 583c 9648 b7bd b819 3d3c 69f7 eebd
00000330: 46f0 8fbd 7b9f 073c 01f7 edbd 7a3c 853c
00000340: 120e 48bd 94a1 74bc e18a 023d a056 6c3d
00000350: b24b 07be 2380 0abd 761b dbbd d2ee 4bbd
00000360: a9cc 863c b2a2 dabd 1670 c53c 1642 11bd
00000370: 6db2 b13c e040 a13b 0988 3d3c b1b6 c0bd
00000380: 9334 b43c 65c8 38bc 88ed 67bd ce68 79bd
00000390: 1538 803b 7e57 bcbd b494 ebbd e926 40bd
000003a0: 1878 c4bd a92e 21bc 4950 e3bd 7d72 c6bb
000003b0: 747d 25ba 0b0f ffbd 43d2 de3a aaf1 613b
000003c0: 77d5 573d 7f55 febd 3308 0fbc 3e47 4c3b
000003d0: d6d1 843d f9d6 7cbc 9806 0bbe f2a1 6cbd
000003e0: 4ac4 92bd d851 d4bd 563f a43d 9c7f d43d
000003f0: a3c6 4b3d 49e4 143d e3cc c7bd 55b6 a9bd

conv2.bias f4 [16]
-0.037155382 -0.055012785 -0.030143768 -0.120952785 0.13280214 0.1866545 -0.07317418 -0.064115375
-0.11812997 -0.07373036 -0.061113894 -0.1300174 0.18366331 0.046544023 0.11126792 0.03960576
00000000: 3e30 18bd 1655 61bd 10f0 f6bc 18b6 f7bd
00000010: 49fd 073e 5b22 3f3e 58dc 95bd ec4e 83bd
00000020: 20ee f1bd f1ff 96bd 9052 7abd 4823 05be
00000030: 3c12 3c3e f2a4 3e3d 6fe0 e33d a639 223d

fc2.weight f4 [12, 8464]
-0.023929227 -0.021876102 -0.011933219 -0.014685201 -0.007125082 0.0129894465 -0.011992728 0.0032328335
0.026197206 -0.022585552 -0.01354566 -0.02245368 0.019324876 0.002206367 -0.0016100211 -0.026680145
0.006647022 -0.014007151 -0.010861704 -0.0073130243 -0.026436923 -0.004950488 0.01061234 0.0037224703
-0.009510954 -0.010090142 -0.023410274 0.0037656059 0.006469899 -0.0031044877 0.0037002477 0.0092530735
-0.00032134223 -0.010634015 -0.009335586 0.0087198485 -0.0003649356 -0.01997403 -0.027185244 -0.007068617
0.010597742 0.0028369743 -0.010726215 -0.016746763 0.010910647 -0.041418508 -0.006571697 -0.023355719
0.002398218 0.027404098 -0.003981927 -0.0041721244 0.007866967 0.0014196774 -0.0038963011 0.0017684773
0.006285159 0.021204134 -0.008817947 0.0031095757 0.0076354076 -0.004153176 -0.025756264 0.011303493
-0.020569082 -0.00669291 0.00034498103 -0.0023230196 0.0061414693 0.011695775 0.0033267827 0.021319477
0.021991158 -0.029500421 -0.011351815 0.018185005 0.0084542995 0.009140984 -0.004953347 0.011515111
0.016850779 0.009747943 0.012123487 0.04330536 -0.011961136 -0.03237454 -0.01194241 -0.04060778
0.01956416 0.024424301 -0.00620215 0.020867169 -0.006481782 -0.0038515483 0.009088958 0.0112084905
0.0024093785 -0.0069525493 0.009512801 0.0021257577 0.019651188 0.008534379 0.042442653 0.012378146
0.021586377 0.0039057364 0.02853674 -0.002051107 0.0069400547 0.0021781037 -0.030678887 -0.017152268
-0.010292184 -0.006526534 -0.014935697 -0.007923064 -0.004984485 0.005417037 -0.013080777 -0.027094431
-0.013013488 -0.021375416 0.02276483 -0.007380729 0.008971306 -0.011186369 -0.00035279713 -0.005253207
0.0053490372 0.014420447 0.011089127 0.0038373396 0.033643026 0.0086876005 0.014076263 0.025475785
0.0041911663 0.020870166 -0.0057697874 -0.00822976 -0.017949447 0.010136624 0.010994391 -0.01172898
0.0048537673 -0.024946375 -0.013059077 0.0015384804 0.010771227 0.009019082 -0.011733993 -0.020818932
0.016992593 0.015508571 -0.005883857 -0.0010433472 0.010257143 0.013718522 0.015717918 0.001681329
0.032042902 -0.02326256 0.02289465 0.004613093 -0.017279156 -7.823714e-05 0.007853328 0.013483762
0.001552671 -0.013801595 0.0014874266 -0.05365532 -0.019738222 -0.04130864 -0.01693913 0.039384075
0.07217762 0.06021501 -0.0018485299 0.031352457 -0.0041415836 0.026531639 -0.0043732175 -0.025042642
-0.030179959 0.013053247 -0.0015747575 0.0076063215 0.01848082 0.0065621734 0.0020606464 -0.029106827
-0.021240955 0.042670917 0.069763035 0.04675922 0.044674758 0.057642184 0.02540769 0.023579359
-0.015489103 -0.031663273 -0.003986712 -0.016184065 -0.017622566 0.010948047 -0.015001549 -0.0046155127
0.003897043 -0.035072446 0.0001639017 0.025419775 -0.017607657 0.009523804 -0.0050378107 0.038920682
0.06993605 0.008327183 -0.008029294 0.0074099144 0.039440446 0.008932099 0.04516929 0.0532877
0.010307626 -0.008184878 -0.017411886 -0.021855317 0.032633517 0.022222273 0.0034263441 0.015403084
0.012493031 -0.02058167 -0.0015401507 0.006130036 0.00962219 -0.017739188 0.02841925 0.016848782
-0.022553762 -0.010797403 0.0015008682 -0.02351808 0.009504631 -0.002952246 0.0536299 0.003160952
0.002386076 0.020452548 0.018668696 0.03572825 0.01878516 0.021326486 0.027155163 0.016724957
00000000: 3a07 c4bc 8335 b3bc 8c83 43bc 339a 70bc
00000010: 8579 e9bb b0d1 543c 267d 44bc f2dd 533b
00000020: 869b d63c 5605 b9bc 9eee 5dbc c8f0 b7bc
00000030: 344f 9e3c b298 103b 5807 d3ba 5290 dabc
00000040: 43cf d93b 407e 65bc 4af5 31bc 18a2 efbb
00000050: 3f92 d8bc b437 a2bb 61df 2d3c b0f4 733b
00000060: d5d3 1bbc 1f51 25bc e7c6 bfbc 62c8 763b
00000070: 7201 d43b a974 4bbb db7f 723b 349a 173c
00000080: d379 a8b9 4b3a 2ebc 49f4 18bc b2dd 0e3c
00000090: d454 bfb9 94a0 a3bc 97b3 debc db9f e7bb
000000a0: 27a2 2d3c 88ec 393b 02bd 2fbc 8230 89bc
000000b0: 92c2 323c 74a6 29bd 6457 d7bb 7e54 bfbc
000000c0: 6c2b 1d3b 8f7e e03c d37a 82bb 51b6 88bb
000000d0: 73e4 003c 7814 ba3a 1659 7fbb 40cc e73a
000000e0: bcf3 cd3b 4bb4 ad3c 2679 10bc 06ca 4b3b
000000f0: 7132 fa3b 5e17 88bb cdfe d2bc 4932 393c
00000100: 7e80 a8bc 3350 dbbb 92de b439 cd3d 18bb
00000110: 613e c93b a39f 3f3c 2706 5a3b 2fa6 ae3c
00000120: cd26 b43c deaa f1bc f7fc 39bc b8f8 943c
00000130: e783 0a3c 11c4 153c b04f a2bb e0a9 3c3c
00000140: a50a 8a3c d6b5 1f3c 97a1 463c f660 313d
00000150: a4f8 43bc 2a9b 04bd 19aa 43bc 5854 26bd
00000160: 0445 a03c 7915 c83c 683b cbbb a0f1 aa3c
00000170: 2165 d4bb 426a 7cbb dae9 143c d1a3 373c
00000180: aae6 1d3b 36d2 e3bb 94db 1b3c 4c50 0b3b
00000190: 87fb a03c c8d3 0b3c 59d8 2d3d b5cd 4a3c
000001a0: ead5 b03c 62f7 7f3b e2c5 e93c dd6b 06bb
000001b0: 6669 e33b 84be 0e3b 4a52 fbbc ea82 8cbc
000001c0: 8ca0 28bc 89dc d5bb dbb4 74bc bdcf 01bc
000001d0: e454 a3bb 6681 b13b c150 56bc 24f5 ddbc
000001e0: 8636 55bc 7f1b afbc 4f7d ba3c 0bda f1bb
000001f0: 62fc 123c 0847 37bc a1f7 b8b9 1823 acbb
00000200: fa46 af3b bd43 6c3c 2baf 353c e07b 7b3b
00000210: 45cd 093d 7056 0e3c 20a0 663c 98b2 d03c
00000220: 0d56 893b e9f7 aa3c 7c10 bdbb 1ed6 06bc
00000230: b80a 93bc 1514 263c d121 343c e82a 40bc
00000240: 5a0c 9f3b 575c ccbc bdf5 55bc d6a6 c93a
00000250: cd79 303c c6c4 133c ef3f 40bc 778c aabc
00000260: 0d34 8b3c a917 7e3c 5fcd c0bb ecc0 88ba
00000270: 930d 283c a7c3 603c ddc2 803c 0a60 dc3a
00000280: 6b3f 033d 2091 bebc 908d bb3c 6e29 973b
00000290: 048d 8dbc 3f13 a4b8 3fab 003c ffea 5c3c
000002a0: fe82 cb3a 1620 62bc c1f5 c23a aec5 5bbd
000002b0: 0db2 a1bc 4033 29bd eec3 8abc 3251 213d
000002c0: dcd1 933d 04a4 763d 5f4a f2ba 6f6b 003d
000002d0: 1fb6 87bb e158 d93c 354d 8fbb 3a26 cdbc
000002e0: f63b f7bc 49dd 553c 1868 ceba 733e f93b
000002f0: 1765 973c 8007 d73b e90b 073b 7171 eebc
00000300: 8301 aebc b3c7 2e3d ecdf 8e3d 9986 3f3d
00000310: e1fc 363d 361a 6c3d ca23 d03c 8029 c13c
00000320: 02c6 7dbc 59b1 01bd f7a2 82bb 7294 84bc
00000330: 335d 90bc 705f 333c 0fc9 75bc ba3d 97bb
00000340: 8865 7f3b 20a8 0fbd 07dd 2b39 223d d03c
00000350: ef3d 90bc bb09 1c3c 3814 a5bb 4b6b 1f3d
00000360: a23a 8f3d bd6e 083c 4d8d 03bc dece f23b
00000370: 4e8c 213d f057 123c 6f03 393d 3444 5a3d
00000380: 51e1 283c de19 06bc 5fa3 8ebc ec09 b3bc
00000390: b9aa 053d 7c0b b63c 848c 603b 385d 7c3c
000003a0: 92af 4c3c e49a a8bc e2de c9ba 78de c83b
000003b0: 64a6 1d3c c651 91bc 7dcf e83c 7506 8a3c
000003c0: abc2 b8bc 97e7 30bc c8b8 c43a fda8 c0bc
000003d0: 50b9 1b3c 787a 41bb 07ab 5b3d f927 4f3b
000003e0: b65f 1c3b 1a8c a73c 18ef 983c c957 123d
000003f0: 56e3 993c e2b4 ae3c 8174 de3c c702 893c

fc2.bias f4 [12]
0.014227533 -0.013864263 -0.026586019 0.0052018967 -0.02385506 0.00020666886 0.014218996 0.014006375
-0.021914767 -0.016583877 0.013318339 0.03150905
00000000: 991a 693c ef26 63bc ecca d9bc ac74 aa3b
00000010: b06b c3bc 40b5 5839 cbf6 683c ff7a 653c
00000020: 9986 b3bc e9da 87bc 2a35 5a3c a20f 013d
