test_models/best_model_tuned.pt (torch, 414111 bytes, 6 tensors)

conv1.weight f4 [8, 3, 3, 3]
000000 81 ad ab bd 9b fa f5 bd c1 d6 7f 3d aa cc 2c be
       -0.083827026 -0.1201069 0.062460665 -0.16874948
000010 1e 74 fc 3d 4e f4 03 be 6c c6 a5 3d f9 9a c7 bd
       0.12326835 -0.12886164 0.080944866 -0.097463556
000020 84 32 cb 3d 2d d4 1f bc 10 98 4d be d2 79 a2 bd
       0.099217445 -0.0097551765 -0.20077538 -0.07933392
000030 37 50 6b 39 45 2f 7f 3c aa 19 bc 3d 0d a9 52 be
       0.00022441229 0.015575235 0.091845825 -0.205723
000040 32 e0 39 3e 0b 1b 34 3e 77 8e 66 3e 32 00 02 3e
       0.1815193 0.17588441 0.22515284 0.12695387
000050 97 2c 80 3e 55 3a de 3d a3 c8 46 3e cb 3c df 3c
       0.2503402 0.1085097 0.19412474 0.027250668
000060 0a 43 9b bd 96 c2 78 3e c1 08 3f 3e f6 f3 b4 bc
       -0.07581146 0.24292979 0.18655683 -0.022088986
000070 f2 5e f4 3c d6 cf 12 bc 3a d4 12 3e 37 40 20 bd
       0.02983043 -0.008960685 0.1433877 -0.03912374
000080 51 b6 7e 3e 23 68 cf ba b1 70 2a 3e d9 65 0c be
       0.24874236 -0.0015823882 0.16644551 -0.13710727
000090 26 fd d1 bc c5 6c 37 be f6 b0 f2 3d 49 80 e9 3d
       -0.025633406 -0.17912586 0.11850159 0.114014216
0000a0 ff b0 44 3e 9e 0f 4d 3e 14 f4 28 be 7d 81 15 bd
       0.19208144 0.20025489 -0.16499358 -0.036500443
0000b0 eb 26 4c 3d 1d bb 67 be 3f aa fa bd ca 15 f3 bb
       0.049841803 -0.22629972 -0.12239503 -0.007418369
0000c0 34 85 61 3d 1c db 79 bd e9 65 93 3d f2 b1 57 bd
       0.055058673 -0.060999975 0.07197172 -0.052659936
0000d0 7a 6d 5b be 81 42 cb bd 41 fa 07 3e d5 53 0c 3c
       -0.2142848 -0.09924794 0.13279058 0.008564909
0000e0 10 02 ef 3c 0b 42 27 3e 13 39 5c 3e a1 3e c3 3d
       0.029175788 0.16333787 0.21506147 0.0953343
0000f0 06 bf 2e 3d bb 22 28 3e e5 90 02 bd 5d 6a 16 be
       0.042662643 0.16419499 -0.031876463 -0.14689012
000100 80 c8 de 3c 8f f6 ff 3d b2 5b f7 3d 1f 84 d7 bc
       0.027195215 0.12498199 0.12078036 -0.026308117
000110 09 f6 b6 bd ef b5 49 3e 71 39 0a be ac 8e 4f 3e
       -0.08933646 0.19698308 -0.13498475 0.20269269
000120 0e 0a d8 3c ce f4 eb bd 1f 55 87 3d 0e 0b 09 3e
       0.026371982 -0.11521302 0.066080324 0.13383123
000130 08 70 07 3e 1f f5 60 3e 11 c6 e5 bd 76 42 94 3c
       0.1322633 0.21968506 -0.11219419 0.018098097
000140 66 a1 c7 bc 7c 40 8b be 0a 71 10 be 2f 38 93 3d
       -0.024368953 -0.27197635 -0.14105621 0.071884505
000150 1d 8b 62 3d ac 24 19 3e a6 9c ef bd 09 32 3e be
       0.05530845 0.14955395 -0.116998 -0.18573774
000160 5a f2 ec 3d 21 a8 29 3e e6 28 92 be 12 40 c9 bc
       0.115696624 0.16568042 -0.28546828 -0.024566684
000170 99 31 75 be 48 e2 12 3e 39 b0 25 bd ae 72 3d bd
       -0.23944701 0.14344132 -0.040451262 -0.046251945
000180 9e 2e 85 bd 65 f6 37 3e 6c c8 d9 bb aa 6e b1 bd
       -0.06503032 0.17965086 -0.0066462066 -0.086636856
000190 1d 18 36 be 33 4e 00 be 14 33 02 3d 17 9b 7c 3d
       -0.17782636 -0.1252983 0.031786993 0.061671343
0001a0 fd c6 1e 3c 4c 62 d1 3d 9a 3c 57 3e e6 85 0a 3e
       0.009690997 0.10223827 0.21019211 0.1352764
0001b0 47 fa a0 3d 05 91 92 be cf 02 4a be 4c 29 da 3d
       0.078602366 -0.28626266 -0.19727634 0.10652408
0001c0 2a 90 28 be 05 4a 5c bb 73 8d 0d bd 68 4f d5 3c
       -0.16461244 -0.0033613455 -0.034558725 0.02603884
0001d0 85 65 69 3e f3 6f 12 3e a3 b6 81 be a4 0b 09 be
       0.22792633 0.14300518 -0.25334653 -0.13383347
0001e0 12 27 1e be 60 cd b6 3d ce 7d d7 3d dc af 0e be
       -0.15444592 0.08925891 0.10522042 -0.13934273
0001f0 b1 45 00 3d 47 88 93 3d 21 45 ca 3d 02 14 1c be
       0.031316463 0.07203727 0.098764665 -0.15242007
000200 55 25 fc bd a4 1f 3e 3e 79 97 be ba d7 7f 7c 3e
       -0.12311808 0.18566757 -0.0014540992 0.24658142
000210 f3 d3 80 3e a3 68 6f 3e d9 d8 95 3d 79 3a d3 bd
       0.25161704 0.2337976 0.07316751 -0.10313887
000220 bb af 59 3e d8 44 2d 3e 80 95 8d bd c9 75 cd 3d
       0.21258442 0.16920793 -0.069132805 0.10032231
000230 a3 29 87 3e b5 56 8b 3e 25 f7 6d 3e 93 07 1f 3e
       0.26398954 0.2721459 0.2323881 0.15530233
000240 6c cc 0e 3d ba 3a 41 bb 7b 65 0e bd d2 af 1d 3e
       0.03486292 -0.0029484467 -0.034764748 0.15399101
000250 6b 1f 35 3e 53 fd a1 3d bf 20 25 3e f2 f5 7d bd
       0.17687766 0.07909646 0.16125773 -0.06200213
000260 ff 09 66 3d 98 41 ce bb 21 c5 f0 bd 96 5e 27 be
       0.056161877 -0.0062944405 -0.11756349 -0.16344675
000270 61 c2 17 3c 54 3e 9e bc ee 98 82 be 89 8d b7 bd
       0.009262652 -0.01931683 -0.255073 -0.089625426
000280 7b 97 af bd 91 93 6a 3d ff e9 53 3d 0e b4 dd bd
       -0.085738145 0.057269637 0.051736828 -0.10825358
000290 6f 51 27 bc 0f 59 8b be 24 66 73 3e a9 bb b6 3d
       -0.010212286 -0.27216384 0.23769432 0.08922512
0002a0 1d 4d 2b 3e 02 41 0f be 56 88 89 3e dc f2 4e 39
       0.16728635 -0.13989642 0.2686183 0.00019736163
0002b0 18 07 0d 3e 6a 81 44 3e 03 d9 69 be 6d da f9 3c
       0.13772237 0.19189993 -0.2283669 0.030499661
0002c0 b7 f1 3b 3d 17 67 d9 bd ce a1 9c bd 67 eb 5f 3e
       0.045884814 -0.10615366 -0.07648049 0.21867143
0002d0 29 b9 aa bd dc 8b ec 3d 3d e4 36 3e 2f bb 5a be
       -0.08336098 0.115501136 0.17860503 -0.21360467
0002e0 a1 9f 39 be 30 83 99 bd dc b5 ec bd 97 b9 b6 bd
       -0.181273 -0.07495725 -0.115581244 -0.08922117
0002f0 a9 cb c4 bd bf 91 e7 bd 38 90 68 3d 02 ec 58 3e
       -0.096091576 -0.11307096 0.056778163 0.2118378
000300 fa ed 23 3e 82 ab 6d 3e e3 05 58 3d ca 37 47 3e
       0.1600875 0.23209956 0.05273999 0.19454876
000310 4a 04 ec 3d b4 83 1a 3d 03 63 eb bd 13 83 a4 bd
       0.115242556 0.03772326 -0.11493494 -0.08032813
000320 a2 b9 55 3e b2 36 38 3e 93 08 3f 3d 9b 00 a0 bd
       0.20871595 0.17989615 0.046639036 -0.078126155
000330 2d 7a c4 3b 23 8d 41 bd 87 a9 a8 bd be 05 9a 3d
       0.00599601 -0.04725374 -0.0823546 0.075206265
000340 02 cf 8c 3d 34 46 df 3d 78 38 38 3e ec 1b 00 3e
       0.06875421 0.10902062 0.17990291 0.12510651
000350 2f 36 6b bd 0c 60 27 3d a5 8b c4 3d 54 22 66 3e
       -0.05742472 0.04086308 0.095969476 0.22474033

conv1.bias f4 [8]
000000 8d cd 83 bb 62 8a af bb 76 8a be 3d 99 57 74 3e
       -0.0040223063 -0.0053570727 0.09303753 0.23861541
000010 eb c1 8a ba 18 e7 30 bd 33 c4 c3 3c 11 03 b2 be
       -0.0010586357 -0.04318914 0.023897266 -0.34767964

conv2.weight f4 [16, 8, 3, 3]
000000 21 5d fe 3d 0a 29 f6 bc ac 24 9c 3a 43 f8 ba 3d
       0.12420107 -0.030048866 0.0011912785 0.091293834
000010 a2 ed cb ba d5 d7 5e bd 3e ba ba bc 17 11 ef bd
       -0.0015558491 -0.054405052 -0.022793885 -0.116731815
000020 34 33 a6 3d 8e 5d 26 3e b6 6a 59 3e 51 77 8f 3e
       0.08115235 0.16246626 0.21232113 0.2802072
000030 31 a1 36 3d fd c1 df 3c a0 a6 a4 3d 99 b4 8c 3d
       0.044587318 0.02731418 0.08039594 0.06870384
000040 eb 16 94 3e 70 29 bc 3e 82 33 2a 3d 84 aa a7 bd
       0.28923735 0.36750364 0.041553028 -0.0818682
000050 b0 b5 54 bd 2f 2e 20 bd d1 25 02 be 5f 30 d2 3b
       -0.051931083 -0.039106544 -0.12709738 0.0064144577
000060 ac 4f d8 3d 25 a8 ba 3b c8 67 29 3d 2e 12 9c be
       0.10562071 0.005696314 0.04135874 -0.3048262
000070 70 67 b7 bd 5b 0b 4e be ec f3 20 be 95 23 39 be
       -0.08955276 -0.2012152 -0.15718049 -0.1807998
000080 b2 15 92 3d c7 43 77 3d cf f4 a1 3d f0 5e f3 3d
       0.07133044 0.060367372 0.07908022 0.11883342
000090 fc 05 3f 3d e9 64 8a bd a0 de fa bb 2d ad 22 3d
       0.046636567 -0.06757528 -0.0076559335 0.039715935
0000a0 46 73 34 bd 31 8a 20 3e e9 71 72 3e 11 15 4b 3e
       -0.044055246 0.15677716 0.23676266 0.19832255
0000b0 2d ef 1c 3d 73 25 5d 3d 95 04 5c 3c bd 08 df bd
       0.038314033 0.053990792 0.013428827 -0.108903386
0000c0 ee 55 d6 bd 3a 71 99 3d 84 ae 31 3d f7 09 2b bd
       -0.104656085 0.074922994 0.04337932 -0.04175755
0000d0 23 04 20 bd 0e fb ca bd 0d 4e 8c 3d 7b bf 34 bc
       -0.039066445 -0.09911166 0.068508245 -0.011031981
0000e0 40 ac 98 3e 64 ba 52 3e aa 5c 3e 3e ce 9e 3d 3e
       0.29818916 0.20578915 0.18590036 0.1851761
0000f0 9f 9c 30 3e db 4e 94 3c 7e ca ae 3e ff 9a 44 bd
       0.17247246 0.018104007 0.34138864 -0.04799938
000100 11 b3 ad 3d 27 01 a0 bd 35 21 08 3e c8 19 c5 3d
       0.0848142 -0.0781272 0.13293917 0.09624058
000110 b6 b0 8b bd 47 84 9a 3d 82 95 04 3e a7 57 5c 3d
       -0.06820814 0.07544761 0.12947658 0.05379453
000120 bb 7b 99 3b 5e 04 9c 3d 3a fc d0 bd 81 2a 7c 3a
       0.0046839393 0.076180205 -0.102043584 0.00096193707
000130 9d cb ed bd a0 61 c5 bd a4 44 e5 3d 62 8a d2 3d
       -0.11611102 -0.09637761 0.11194733 0.10280301
000140 64 a9 ec ba c2 c8 84 3e 35 8d 7c 3e ef e4 a1 3e
       -0.0018055853 0.25934416 0.24663241 0.31619975
000150 9a b4 93 3c 43 34 a5 bd e4 fe 4a bc 26 2e 44 3e
       0.018030453 -0.08066609 -0.012389872 0.19158229
000160 34 e1 2e 3d ba ad 7b bb 18 e2 a2 bd e5 f7 28 3d
       0.04269524 -0.003840311 -0.0795328 0.041252036
000170 82 ea bf bd ec f4 8a bc fb c4 cb bd 5a 90 09 be
       -0.09370901 -0.016962491 -0.099496804 -0.13433972
000180 98 74 74 3d bf 00 08 3d f0 ca 46 bc 07 cf fa bc
       0.059681505 0.033203837 -0.012133345 -0.030616296
000190 30 40 36 be a7 52 29 be 30 23 8e 3d 85 a5 75 3d
       -0.17797923 -0.16535436 0.06940305 0.059972305
0001a0 20 49 5c bd f0 b8 d4 3c 57 03 80 3d b8 5d ac bc
       -0.053780675 0.025967091 0.06250637 -0.021040782
0001b0 af a2 cb 3d 56 e2 1f bc 26 ea 0a be c3 1d f1 3d
       0.09943139 -0.009758553 -0.13565883 0.11773255
0001c0 d9 ef 21 3c 24 36 40 bc 8e d6 fa 3d db 24 71 3e
       0.009883844 -0.011731658 0.12247954 0.23549215
0001d0 71 db 19 3e 07 4e a1 bc 3d a4 ba 3d 07 87 43 bd
       0.15025117 -0.019690527 0.09113357 -0.047736194
0001e0 9c 17 0c 3e c3 b5 88 3b cd 23 64 3d cf a8 1e 3e
       0.13680881 0.0041720583 0.055698205 0.15494083
0001f0 23 38 39 bd a9 bc f5 3c ab 45 e5 3d 4b 02 50 3e
       -0.04521955 0.029997187 0.11194929 0.20313375
000200 4a 08 65 3e d8 de 69 3d 97 6a 18 3e 76 c9 9a 3e
       0.22366443 0.057097286 0.14884411 0.30231827
000210 bc 1c e5 3c 1f a2 5c 3d b6 a9 32 3e 9e 5a 52 bd
       0.027967803 0.05386555 0.17447552 -0.05135595
000220 ce 31 f9 bc 8a 3e a5 3d 7e 7a 89 bc 6b 7c a6 bc
       -0.030419257 0.08068569 -0.016782042 -0.020322999
000230 10 6b 1c be 5b 1d 48 3d 91 5f b6 3d 36 7a 37 bc
       -0.15275216 0.04885612 0.089049466 -0.011198571
000240 b8 7f 1a bd 0b 33 ac bd 9c 7d 53 bd 5f 9e 8f bb
       -0.03771946 -0.08408173 -0.051633462 -0.004382893
000250 4a 2b 9f 3c 2a b6 29 bd bb cc 8e bd ae 02 bc bd
       0.019429822 -0.04143349 -0.06972643 -0.091801986
000260 f7 ac 10 3e 6d 67 86 be 23 50 89 be b3 35 68 bd
       0.14128481 -0.26250783 -0.26818952 -0.056691837
000270 d7 55 63 be 44 df a8 be 07 b0 c4 bd e3 91 95 be
       -0.22200714 -0.32982838 -0.09603887 -0.29212865
000280 27 bd 83 bc a9 51 ce 3d 7c 07 d1 3c c3 77 91 3d
       -0.016081406 0.10074169 0.025516264 0.07102921
000290 d9 30 82 3d 51 2b db 3d 9f 0e b8 3d 02 f2 ea bd
       0.06356973 0.10701621 0.08987164 -0.114719406
0002a0 71 ce 13 bd b1 74 9e bb 6a 3e 82 bd 66 15 91 3d
       -0.03608555 -0.004835688 -0.06359561 0.070841596
0002b0 14 5c 22 3d 7c e8 22 3e 94 db 42 3d c7 4e fb 3c
       0.039638594 0.15908998 0.047572687 0.030677212
0002c0 64 0d 11 3e 67 0f cd bc c5 fa 1f 3e 55 6b 5a 3d
       0.14165264 -0.025031758 0.15623005 0.053325016
0002d0 58 e7 11 3d f1 44 14 3d be 52 2a 3e eb e9 18 3e
       0.035621017 0.03619856 0.16633126 0.14932983
0002e0 c9 73 17 3e 54 89 0c 3d bd 06 7f 3d 0f b7 0d 3e
       0.14790262 0.034310654 0.062262286 0.13839363
0002f0 e6 52 4a 3d ae cd 02 3d 04 4f dd bd 81 d9 19 be
       0.049395464 0.031934433 -0.10806087 -0.15024377
000300 ab ed 28 be fa 40 6e be d0 b5 57 be ff 74 42 bc
       -0.16496913 -0.23266974 -0.2106545 -0.011868714
000310 03 32 26 bd b7 e0 0c be ec a1 01 be 76 56 b9 3d
       -0.04057504 -0.13757597 -0.12659425 0.09049694
000320 69 30 e3 3d d6 fe c6 bd 20 d5 f7 bc c2 29 56 3e
       0.11093218 -0.09716575 -0.030252993 0.20914367
000330 5d 39 eb bd fd 80 80 3d a9 09 32 3c 78 5e 63 be
       -0.114855506 0.062746026 0.010866561 -0.22204006
000340 51 c7 c0 be 0a 8d 64 be e5 fe e3 bd b5 58 d7 be
       -0.37652066 -0.22319427 -0.11132602 -0.42059866
000350 64 1a 69 be f5 bc a4 be 73 27 8e be d6 43 58 be
       -0.22763973 -0.32175413 -0.27764472 -0.21119627
000360 ba 39 ad 3d e6 0c 7f bd b1 f0 99 bc 78 db 00 be
       0.08458276 -0.06226816 -0.018791528 -0.1258372
000370 cb e5 f2 3c 22 54 f7 3d 43 c5 87 3d c9 9a bc bd
       0.02965059 0.12076594 0.066294216 -0.092092104
000380 f7 27 56 3d 60 3d 0c 3d b0 a3 58 bd 98 52 25 3d
       0.052284207 0.03423822 -0.05289048 0.04036197
000390 25 bb 61 be 48 dc 6e 3c 0c 73 40 3e 14 c6 1f be
       -0.22044046 0.014578886 0.18793887 -0.15602905
0003a0 10 9b a6 3c fe 35 29 bd 70 7d 04 3e 77 e7 bc bd
       0.020337611 -0.041311257 0.12938476 -0.09223836
0003b0 83 37 06 3e 7c 08 d8 bd ed 1d aa bd fa dd f8 3d
       0.13107114 -0.10548493 -0.08306489 0.12151714
0003c0 7b fd ad bd 35 67 ed 3c 19 b6 b9 3d 7e f7 b2 bc
       -0.08495613 0.028979877 0.090679355 -0.02184653
0003d0 4a 2a 26 3d 7c 9a 70 3d e1 18 14 be b3 86 04 bc
       0.040567674 0.058741078 -0.14462616 -0.008088755
0003e0 76 44 68 bd 1a 7a c0 bc 85 05 e9 bc ef 6a 90 bd
       -0.056705914 -0.023495723 -0.028445015 -0.07051646
0003f0 25 ce c4 bc 2c 5c ca 3d 55 b9 a0 bd 6b b0 ad bd
       -0.024024079 0.09880862 -0.07847849 -0.08480915

conv2.bias f4 [16]
000000 5b 72 7a be ec 7e 19 be b4 c5 0a 3e 9f 4b 80 3c
       -0.24457686 -0.14989823 0.1355198 0.015661059
000010 0c ff 36 be 0a a4 84 bd 8f 39 c3 3c 44 3c 12 bd
       -0.1787073 -0.064766005 0.023831157 -0.035702005
000020 66 0d f0 3d 41 b0 64 bd 85 87 36 bd 9f f4 c2 bd
       0.117213055 -0.05583215 -0.044562835 -0.09519314
000030 dd 93 1b be d9 c3 ca bd 23 a8 b0 3d e1 04 d3 3d
       -0.15193124 -0.09900636 0.086258195 0.10303665

fc2.weight f4 [12, 8464]
000000 79 55 d5 3b 2f ab f6 bb b7 89 d3 bc 66 e4 63 bc
       0.0065104333 -0.007527731 -0.025822503 -0.013909435
000010 63 bb a1 3c 8c a8 ba 3c 87 67 08 bc 59 08 fb 3c
       0.019742673 0.022785448 -0.008325464 0.030643629
000020 61 8d 65 3c 67 a3 81 3a 84 d0 2b bc 19 d8 52 ba
       0.014010758 0.0009890617 -0.010486726 -0.00080430653
000030 de c3 7a bc 7b 77 29 bd 83 cf 1d bd 89 a1 b8 bc
       -0.015305487 -0.04137371 -0.038527977 -0.022537963
000040 7c 3b c5 bc f3 e9 34 3c cf 23 20 3d db bd 2c bc
       -0.024076216 0.011042106 0.03909665 -0.010543312
000050 89 ee 97 bc 75 16 ed bb e4 1e 2c 3d eb be 30 bd
       -0.01854636 -0.007235343 0.042021647 -0.043150824
000060 01 47 b7 bc be 5b c5 bb 25 b8 98 3b dd 46 a9 3b
       -0.022372724 -0.0060228994 0.0046606236 0.0051659183
000070 5e 29 05 3d 0a 32 dc bb c5 32 b7 bc f1 5a 23 bd
       0.032510154 -0.0067198323 -0.022363076 -0.03988165
000080 fe bc 19 3c ab 65 0a 3c 7e fd 5f 3c 6b 61 79 3c
       0.009383438 0.008447091 0.013671277 0.01522098
000090 be ae b3 3c 09 78 24 3b 4e 87 e7 bb 4c bc 00 3d
       0.02193391 0.002509596 -0.00706569 0.031429574
0000a0 38 2b 05 bb fa 99 b6 bc f3 8c 01 3c 79 a2 c2 bc
       -0.002031995 -0.022290219 0.00790714 -0.023759114
0000b0 0d f0 a4 3b a2 76 47 bc ab d5 94 bc 07 16 f2 bc
       0.005033499 -0.01217428 -0.018168291 -0.02955152
0000c0 2c 8e e9 3c c6 1a a6 3d 06 85 13 3c dd 45 49 bc
       0.028510176 0.081105754 0.009003883 -0.012284723
0000d0 2b d8 6f bc 1e c9 e0 3c 5e dc 19 3d 71 6d 37 3d
       -0.014638941 0.02743965 0.037563674 0.044782106
0000e0 8b d1 b2 3c 98 e9 f9 bc 85 e2 0e bd 7e f7 da 3c
       0.021828433 -0.030506894 -0.034883995 0.026729342
0000f0 ec dd c6 3d 10 10 65 3c b2 4c ba 3c d1 55 04 3c
       0.09710297 0.01398088 0.02274165 0.008077101
000100 32 29 d0 3c 2c 3e 8b 3c 48 28 aa bc 6e d2 f7 bc
       0.025410268 0.01699742 -0.02077116 -0.030251708
000110 0c 68 ea bc d2 84 28 bd db 74 c0 3c a0 c0 9b 3c
       -0.028614067 -0.041142292 0.023493221 0.01901275
000120 a7 4d 37 bc 54 0c 2f 3c 0e c2 bf 3c 2e cb 32 3d
       -0.011187947 0.010684092 0.023407962 0.0436508
000130 88 14 c2 3c 98 16 99 3c b8 57 b6 3c ba fd de 3a
       0.02369143 0.018687531 0.022258624 0.0017012872
000140 a5 50 45 bd 2d 39 88 3a 54 42 8e 3c 2e 28 79 bb
       -0.04817261 0.0010393016 0.017365612 -0.0038018334
000150 70 37 23 3d bb 68 82 3d 7e ab e2 3c 1c 71 a5 bc
       0.03984779 0.06367632 0.027669664 -0.020195536
000160 fe 15 91 3c d2 08 38 3c 42 02 82 3c 11 86 34 3a
       0.017710682 0.011232572 0.015870217 0.00068864325
000170 fd 5a 2e bc 5b c5 50 3b 6d d2 25 3c 8a 02 a6 3c
       -0.0106418105 0.0031855914 0.01012097 0.020264883
000180 cb 08 38 3d 11 93 87 3c eb 8c 2a 3c 72 b4 f9 bb
       0.04493026 0.016549619 0.010409574 -0.0076203877
000190 bf 7c 84 3c ed 64 32 bd d6 7f 85 3c 78 dc d9 3b
       0.016172765 -0.04355328 0.016296308 0.0066485964
0001a0 a8 80 cf 3b 4c 7e bb bb c5 95 57 bc b2 fd e1 bc
       0.0063324757 -0.005721843 -0.013158266 -0.027586792
0001b0 b7 00 69 3d 2a f0 e1 3c 9f 43 be bb 32 15 86 3c
       0.056885447 0.02758034 -0.005806401 0.016367529
0001c0 67 7d 10 bd 5e 6e d8 bc a9 9c 81 3b 0d e1 90 bc
       -0.035275843 -0.026419815 0.003955443 -0.017685438
0001d0 3e 86 5b 3c 95 20 a2 3c ba 14 c7 3c d5 3f 11 3b
       0.013398705 0.019790927 0.024301875 0.002216329
0001e0 e5 41 01 3d eb fc f1 3c 48 f9 4a 3d 35 dc 56 3d
       0.031556983 0.029539546 0.04955414 0.0524561
0001f0 da 5c ad 3c b7 dc a3 3c 54 33 bd bc 40 fc 1c 3b
       0.02116244 0.020002706 -0.023095764 0.0023954064
000200 0e 60 34 bc 93 96 23 3d 85 50 51 3c 30 8a 0a 3d
       -0.011009229 0.03993852 0.012775545 0.033823192
000210 66 d6 90 bb 93 88 18 3c 3b 6f 7b 3d c8 99 f5 3c
       -0.0044200895 0.009309906 0.061385375 0.029980555
000220 c8 95 43 3d d8 1a 96 3c 2e 9e a0 ba 95 64 c1 3b
       0.047750264 0.018323347 -0.0012254172 0.005901883
000230 c1 41 9a bb 76 bb 48 bc 6b 55 95 3c ae d1 28 3b
       -0.0047075455 -0.012251725 0.018229207 0.0025759744
000240 d6 23 72 3c 56 ed 5d 3d 0e 12 97 3c 78 f4 3a 3d
       0.014779052 0.05418142 0.018441226 0.0456433
000250 82 df 77 3b 58 71 5b 3d d2 09 19 3d b0 d0 34 3c
       0.003782243 0.05357489 0.03736288 0.011036083
000260 c2 57 1e 3d be 9a c8 3c 7f 26 58 3d 2e e4 41 3d
       0.03865791 0.02448785 0.052771088 0.04733675
000270 f0 76 66 3c 24 cd 5c 3d d5 28 2b bd af 68 a3 bc
       0.014066443 0.053906575 -0.041786987 -0.019947378
000280 5c 0f e7 3b 80 87 bf 3c f6 2e b9 bc ea da bb bc
       0.0070513915 0.023380041 -0.0226054 -0.022931535
000290 b4 6f 26 3d f5 34 63 3d 3c 58 7a 3b 24 54 17 3c
       0.040633872 0.055470426 0.0038199564 0.009236369
0002a0 2a 42 1a 3d 83 67 50 3d e9 0a 7a 3d 4d 84 94 3d
       0.037660755 0.050879966 0.06104556 0.07251797
0002b0 52 2e e3 3d 17 85 c7 3d 35 6c 91 3c 34 a7 60 3d
       0.11092819 0.09742182 0.017751792 0.054846957
0002c0 5b 01 26 3d f1 ed 2f 3d eb b5 61 3d db d3 a6 3d
       0.040528636 0.042951528 0.05510513 0.08145877
0002d0 e5 b5 96 3c 76 ba 0b 3d 0b 64 72 bc 4c e7 fb bb
       0.018397281 0.03411337 -0.01479436 -0.007687485
0002e0 de a8 2b bb b7 20 7b 3b 77 31 c1 3c b7 a9 60 3c
       -0.0026193182 0.003831906 0.023583157 0.013712338
0002f0 f6 41 e7 3c fe aa 88 3d b2 39 66 3c 56 a6 a6 3c
       0.028229695 0.06673239 0.014051842 0.020342987
000300 79 92 05 3d 9e 45 76 3d 80 57 d8 3d fe 34 f0 3d
       0.03261039 0.060124986 0.10563564 0.117288575
000310 7d bc d0 3d 93 30 54 3d 0e 6b 2a 3d ae a0 38 3c
       0.10192201 0.051804136 0.041606 0.011268778
000320 38 e5 63 3c 18 32 83 3b aa ae 00 bc 5f 00 02 3c
       0.0139096305 0.0040037744 -0.007854143 0.007934659
000330 4b 2c d8 3b 51 e4 98 bb 19 b0 52 bc 1e 6d 56 3c
       0.006597077 -0.0046658893 -0.012859368 0.013087539
000340 c7 97 e4 3c c2 49 12 3d a4 29 8e 3c 31 7a 8d bc
       0.027904404 0.035714872 0.01735384 -0.01727018
000350 0b 7b 55 3c a8 9c 45 3c d8 f1 37 bd 0c a1 e1 bc
       0.013029824 0.012061276 -0.044908375 -0.027542613
000360 25 53 6a bb 76 98 e0 bd f9 32 46 be ae 3b 4a be
       -0.0035755124 -0.109665796 -0.19355382 -0.19749328
000370 66 3f a0 bd 7a a8 eb bc 51 cd 62 bc 65 bd bf bc
       -0.07824592 -0.02876686 -0.013842897 -0.02340574
000380 0c af 26 bc ec a8 34 bc 1f b1 8c ba 7b 45 df 3c
       -0.01017357 -0.011026602 -0.0010733939 0.02725481
000390 d0 95 d2 3b c1 86 96 3c 63 b1 dc 39 57 cb d8 bc
       0.0064265504 0.018374803 0.00042093833 -0.026464147
0003a0 64 d5 6e bc 73 f2 47 3d 92 53 03 3d 1a 6f ac 3d
       -0.0145772435 0.048815202 0.03206212 0.084196284
0003b0 dc 17 8d 3b f4 0a 8d bd f6 a7 42 be f8 cd 65 be
       0.004305823 -0.06886855 -0.19009385 -0.22441852
0003c0 c6 c7 63 be 2b 65 3f be c1 b3 a1 be 35 fa 84 be
       -0.22244176 -0.18690936 -0.31582454 -0.25972143
0003d0 2b f6 39 be e1 a2 13 be 37 de 19 bd c2 51 38 bc
       -0.18160312 -0.14417602 -0.037565436 -0.011249961
0003e0 2c f3 59 3b a9 7f 87 3c 7f 91 cd 3c a6 90 82 3c
       0.0033256514 0.016540365 0.025093792 0.015938114
0003f0 8f 53 fb bc b3 de b6 3c f3 92 f6 bc 9a 3e 8c 3c
       -0.030679492 0.022322988 -0.030099368 0.017119695

fc2.bias f4 [12]
000000 07 e8 25 bd ef 8e 81 ba 47 ba 83 bd 19 18 02 3d
       -0.04050448 -0.0009884516 -0.06432014 0.031761263
000010 35 a6 91 ba a5 2b fe 3b 27 93 96 3c 70 a9 29 3d
       -0.0011112156 0.0077566677 0.018380715 0.041421354
000020 98 5c d5 bc 5c 56 57 bc 3e d8 b9 3b 66 d3 be 3d
       -0.026045129 -0.013143148 0.00567153 0.09317665
