test_models/highest_no_normalization_no_weighting.pt (torch, 414567 bytes, 6 tensors)

conv1.weight f4 [8, 3, 3, 3]
-0.014704715 0.21211845 -0.16766082 0.03204688 -0.23128997 -0.26355648 0.25760236 0.059480935
-0.1811321 0.017423669 -0.058898736 -0.21516879 0.18598568 -0.065801606 -0.14836094 0.2598866
0.18964021 0.006271989 0.08574122 -0.028386833 -0.26738018 -0.13155368 0.101077296 0.0956268
0.06802133 0.04555509 0.1758224 -0.089743875 0.111296944 -0.17851219 -0.2531748 0.10062187
-0.22578168 -0.30871683 0.038252406 -0.097667456 0.064169444 0.17818747 -0.06969509 0.027859649
-0.02192235 -0.041715607 -0.11929999 -0.23149835 -0.23745432 0.06675677 0.23134255 0.21604128
0.27006704 0.07863702 0.16500896 0.15687516 -0.120407104 0.12942116 0.21079104 0.14862847
0.08682519 -0.22853266 -0.00602029 0.2653518 -0.15269664 0.01283514 0.056483142 0.17182143
0.1054437 0.03184392 0.13004565 0.056980673 0.04382371 0.040770736 -0.19105926 0.06893209
-0.07387513 -0.22570506 -0.034482602 -0.22749953 -0.20340806 -0.17484604 -0.2221407 -0.31551507
0.03944826 0.1763721 0.21384981 0.25070897 -0.22609434 -0.3242856 -0.1578215 -0.13118227
0.068753526 -0.0010656535 0.093850106 0.043438096 0.37763265 -0.26814374 -0.37658936 0.06425134
-0.22391501 0.17308643 0.02698645 0.18944283 -0.013616618 0.36628553 -0.22302552 -0.23245232
0.13267268 -0.19168633 0.15995285 -0.03337499 0.013984349 0.25202477 0.19283417 -0.068267815
0.1876392 0.17160141 -0.12963814 0.18050759 0.114353806 0.07721053 0.042613994 0.16844663
-0.1626409 0.1149555 0.09161361 -0.04076925 0.09134784 0.06671355 -0.1507462 -0.14784841
-0.11772893 -0.20058323 -0.13662013 -0.030422714 -0.048334993 -0.12962642 -0.2012573 -0.06597579
0.03404283 -0.025278121 0.073217586 -0.17955403 -0.26327702 0.0451046 0.09836153 -0.10431447
0.0034130332 -0.0011530815 -0.00010304639 1.6873377e-05 -0.1479723 -0.12533863 -0.014481685 0.20088474
0.009022427 -0.030261744 0.032923475 -0.04851318 0.18768954 -0.18945922 -0.07531674 0.17082444
-0.11351336 0.031541094 -0.1514053 -0.6289364 -0.40514895 -0.06931245 0.014683984 -0.015255112
-0.15425935 -0.043370884 -0.10372964 -0.12500276 -0.48583752 -0.5041009 -0.14429463 0.15150422
0.13354127 0.06233596 -0.086268105 -0.09726902 0.060101185 -0.44720244 -0.28554437 -0.0026564796
0.27984774 0.17401579 0.03693942 0.05237255 0.13373028 0.016533524 0.24464256 0.09374107
0.033638425 0.06635579 0.3051071 0.21293853 0.16341457 0.24642406 0.09984485 -0.079466626
0.08681108 0.09905027 0.18559702 0.089002356 -0.005387312 -0.09170061 -0.006576533 -0.13917808
0.03391491 -0.0833418 0.03155766 0.02137716 -0.0011345211 -0.21106163 -0.22019556 0.028631013
00000000: 0cec 70bc 9435 593e 47af 2bbe 9743 033d
00000010: 47d7 6cbe e0f0 86be 75e4 833e 48a2 733d
00000020: b17a 39be 15bc 8e3c cd3f 71bd 3555 5cbe
00000030: 0873 3e3e fec2 86bd eeeb 17be db0f 853e
00000040: 0b31 423e 4285 cd3b 1899 af3d 818b e8bc
00000050: 0ee6 88be 02b6 06be 9d01 cf3d fcd7 c33d
00000060: c44e 8b3d f997 3a3d ca0a 343e a3cb b7bd
00000070: a7ef e33d e6cb 36be 21a0 81be d712 ce3d
00000080: 5033 67be 2210 9ebe 8eae 1c3d e005 c8bd
00000090: 456b 833d c776 363e 4dbc 8ebd eb39 e43c
000000a0: 8096 b3bc fcdd 2abd 8e53 f4bd e70d 6dbe
000000b0: 3a27 73be c6b7 883d 10e5 6c3e ed39 5d3e
000000c0: 3a46 8a3e 720c a13d 1cf8 283e e2a3 203e
000000d0: 0098 f6bd fb86 043e 9bd9 573e 1032 183e
000000e0: 68d1 b13d 7704 6abe da45 c5bb 31dc 873e
000000f0: 825c 1cbe 7b4a 523c de5a 673d f5f1 2f3e
00000100: def2 d73d c56e 023d b02a 053e 9164 693d
00000110: 7e80 333d 37ff 263d 0aa5 43be 452c 8d3d
00000120: d84b 97bd 3a1f 67be a13d 0dbd a3f5 68be
00000130: 344a 50be d70a 33be da78 63be 318b a1be
00000140: 8094 213d e39a 343e 72fb 5a3e ed5c 803e
00000150: 4685 67be c308 a6be f69b 21be a554 06be
00000160: a6ce 8c3d 66ad 8bba 7c34 c03d 25ec 313d
00000170: 1159 c13e 234a 89be 52d0 c0be 3596 833d
00000180: fa49 65be 923d 313e b012 dd3c 4dfd 413e
00000190: 3c18 5fbc c789 bb3e cd60 64be fb07 6ebe
000001a0: 59db 073e 6c49 44be aeca 233e 37b4 08bd
000001b0: 9c1e 653c 6409 813e 5276 453e ffcf 8bbd
000001c0: 7e24 403e 48b8 2f3e dcbf 04be fbd6 383e
000001d0: 5432 ea3d 8e20 9e3d 038c 2e3d 467d 2c3e
000001e0: 568b 26be ca6d eb3d eb9f bb3d a8fd 26bd
000001f0: 9414 bb3d 1da1 883d 365d 1abe 9365 17be
00000200: de1b f1bd b165 4dbe 26e6 0bbe 0e39 f9bc
00000210: eafa 45bd cabc 04be 6516 4ebe 511e 87bd
00000220: 7f70 0b3d 1014 cfbc 1af3 953d 03dd 37be
00000230: 3fcc 86be 9abf 383d c571 c93d d3a2 d5bd
00000240: 32ad 5f3b ff22 97ba 9c1a d8b8 4d8b 8d37
00000250: 0d86 17be c558 00be 9744 6dbc bbb4 4d3e
00000260: cdd2 133c 7ae7 f7bc c4da 063d c2b5 46bd
00000270: b031 403e 9901 42be aa3f 9abd 9aec 2e3e
00000280: b179 e8bd 3c31 013d fe09 1bbe fa01 21bf
00000290: af6f cfbe b0f3 8dbd 1895 703c 94f0 79bc
000002a0: 2af6 1dbe aba5 31bd 3570 d4bd b900 00be
000002b0: b2bf f8be c20c 01bf f9c1 13be ec23 1b3e
000002c0: 0bbf 083e fe53 7f3d 55ad b0bd fb34 c7bd
000002d0: a92c 763d b8f7 e4be df32 92be 5518 2ebb
000002e0: 3448 8f3e 3231 323e ca4d 173d 9984 563d
000002f0: 97f0 083e 5071 873c 9483 7a3e 51fb bf3d
00000300: 72c8 093d 8be5 873d ff36 9c3e 8f0c 5a3e
00000310: 2656 273e 9756 7c3e 757b cc3d 66bf a2bd
00000320: 02ca b13d deda ca3d 250d 3e3e de46 b63d
00000330: 0c88 b0bb 88cd bbbd f57f d7bb b384 0ebe
00000340: 5cea 0a3d 1baf aabd 9b42 013d 271f af3c
00000350: 36b4 94ba 8a20 58be f27a 61be 968b ea3c

conv1.bias f4 [8]
0.0031223213 0.2612264 0.29664126 0.0077517154 -0.014234659 0.06489363 0.4429738 -0.36934298
00000000: dc9f 4c3b 77bf 853e 5de1 973e 1a02 fe3b
00000010: 7d38 69bc f4e6 843d 76cd e23e 861a bdbe

conv2.weight f4 [16, 8, 3, 3]
0.056697756 -0.035606407 0.023143347 -0.053524137 -0.09858311 -0.09029951 -0.06429983 0.07975861
-0.17425765 0.06281577 0.07470284 -0.09423302 -0.169528 -0.029820029 -0.10773069 0.017643683
-0.039643526 0.058022853 -0.09109187 0.054762334 -0.012193009 -0.037827887 0.0017749644 0.02151968
-0.09698855 -0.09189526 -0.061304335 -0.015065365 0.06530784 0.08883324 -0.00038042982 0.01858089
-0.047590062 0.07590238 0.07222297 -0.14764667 -0.1133135 -0.055874776 -0.11985293 -0.16121864
-0.1310549 -0.16583359 0.0019658234 -0.13259026 0.010121373 -0.0035155648 0.15066914 -0.006928255
-0.03258507 -0.048574843 0.038340423 -0.08959418 0.0038578399 0.06387597 -0.011520639 -0.024053337
-0.1227364 0.035503756 0.03748376 -0.006902674 -0.13261268 0.0355662 -0.13837098 0.060237747
-0.12275149 -0.10603177 0.06305819 -0.15114856 -0.14356086 0.09631291 -0.03149006 -0.028854404
-0.03586781 -0.15385808 -0.1655276 -0.12914896 0.016117733 -0.079910696 -0.008027159 -0.15258503
0.041467596 -0.09924655 -0.01801083 -0.14710034 0.008198513 0.012644679 -0.18179311 -0.039999034
0.04124841 0.023918387 -0.08865513 0.038260307 -0.14777926 -0.120950885 0.020774238 -0.11543837
0.04765471 -0.082599424 -0.100389026 0.04383497 0.07789915 -0.063104734 0.12326862 -0.01225506
-0.10719431 -0.02670748 -0.12478041 0.0051053455 -0.089682 -0.083526604 -0.014549356 0.0067985035
-0.03423552 -0.116466746 -0.11316622 -0.021990512 0.055093426 -0.033337433 0.061404023 0.00763783
-0.06074393 -0.022708073 -0.054842874 -0.06871617 -0.09186887 0.073829055 -0.036707956 -0.10222159
-0.09412857 -0.11247326 -0.014985624 0.045148514 0.027612727 -0.013110417 0.06605971 -0.09709057
-0.15207215 -0.020482268 -0.13359365 -0.026619587 -0.0077353683 -0.12684615 0.018100556 -0.06319877
0.109910585 0.10704294 0.06709675 -0.11954522 -0.08981862 -0.19645716 0.1525815 0.2877756
0.1234631 0.25393566 0.21767086 0.25926876 0.040675335 0.056157243 0.12104466 -0.29368457
-0.31652713 -0.33178446 -0.07420272 -0.1332637 0.070447 0.04054599 0.13565241 0.097895846
0.20878024 -0.010845022 -0.017421836 0.14825061 0.1958775 0.25330064 0.2839961 0.13545227
0.25117442 -0.009544075 -0.023023047 0.021512695 0.041860882 0.0047591277 -0.0124188205 0.05832881
0.02929585 -0.052415743 -0.033007625 -0.09751997 -0.047301587 -0.16582757 -0.2717495 -0.10222811
-0.24565774 -0.16911967 -0.1440207 -0.15232801 -0.14382705 -0.21142924 0.029198248 -0.028501838
-0.049907327 -0.41566837 -0.2763703 -0.34485948 -0.55271393 -0.38209504 -0.47207922 0.11228713
0.052845944 0.0770759 -0.14680697 -0.20479108 0.030523181 -0.011746043 -0.105329365 0.027987082
0.17540108 0.2646067 0.052649803 0.14780337 0.2555999 0.22442758 -0.04898296 0.138385
-0.01875346 0.17270626 0.15596658 -0.04916201 0.3339321 0.28097114 0.15641306 0.3141894
0.19493864 0.24934927 0.029622726 -0.20787913 -0.43299207 -0.38799712 -0.76368356 -0.7286675
-0.40793815 -0.45414606 -0.5009611 0.2572182 -0.08998054 -0.116485156 0.37781337 0.20032252
-0.14169452 0.19391184 0.04430731 0.10040362 0.06415844 0.06051633 -0.011651836 -0.04572322
00000000: e83b 683d 06d8 11bd 1e97 bd3c 203c 5bbd
00000010: f1e5 c9bd f3ee b8bd a1af 83bd 7b58 a33d
00000020: 9970 32be 8ea5 803d cdfd 983d 3efd c0bd
00000030: bf98 2dbe 2249 f4bc e8a1 dcbd 7c89 903c
00000040: 4061 22bd 5fa9 6d3d 608e babd 784e 603d
00000050: 30c5 47bc 6af1 1abd eca5 e83a 0a4a b03c
00000060: efa1 c6bd 9533 bcbd 411a 7bbd b8d4 76bc
00000070: 1ec0 853d 34ee b53d 6d74 c7b9 f336 983c
00000080: cced 42bd b572 9b3d a3e9 933d b030 17be
00000090: e910 e8bd f3dc 64bd 7475 f5bd 8016 25be
000000a0: 4133 06be 48d0 29be 0bd5 003b bec5 07be
000000b0: 1ed4 253c 6465 66bb 0349 1a3e 6a06 e3bb
000000c0: ec77 05bd 6af6 46bd d90a 1d3d 277d b7bd
000000d0: d0d3 7c3b 68d1 823d 10c1 3cbc 810b c5bc
000000e0: 395d fbbd 636c 113d 9288 193d d42f e2bb
000000f0: 9ecb 07be ddad 113d 1fb1 0dbe dbbb 763d
00000100: 2265 fbbd 2f27 d9bd a724 813d b0c6 1abe
00000110: 9e01 13be b43f c53d b9fb 00bd 1260 ecbc
00000120: 20ea 12bd f98c 1dbe 1180 29be a03f 04be
00000130: 5609 843c 38a8 a3bd 5884 03bc 403f 1cbe
00000140: edd9 293d c641 cbbd 738b 93bc 79a1 16be
00000150: 0e53 063c a12b 4f3c f927 3abe 07d6 23bd
00000160: 18f4 283d 7ef0 c33c d290 b5bd d7b6 1c3d
00000170: 7253 17be 19b5 f7bd bc2e aa3c f46a ecbd
00000180: 9631 433d e329 a9bd c398 cdbd 4c8c 333d
00000190: 9789 9f3d 0e3d 81bd 4274 fc3d 72c9 48bc
000001a0: b188 dbbd a5c9 dabc df8c ffbd be4a a73b
000001b0: 32ab b7bd ff0f abbd 6c60 6ebc fbc5 de3b
000001c0: 8b3a 0cbd 1e86 eebd b1c3 e7bd 7225 b4bc
000001d0: a5a9 613d d58c 08bd c982 7b3d c346 fa3b
000001e0: a1ce 78bd 4806 babc eca2 60bd 10bb 8cbd
000001f0: bf25 bcbd b033 973d 155b 16bd 8e59 d1bd
00000200: 7bc6 c0bd 6158 e6bd 4386 75bc a6ed 383d
00000210: 1634 e23c 13cd 56bc 504a 873d 6cd7 c6bd
00000220: cdb8 1bbe 6eca a7bc c6cc 08be 5211 dabc
00000230: f978 fdbb f5e3 01be 9e47 943c 5b6e 81bd
00000240: cd18 e13d 5439 db3d 056a 893d 20d4 f4bd
00000250: d3f2 b7bd 112c 49be 533e 1c3e 5357 933e
00000260: 39da fc3d db03 823e 1ce5 5e3e e0be 843e
00000270: 2e9b 263d 2305 663d 43e6 f73d d35d 96be
00000280: d80f a2be a7df a9be 98f7 97bd 4876 08be
00000290: 8446 903d 8d13 263d 77e8 0a3e 9e7d c83d
000002a0: 7dca 553e 52af 31bc 3db8 8ebc 02cf 173e
000002b0: 1d94 483e 9fb0 813e f067 913e 00b4 0a3e
000002c0: ef99 803e c05e 1cbc d49a bcbc 643b b03c
000002d0: 5176 2b3d 75f2 9b3b 4f78 4bbc 31ea 6e3d
000002e0: dafd ef3c e4b1 56bd 0133 07bd 8db8 c7bd
000002f0: 4fbf 41bd b4ce 29be c022 8bbe f95c d1bd
00000300: b48d 7bbe b52d 2dbe 2a7a 13be e0fb 1bbe
00000310: 6647 13be e880 58be 2a31 ef3c b07c e9bc
00000320: a06b 4cbd 7cd2 d4be 6880 8dbe 6c91 b0be
00000330: a97e 0dbf f6a1 c3be 5eb4 f1be cbf6 e53d
00000340: fd74 583d f8d9 9d3d 9154 16be c1b4 51be
00000350: c00b fa3c 7a72 40bc ecb6 d7bd 2a45 e53c
00000360: 579c 333e 887a 873e 52a7 573d c459 173e
00000370: fddd 823e 58d0 653e 5ba2 48bd ccb4 0d3e
00000380: dba0 99bc e9d9 303e b4b5 1f3e 1b5e 49bd
00000390: 26f9 aa3e 73db 8f3e bf2a 203e 6fdd a03e
000003a0: ff9d 473e 6a55 7f3e 5cab f23c 44de 54be
000003b0: 23b1 ddbe 8fa7 c6be c480 43bf f489 3abf
000003c0: 45dd d0be d585 e8be fd3e 00bf 1bb2 833e
000003d0: b847 b8bd c58f eebd c170 c13e 5921 4d3e
000003e0: 5e18 11be d390 463e 957b 353d 6aa0 cd3d
000003f0: 8065 833d f9df 773d 58e7 3ebc 4548 3bbd

conv2.bias f4 [16]
-0.09817018 -0.13792138 -0.16273347 0.11102806 -0.17700942 0.13751474 -0.053488113 0.15468055
-0.11271297 -0.2093135 0.14433458 -0.2120823 -0.080644675 -0.08823259 0.056496345 0.19485432
00000000: 730d c9bd 433b 0dbe 9aa3 26be ae62 e33d
00000010: f541 35be aad0 0c3e 5a16 5bbd 9464 1e3e
00000020: 0fd6 e6bd 4756 56be 72cc 133e 1a2c 59be
00000030: 0929 a5bd 4ab3 b4bd b668 673d e487 473e

fc2.weight f4 [12, 8464]
0.0090540545 -0.009964555 0.009325205 0.0022966135 -0.00043327268 0.010487082 0.0049359193 -0.0077550076
-0.0023333253 -0.006141195 -0.010392665 0.010561005 -0.005652706 0.0004433319 -0.00469214 -0.009885419
0.008444781 -0.00512414 -0.0003510546 0.0093988 0.0057759313 0.009132815 0.00051410217 0.0062121106
-0.010064389 -0.009376575 -0.0037816893 -0.0046107275 -0.0021087052 0.0012425426 -0.0008446742 -0.005760328
-0.008751998 -0.0062463335 0.0058790566 0.01057279 0.0056188246 -0.0034199385 -0.0061859074 0.0018356945
0.007858372 -0.003141757 0.00473882 0.008758967 0.009573461 -0.0063549657 0.0020123543 0.0024644407
-0.0052130106 0.0005036192 -0.008565019 0.0012606271 -0.010310013 0.0057883775 0.0004076138 -0.0073069283
0.004344605 0.006407927 0.008742874 -0.0024627987 -0.0021761814 0.0010073548 0.0029899646 0.009350051
0.0013713958 0.002103 0.006930121 0.0016706157 0.010228719 -0.008484777 0.0072753364 -0.007253414
0.0049198093 -0.004475095 -0.0032297708 -0.00081804674 0.005286197 0.009125986 0.003399035 0.0010152282
0.0013310118 -0.002652241 0.0024754014 0.008666162 0.009076103 0.0011174744 -0.008579494 -0.008156085
-0.0001234645 0.010100695 0.0066446746 -0.0050313575 -0.009404984 0.002079092 -0.004775524 0.0071391547
0.0065228166 -0.009134805 -0.0020391345 0.0035835877 0.006226956 -0.0032753013 -0.007312447 0.002057922
-0.0016303034 0.0011288421 0.009158521 -0.005030386 0.0020340346 0.00060801953 -0.008339858 0.009983842
-0.01052 0.01057773 -0.01232391 -0.0016662078 0.0069635427 0.004200631 -0.010316806 -0.006203689
0.004149476 0.0026082126 -0.0014739875 -0.007070758 0.008485167 0.00022501685 0.010703438 0.0050131558
-0.0016857414 -0.0011529326 0.010792098 0.00394547 -0.0003295876 0.00850051 -0.009055451 -0.00034899544
0.0035245642 0.0010154666 0.010336348 -0.0042914217 0.0053449003 -0.009660503 0.010745664 -0.009163807
-0.004198401 -0.0081283245 -0.008702182 -0.006726791 -0.0058305953 -0.00748252 -0.0025875727 0.009708422
-0.0070034787 -0.008130461 0.0074131647 -0.006040682 -0.0011725016 0.0021867938 -0.004018618 -0.0014812378
-0.009662916 0.0014992943 -0.010075671 -0.0061459555 -0.004998925 -0.0079165725 0.0007951297 -0.0009943945
-0.009105224 0.0017849905 0.003355815 -0.00770229 -0.0036691166 -0.008448482 0.0047365986 0.0037002955
-0.0015602205 -0.009879921 -0.0075583085 -0.010523356 0.0052138297 -0.0077186944 -0.00883249 0.0036757356
0.0021982845 -0.009120328 0.0076241056 -0.006707014 0.006418475 -0.009576879 0.008520697 0.00045183394
0.0018304791 -0.005404651 0.010110532 -0.0048052515 -0.009889558 0.0026050285 0.0011367658 -0.00044932682
-0.0023185043 -0.0021449728 0.0043139625 0.00015771482 0.0075486945 0.0030556815 -0.0033346987 0.010507111
-0.0078167375 0.0013638632 -0.00598567 -0.0066040005 -0.004694831 1.8049963e-05 0.0002077641 -0.0068638376
0.0008330522 -0.0075587244 0.008639327 0.0001912089 0.008666639 -0.00017231423 0.001612775 -0.005915059
-0.0074577113 -0.002365671 0.0018527508 0.0036294367 -0.009733391 2.5345013e-05 -0.0022986326 0.010645653
0.0069242725 -0.00030537508 -0.00016610418 -0.0004066648 -0.002130949 -0.00021821167 0.0007898677 0.0059088906
0.005033604 0.00793917 0.0073248213 0.0071759364 -0.004732907 -0.009117812 0.0030629467 -0.008297787
-0.0069559696 0.0067065535 -0.008399803 0.0051040696 -0.010595759 0.0067733107 0.00434509 0.008421102
00000000: 7557 143c 5f42 23bc bfc8 183c c882 163b
00000010: e028 e3b9 03d2 2b3c 7ebd a13b b81d febb
00000020: b4ea 18bb 143c c9bb ff45 2abc 1108 2d3c
00000030: 563a b9bb 006f e839 86c0 99bb 74f6 21bc
00000040: fb5b 0a3c 67e8 a7bb c00d b8b9 6dfd 193c
00000050: 0644 bd3b cda1 153c d0c4 063a f68e cb3b
00000060: 1be5 24bc 35a0 19bc 38d6 77bb 9615 97bb
00000070: 3432 0abb d0dc a23a 206d 5dba 22c1 bcbb
00000080: 8a64 0fbc 0bae ccbb 1aa5 c03b 7f39 2d3c
00000090: 1e1e b83b 0c21 60bb 27b3 cabb b09b f03a
000000a0: 67c0 003c f0e5 4dbb 1a48 9b3b c581 0f3c
000000b0: 01da 1c3c 513d d0bb b4e1 033b 7482 213b
000000c0: e7d1 aabb 5005 043a 4b54 0cbc a03b a53a
000000d0: 54eb 28bc 6eac bd3b 00b5 d539 f56e efbb
000000e0: 305d 8e3b 96f9 d13b 453e 0f3c e866 21bb
000000f0: 449e 0ebb 3809 843a 48f3 433b f530 193c
00000100: 68c0 b33a 7cd2 093b 1216 e33b 90f8 da3a
00000110: 5b96 273c bc03 0bbc f265 ee3b 0cae edbb
00000120: 5a36 a13b d1a3 92bb 90aa 53bb 3072 56ba
00000130: d637 ad3b 2985 153c 58c2 5e3b 6811 853a
00000140: 5875 ae3a 38d1 2dbb 583a 223b 85fc 0d3c
00000150: efb3 143c 3878 923a 0291 0cbc 1aa1 05bc
00000160: 4076 01b9 637d 253c 92bb d93b 16de a4bb
00000170: 5d17 1abc 6041 083b 007c 9cbb 92ef e93b
00000180: 5abd d53b 26aa 15bc 00a3 05bb a0da 6a3b
00000190: 7e0b cc3b 70a6 56bb 409d efbb 34de 063b
000001a0: e8af d5ba a8f5 933a 9f0d 163c f0d5 a4bb
000001b0: 704d 053b 8063 1f3a e6a3 08bc 4593 233c
000001c0: 145c 2cbc 374e 2d3c 3aea 49bc a864 daba
000001d0: 6e2e e43b 72a5 893b d207 29bc 5148 cbbb
000001e0: 54f8 873b 8cee 2a3b d032 c1ba d1b1 e7bb
000001f0: 5f05 0b3c 80f2 6b39 795d 2f3c 6645 a43b
00000200: 18f4 dcba 001e 97ba 57d1 303c 0049 813b
00000210: 80cc acb9 b945 0b3c 505d 14bc 60f9 b6b9
00000220: 60fc 663b 6819 853a c959 293c 0e9f 8cbb
00000230: 4624 af3b 1647 1ebc 950e 303c cb23 16bc
00000240: bd92 89bb aa2c 05bc 9993 0ebc 6a6c dcbb
00000250: 940e bfbb ed2f f5bb 4494 29bb 1310 1f3c
00000260: 707d e5bb a035 05bc 22ea f23b eaf0 c5bb
00000270: a0ae 99ba 5050 0f3b 9cae 83bb 1826 c2ba
00000280: 3551 1ebc f883 c43a 6d14 25bc 0364 c9bb
00000290: 06ce a3bb 83b4 01bc 4070 503a 5856 82ba
000002a0: 142e 15bc 58f6 e93a 3ced 5b3b 7e63 fcbb
000002b0: 9075 70bb 806b 0abc 7835 9b3b a880 723b
000002c0: 5080 ccba 64df 21bc b0ab f7bb 276a 2cbc
000002d0: c6d8 aa3b 1aed fcbb 26b6 10bc 9ce4 703b
000002e0: 1811 103b 6e6d 15bc a2d3 f93b 83c6 dbbb
000002f0: 1252 d23b 58e8 1cbc 659a 0b3c 20e4 ec39
00000300: b0ec ef3a 8019 b1bb a5a6 253c 5f75 9dbb
00000310: d007 22bc 20b9 2a3b 88ff 943a a093 ebb9
00000320: 0cf2 17bb ac92 0cbb 245c 8d3b 4060 2539
00000330: 0a5b f73b d441 483b f68a 5abb 0526 2c3c
00000340: c611 00bc a8c3 b23a 7023 c4bb 5f66 d8bb
00000350: 19d7 99bb 006a 9737 40db 5939 0bea e0bb
00000360: 3061 5a3a 2daf f7bb f78b 0d3c 407f 4839
00000370: 85fe 0d3c 40af 34b9 c063 d33a 1cd3 c1bb
00000380: d15f f4bb 6009 1bbb 00d8 f23a d8db 6d3b
00000390: cd78 1fbc 009c d437 a8a4 16bb 1b6b 2e3c
000003a0: 02e5 e23b c01a a0b9 402c 2eb9 a035 d5b9
000003b0: 64a7 0bbb c0cf 64b9 200f 4f3a 5e9f c13b
000003c0: eef0 a43b 4b13 023c 0e05 f03b 1e24 eb3b
000003d0: 8016 9bbb e062 15bc b8bb 483b 71f3 07bc
000003e0: e7ee e3bb a6c2 db3b 549f 09bc 0a40 a73b
000003f0: d699 2dbc a6f2 dd3b 4261 8e3b a9f8 093c

fc2.bias f4 [12]
-0.101305015 0.022422757 -0.007874708 -0.0958986 -0.052465454 -0.060829904 0.0035770694 0.29608974
-0.085561626 -0.079118736 0.050807778 -0.05694163
00000000: 0179 cfbd eeaf b73c eb04 01bc 7c66 c4bd
00000010: 04e6 56bd c728 79bd 446d 6a3b 1399 973e
00000020: ef3a afbd 0109 a2bd d11b 503d a03b 69bd
