models/100epoch_5fold_2conv_focal_model04.pt (torch, 414631 bytes, 6 tensors)

conv1.weight f4 [8, 3, 3, 3]
0	0xbd77ed09	-0.06052879
1	0x3c6f3602	0.014600279
2	0x3cb407ff	0.02197647
3	0x3c252a27	0.010080851
4	0xbc1ae6e0	-0.009454459
5	0x3dbf37fe	0.093368515
6	0x3d02c3b9	0.031924937
7	0xbe0fbd47	-0.14037047
8	0xbe157e3a	-0.14598933
9	0x3d4a588e	0.04940086
10	0x3e04a9fb	0.12955467
11	0x3da05ba6	0.078299806
12	0x3dc88258	0.09790486
13	0x3c10f9d9	0.008848631
14	0xbe47661a	-0.19472542
15	0x3e053abf	0.13010691
16	0x3e2a6870	0.16641402
17	0xbdb97ced	-0.09057031
18	0xbe33e1b4	-0.17566568
19	0xbe0d54e4	-0.13801914
20	0x3ba0c1c7	0.0049059126
21	0xbe096f4e	-0.13421366
22	0x3cc432a7	0.023949934
23	0xbd60a5a6	-0.054845475
24	0xbe46d971	-0.19418885
25	0x3ce735cb	0.028223893
26	0x3d249483	0.040180694
27	0xbdc36463	-0.095406316
28	0x3d9d615f	0.07684588
29	0xbd9e666e	-0.07734381
30	0xbe26a9f3	-0.16275768
31	0x3c959af2	0.01826236
32	0xbd8ced43	-0.068811916
33	0xbe45031d	-0.19239469
34	0xbe812b98	-0.25228572
35	0xbe66c1e8	-0.22534907
36	0xbcef509a	-0.029213239
37	0xbd17abec	-0.03702919
38	0xbd835d75	-0.0641431
39	0xbe74a3fd	-0.23890682
40	0xbe0764ee	-0.13222095
41	0x3e2be60e	0.16786978
42	0xbe8c4bc2	-0.2740155
43	0xbd936adf	-0.071981184
44	0xbeac36d3	-0.33635578
45	0x3e297bf8	0.16551197
46	0x3dded3f1	0.10880268
47	0x3e55a9bc	0.2086553
48	0xbe0a16b9	-0.1348523
49	0x3e834dd7	0.25645325
50	0x3d67c7ad	0.05658691
51	0x3b69d497	0.0035679692
52	0xbe8b495b	-0.27204403
53	0xbde9d2bd	-0.11417148
54	0xbc549b76	-0.012976518
55	0x3d8d5e25	0.06902722
56	0xbe5aeda2	-0.21379712
57	0xbd85ace5	-0.06527118
58	0xbe7b24b8	-0.24525726
59	0x3db37618	0.08762759
60	0x3d00ad6d	0.03141539
61	0x3e098276	0.13428673
62	0x3eb90181	0.3613396
63	0xbdf02e1f	-0.11727547
64	0xbdf3227d	-0.118718125
65	0xbd2b6a44	-0.04184939
66	0xbe39ad4f	-0.18132518
67	0xbd8fb306	-0.07016568
68	0xbce558e1	-0.027996482
69	0x3e47be78	0.19506252
70	0xbd6064dc	-0.054783687
71	0x3d9e4742	0.07728435
72	0x3d912341	0.07086802
73	0xbe1a64df	-0.15077542
74	0x3d279f80	0.040923595
75	0xbe0cc87a	-0.1374835
76	0xbe712ac5	-0.23551472
77	0x3dde4fa2	0.108550325
78	0x3e03b655	0.12862523
79	0x3de76e86	0.113003775
80	0x3e7a3fb2	0.2443836
81	0xbc1ae72a	-0.009454528
82	0xbe086ece	-0.13323519
83	0xbe8a157d	-0.2696952
84	0x3e7eb8c4	0.2487517
85	0xbd8cdb27	-0.068777375
86	0x3ccecd58	0.0252444
87	0x3e90ba04	0.2826692
88	0x3e7d5ccc	0.2474243
89	0xbdbfdaf6	-0.09367935
90	0x3e008a65	0.12552793
91	0xbd83f825	-0.06443814
92	0xbe04906d	-0.12945719
93	0x3e8258d2	0.2545839
94	0x3e1621fd	0.14661403
95	0xbdb1bf3b	-0.086790524
96	0x3e587e17	0.2114185
97	0xbe056a4a	-0.13028827
98	0x3dae8007	0.08520513
99	0x3dd6ce99	0.10488624
100	0xbde300fe	-0.110841736
101	0xbe83b6de	-0.25725454
102	0xbe131e49	-0.14367022
103	0x3cbe07b2	0.023197029
104	0xbe4a254e	-0.19740793
105	0xbcf8595e	-0.030316051
106	0xbdb974ea	-0.09055503
107	0xbde96a3c	-0.11397216
108	0xbe774024	-0.24145561
109	0xbdd77c5c	-0.105217665
110	0xbe757c0b	-0.239731
111	0x3ccf42f3	0.025300479
112	0x3d5d3e63	0.054014575
113	0xbde9a6f2	-0.114087954
114	0xbdf82ef6	-0.12118332
115	0xbe3a7c63	-0.18211512
116	0xbe141c6a	-0.14463964
117	0x3e4c47e2	0.19949296
118	0xbe14aa59	-0.14518107
119	0xbe1fa672	-0.15590838
120	0xbd903b8b	-0.07042607
121	0xbe0c792c	-0.13718098
122	0xbd2bf3d2	-0.041980572
123	0x3d0c3c58	0.034237236
124	0xbe181d98	-0.14855039
125	0xbe075d0a	-0.13219085
126	0x3d994e55	0.07485644
127	0x3e935870	0.2877841
128	0x3d8630b2	0.06552257
129	0xba2c7187	-0.0006578196
130	0x3e9d2052	0.3068872
131	0x3e56c549	0.20973696
132	0x3e3851b6	0.1799992
133	0x3e4d3aec	0.20042008
134	0x3e059cdd	0.1304812
135	0x3e2b0748	0.16701996
136	0xbe31f737	-0.17379461
137	0xbc6e914a	-0.014561007
138	0xbda596e1	-0.080854185
139	0xbdced394	-0.10098949
140	0x3d15877f	0.036506172
141	0xbc2c8d36	-0.010531714
142	0xbcbb4daf	-0.02286419
143	0xbc3005eb	-0.010743598
144	0xbd5b5028	-0.05354324
145	0xbd0e0f2e	-0.034682445
146	0xbe4b2707	-0.19839107
147	0x3e0a9a82	0.13535503
148	0xbe37d815	-0.17953523
149	0x3c5bb793	0.013410467
150	0x3d7c3fe0	0.061584353
151	0x3e118f98	0.14214933
152	0x3dd92ba8	0.1060403
153	0x3e207c97	0.15672527
154	0x3d3ce824	0.046119824
155	0x3e236943	0.15958123
156	0x3e467357	0.19379936
157	0x3d719375	0.058978517
158	0x3e68bda8	0.22728598
159	0x3e78c76f	0.24294828
160	0x3e376fe6	0.1791378
161	0x3d11f954	0.03563817
162	0xbe9c3c0e	-0.30514568
163	0xbe8d3ae6	-0.27583998
164	0xbea32915	-0.3186728
165	0xbda48c44	-0.08034566
166	0xbc8d1280	-0.017220736
167	0x3d9017c0	0.0703578
168	0xbe36b735	-0.17843325
169	0x3b8f0119	0.0043641445
170	0xbe165be6	-0.14683494
171	0x3c66ab20	0.014078885
172	0xbeb31ac2	-0.34981352
173	0xbe03f8b7	-0.12887846
174	0xbcf5f42f	-0.030023662
175	0x3e2777d8	0.1635431
176	0x3cc63a40	0.024197698
177	0x3d1a8773	0.03772683
178	0x3e447c07	0.19187938
179	0xbe0d3189	-0.13788427
180	0x3d8b58bc	0.06804034
181	0xbe9c7f91	-0.30566075
182	0xbe630c3d	-0.22172637
183	0xbd850050	-0.064942
184	0x3e171483	0.14753918
185	0xbe18e765	-0.1493202
186	0x3ea352e8	0.3189919
187	0x3e0cb3a3	0.13740401
188	0x3e840472	0.25784642
189	0xbaf86056	-0.0018949609
190	0x3e8525e9	0.26005486
191	0x3d81bb6a	0.063345745
192	0xbe97104d	-0.29504624
193	0x3d075e21	0.033048753
194	0xbcc976a4	-0.024592705
195	0xbe599317	-0.21247517
196	0xbe89cd02	-0.2691422
197	0x3d8f0cc1	0.069848545
198	0x3d84033e	0.06445931
199	0x3cc19442	0.023630265
200	0x3e8e543c	0.2779864
201	0xbe881b4d	-0.2658333
202	0x3de6e918	0.11274928
203	0xbdff6086	-0.12469582
204	0x3e2c8aea	0.16849867
205	0xbdc471a7	-0.0959199
206	0xbe3cb19f	-0.18427132
207	0xbe04e3d6	-0.12977538
208	0xbd0f3c52	-0.034969635
209	0x3dbc4c39	0.09194226
210	0xbdc22f7d	-0.09481714
211	0x3e396ab7	0.18107115
212	0xbb7f5fac	-0.0038966937
213	0xbdafa17c	-0.085757226
214	0xbde04efe	-0.109525666
215	0x3e24f24c	0.16108054

conv1.bias f4 [8]
0	0xbe3dba32	-0.18528059
1	0x3eadd472	0.33951145
2	0xbdea7aba	-0.114491895
3	0x3d68a3d2	0.056796856
4	0x3e7d9d2c	0.24766988
5	0xbe84371e	-0.258233
6	0x3e623c1b	0.22093241
7	0x3e948364	0.29006493

conv2.weight f4 [16, 8, 3, 3]
0	0x3dbb8a81	0.09157277
1	0x3d95c5a8	0.073130906
2	0x3d5d5c22	0.054042943
3	0xbd262f16	-0.04057225
4	0xbd9d9a94	-0.07695499
5	0x3d85ac0c	0.06526956
6	0x3dd79d07	0.105279975
7	0xbdabefc0	-0.08395338
8	0xbbb4c953	-0.005517164
9	0xbe50b25c	-0.20380539
10	0xbd94ef98	-0.072722614
11	0xbe31fb2b	-0.17380969
12	0xbe9c2201	-0.30494693
13	0xbe68034f	-0.22657512
14	0xbd2be50b	-0.04196648
15	0xbe98d4a4	-0.29849732
16	0xbe4186c8	-0.18899071
17	0xbe0bf808	-0.13668835
18	0xbe05c9fc	-0.13065332
19	0xbdacf4fc	-0.084451646
20	0xbe19a71f	-0.15005158
21	0x3dafad94	0.08578029
22	0x3e2a7928	0.1664778
23	0x3b56bf13	0.0032767698
24	0xbd86a5f7	-0.06574624
25	0xbbc521d7	-0.006015997
26	0x3d19671b	0.037451845
27	0xbeacffd5	-0.33788934
28	0xbe2da407	-0.16957103
29	0xbe11acf0	-0.14226127
30	0xbf26bb14	-0.6512921
31	0xbecb089e	-0.39655012
32	0xbded7ae9	-0.11595709
33	0xbf3e09ac	-0.7423351
34	0xbef8e645	-0.48613182
35	0xbd8a44bf	-0.067513935
36	0x3d46ffd8	0.048583835
37	0x3e2547f4	0.16140729
38	0x3e588f28	0.2114836
39	0x3eaa3faa	0.33251697
40	0x3ea1a31e	0.3156976
41	0x3ed540db	0.41651043
42	0x3ea25670	0.31706572
43	0x3ecfc782	0.405819
44	0x3eda61fc	0.4265288
45	0xbddc1002	-0.10745241
46	0xbda9f485	-0.082985915
47	0xbe62d54a	-0.22151676
48	0x3d05bc69	0.032650385
49	0x3d1b068d	0.037848044
50	0xbd3c6da6	-0.046003006
51	0x3d2dbb20	0.042414784
52	0x3d3a6aa9	0.045511875
53	0xbc2eb6b4	-0.010663677
54	0xbe2e7ea7	-0.17040502
55	0xbe1b55ab	-0.15169398
56	0xbe40e148	-0.18835938
57	0xbd0f1be4	-0.034938708
58	0x3c8bf4ce	0.017084505
59	0xbd953468	-0.07285386
60	0xbe9f99af	-0.3117194
61	0xbe9258bf	-0.28583333
62	0xbd09b7e9	-0.033622656
63	0xbcddb22b	-0.027062496
64	0xbd3ee9a6	-0.046609543
65	0xbdf8ff0b	-0.121580206
66	0xbd5b1560	-0.05348718
67	0xbd45b512	-0.048268385
68	0xbdc5e021	-0.0966189
69	0xbcb03f2c	-0.021514498
70	0xbe27a6dc	-0.16372246
71	0xbdc3cfb8	-0.095611036
72	0xbdd818a2	-0.10551573
73	0x3cb0452b	0.021517357
74	0x3dcf8e17	0.10134523
75	0x3b87fdb0	0.004150115
76	0x3db12e6f	0.08651435
77	0x3bdb2f30	0.006688975
78	0xbde83447	-0.11338096
79	0xbd83715f	-0.06418108
80	0xbd796a5b	-0.060892444
81	0xba1d8621	-0.00060090615
82	0x3d1cf661	0.038320903
83	0xbe7f7708	-0.2494775
84	0xbe68e75b	-0.22744505
85	0xbc433482	-0.011914374
86	0xbc84a970	-0.016194075
87	0xbdb14e48	-0.08657509
88	0x3ca971ee	0.020684209
89	0xbdec6e76	-0.11544506
90	0x3e476274	0.1947115
91	0x3e83f828	0.25775266
92	0x3e596ec8	0.21233666
93	0xbf23e4c9	-0.64020973
94	0xbcbee263	-0.023301309
95	0xbbb1add0	-0.0054223314
96	0x3e14d004	0.14532477
97	0x3e048bbc	0.1294393
98	0x3d907f00	0.07055473
99	0x3d73da38	0.05953428
100	0x3de5ae40	0.11214876
101	0xbd1ef18e	-0.038804583
102	0xbc2cf2b1	-0.010555909
103	0x3ea385fb	0.31938156
104	0x3d0bbdc3	0.034116518
105	0x3e88b366	0.2669937
106	0x3eb1e809	0.3474734
107	0xbe4ad8f7	-0.19809328
108	0xbe3df2d0	-0.18549657
109	0x3d46809b	0.04846249
110	0xbe2199d9	-0.15781344
111	0xbb56dad1	-0.0032784233
112	0x3e6fb498	0.23408735
113	0xbd9ce865	-0.07661513
114	0x3c95c946	0.018284451
115	0x3e039043	0.12848
116	0xbe14efda	-0.14544621
117	0xbca031ac	-0.019554935
118	0x3e2d0ff8	0.16900623
119	0x3c6232ea	0.013806084
120	0xbdb6bb3a	-0.089224294
121	0x3d66449a	0.056217767
122	0x3d7ac61f	0.0612241
123	0xbd9a9e73	-0.07549753
124	0x3c07b605	0.008283143
125	0xbc11d005	-0.008899693
126	0xbd0e6cfa	-0.034771897
127	0xbd8a184b	-0.06742915
128	0xbd21271d	-0.039343942
129	0xbe09f80b	-0.13473527
130	0x3e21cf84	0.15801817
131	0xbddcc478	-0.10779661
132	0xbe54345e	-0.20723101
133	0xbddca2bb	-0.10773226
134	0xbe130f7c	-0.14361376
135	0xbd6d8a73	-0.057993364
136	0x3c6bd1a6	0.014393246
137	0x3e8b51eb	0.27210936
138	0xbdee6632	-0.11640586
139	0x3e15a736	0.14614567
140	0x3eadb6aa	0.33928424
141	0xbeae4e0c	-0.3404392
142	0xbe6cf6fb	-0.2314109
143	0x3d416fd9	0.047225807
144	0xbb59fe00	-0.0033262968
145	0x3cd62a6c	0.026143275
146	0x3dc1b037	0.094574384
147	0xbd9a70b0	-0.07541025
148	0xbcd14b9c	-0.025548749
149	0xbdb6e302	-0.08930017
150	0xbdb98fc2	-0.09060623
151	0xbda72a0b	-0.08162316
152	0xbdb66893	-0.08906665
153	0xbde04cb3	-0.10952129
154	0x3c018147	0.007904357
155	0xbdfb7041	-0.1227727
156	0xbd365e3c	-0.044523463
157	0xbbf89b36	-0.007586862
158	0xbdf04da2	-0.11733557
159	0x3cd71cc4	0.026258834
160	0x3aed7fa6	0.0018119707
161	0x3cdf5b54	0.027265228
162	0x3b08f202	0.00208962
163	0xbdb4a531	-0.0882057
164	0x3ca1fba2	0.019773308
165	0x3c9eb4e4	0.019373365
166	0xbd1abf4f	-0.037780102
167	0xbe1a7a38	-0.15085685
168	0x3d92b7d5	0.071639694
169	0xbdc32cbb	-0.09530016
170	0x3db475c5	0.08811525
171	0xbe13ab3f	-0.14420794
172	0xbc933bae	-0.017972793
173	0xbd9e55f6	-0.077312395
174	0x3c8f42c7	0.017487897
175	0xbbff3cb3	-0.0077892183
176	0xbbeca2a3	-0.0072215362
177	0xbd05ca76	-0.032663785
178	0xbdcc2269	-0.09967501
179	0xbd8b4f99	-0.068022914
180	0xbcfc6b4d	-0.030812884
181	0x3cd12717	0.025531335
182	0xbcd8792e	-0.02642497
183	0xbd95a7a2	-0.07307364
184	0xbe1ee4e9	-0.1551701
185	0xbd53c53c	-0.05170177
186	0xbe1928b3	-0.14956932
187	0xbd8f7ad5	-0.0700585
188	0xbd3b0aa1	-0.045664433
189	0xbe037744	-0.12838465
190	0xbd9fefee	-0.07809435
191	0xbb4cf2ba	-0.0031272606
192	0xbdb1126d	-0.086460926
193	0x3c9e5af6	0.019330483
194	0xbddbb27d	-0.10727403
195	0xbde64012	-0.11242689
196	0x3d3f4e2e	0.046705417
197	0xbb22f060	-0.0024862513
198	0x3d33cdd7	0.043897476
199	0xbdb6061b	-0.08887883
200	0xbe0aecb1	-0.13566853
201	0xbdcb4489	-0.099251814
202	0xbde9f8a1	-0.11424375
203	0xbd910e41	-0.07082797
204	0x3b8bc20b	0.004265075
205	0xbe2f1c7b	-0.17100708
206	0xbd33480c	-0.04376988
207	0xbc650e2b	-0.013980429
208	0xbd2babb3	-0.041911792
209	0x3aaa7706	0.0013005442
210	0x3aace365	0.0013190327
211	0x3b344505	0.002750696
212	0xbd6bc815	-0.05756386
213	0xbe0d2897	-0.13785015
214	0x3d4e0d3a	0.050305583
215	0x3c9e9096	0.019356053
216	0xbdcd6fd3	-0.100310944
217	0xbe065193	-0.13117056
218	0xbc53ac2f	-0.01291947
219	0x3d9d4b62	0.07680394
220	0xbddec40e	-0.10877238
221	0x3b46fc58	0.003036281
222	0x3d378ada	0.044810154
223	0x3d2a075a	0.041510917
224	0xbcaa325a	-0.020775963
225	0xbf49b275	-0.7878793
226	0xbf1f8f93	-0.6232845
227	0xbf1ca37b	-0.6118695
228	0xbf5c8223	-0.8613607
229	0xbf1e93e3	-0.6194441
230	0xbf46fcca	-0.77729475
231	0xbf71888c	-0.9434898
232	0xbf26c79a	-0.6514832
233	0xbf561ac3	-0.83634585
234	0xbea5e14a	-0.32398444
235	0xbea0d500	-0.31412506
236	0xbd2f455c	-0.042790756
237	0xbedb53c4	-0.42837346
238	0xbe6c9493	-0.23103552
239	0xbe6a2d6a	-0.22868887
240	0xbeb43b1a	-0.3520134
241	0xbde29883	-0.110642456
242	0xbe1417f3	-0.14462261
243	0xbe457824	-0.19284111
244	0xbe9dbca7	-0.30807993
245	0xbebda01d	-0.3703622
246	0xbe69487e	-0.2278156
247	0xbebe9b63	-0.37227926
248	0xbed3df29	-0.41381195
249	0xbe50ae99	-0.20379104
250	0xbe87ac57	-0.26498672
251	0xbe778934	-0.24173433
252	0x3dc69630	0.09696615
253	0x3bc7039d	0.006073429
254	0xbd262f53	-0.040572476
255	0x3e614999	0.22000732

conv2.bias f4 [16]
0	0xbe236609	-0.15956892
1	0xbdef2736	-0.11677401
2	0xbdf97dc2	-0.121821895
3	0x3e8c656a	0.27421123
4	0x3e446761	0.19180061
5	0x3ddede5c	0.108822554
6	0xbe7403b7	-0.23829542
7	0x3d613f23	0.054991852
8	0xbe3c7874	-0.18405324
9	0x3e56fbf3	0.20994548
10	0x3b987e06	0.004653695
11	0xbdd72332	-0.1050476
12	0x3e37b89a	0.17941514
13	0x3e627ce7	0.22117959
14	0xbd775de5	-0.06039228
15	0x3e052c12	0.13005093

fc2.weight f4 [12, 8464]
0	0x3db2cb6a	0.087302044
1	0x3dcf10be	0.10110615
2	0x3d69e931	0.057107154
3	0x39b9c2cf	0.00035431093
4	0x3d02a195	0.031892378
5	0x3d5c1b80	0.053737164
6	0xbd08ec81	-0.033428673
7	0x3d20ae0d	0.039228488
8	0x3dc928de	0.09822248
9	0x3dc16df1	0.09444798
10	0xbd1d9db5	-0.03848048
11	0xbd4a4dcf	-0.04939061
12	0xbd35ba38	-0.044367045
13	0xbdd6e82d	-0.10493503
14	0x3bd1c240	0.00640133
15	0x3d1e389e	0.038628213
16	0xbcbbad0d	-0.022909665
17	0xbd7e21c1	-0.06204391
18	0x3b2ec639	0.0026668443
19	0x3dae8804	0.08522037
20	0xbc1f90ba	-0.009739095
21	0xbbdb4995	-0.0066921213
22	0x3d4436eb	0.047903936
23	0x3e16c9a7	0.14725362
24	0x3cb68633	0.022280788
25	0x3d4a3b86	0.049373172
26	0x3d64bc46	0.055843614
27	0x3d8a9ea8	0.067685425
28	0x3d819722	0.063276544
29	0xbc921e91	-0.01783684
30	0x3cbb4db4	0.0228642
31	0x3cacdeee	0.021102395
32	0x3d859e4d	0.06524334
33	0x3b37bfb3	0.0028037846
34	0x3c0ba532	0.008523272
35	0xbccd4de3	-0.025061553
36	0x3cc02155	0.023453394
37	0x3cfc1105	0.030769834
38	0xbcc8d091	-0.024513515
39	0xbd988614	-0.074474484
40	0x3cf905f7	0.030398352
41	0xbc75237d	-0.014962074
42	0xbd5c4707	-0.053778674
43	0x3d7900a3	0.060791623
44	0xbc7210b2	-0.014774488
45	0x3db24c41	0.087059505
46	0x3dce4906	0.10072522
47	0x3c750dae	0.014956875
48	0x3d53dc79	0.05172393
49	0x3c03e77d	0.008050797
50	0x3d6dbed2	0.05804331
51	0x3cdcd7e4	0.026958413
52	0x3c08821d	0.008331803
53	0x3c1de2f1	0.009636627
54	0x3d6b9318	0.057513326
55	0x3da7807f	0.081788056
56	0x3d8d78af	0.06907784
57	0xbc58c212	-0.013229864
58	0xbc8223e7	-0.01588626
59	0xbcc1c1db	-0.023652008
60	0xbca93e4b	-0.020659586
61	0x3d62ee3c	0.05540298
62	0xbcb9763c	-0.022639386
63	0x3c472327	0.012154377
64	0xbd578253	-0.05261452
65	0x3cb06072	0.021530364
66	0x3c919f54	0.017776169
67	0x3dc12564	0.0943096
68	0x3df49aca	0.11943586
69	0x3dcaf5bb	0.099101506
70	0x3ded016c	0.11572537
71	0x3dbaa4db	0.09113475
72	0x3d680a88	0.05665067
73	0x3c932b69	0.017965036
74	0x3d80e8c1	0.06294394
75	0x3d9a347d	0.075295426
76	0x3d0e0d65	0.034680743
77	0xbade9d16	-0.0016984071
78	0x3d38dd03	0.04513265
79	0x3e0780ba	0.13232699
80	0x3d794f60	0.060866714
81	0x3d25bad4	0.040461376
82	0xbd68c244	-0.05682589
83	0xbd214dac	-0.039380714
84	0xbd78e116	-0.060761534
85	0x3b850de7	0.004060495
86	0xbdb05fb4	-0.08612004
87	0xbd9bfee9	-0.0761698
88	0xbcc2e4e1	-0.023790779
89	0xbd0e1f26	-0.034697674
90	0x3c02648e	0.007958544
91	0xbd98d702	-0.074628845
92	0x3e08fd17	0.13377796
93	0x3d2ea172	0.042634435
94	0xbd4dc200	-0.05023384
95	0xbd530db4	-0.05152674
96	0x3bddf0e9	0.0067731035
97	0x3da1585d	0.07878182
98	0x3e064c8e	0.13115141
99	0x3d5febac	0.054668114
100	0x3cc90205	0.024537096
101	0x3d624a76	0.055246793
102	0x3dc1110c	0.094270796
103	0x3d3e5766	0.04647007
104	0xbd226a63	-0.03965224
105	0xbd3361a9	-0.043794308
106	0x3b484f8e	0.0030564996
107	0x3dce7407	0.10080724
108	0xbcbed2cc	-0.023293875
109	0xbc8fc9e3	-0.017552322
110	0x3d6328f7	0.05545899
111	0xbcc2ec34	-0.023794271
112	0xbda70444	-0.081551105
113	0x3ca1eb34	0.019765474
114	0x3cedfa2d	0.029049957
115	0x3d9c86a2	0.07642867
116	0xbcfc6a4c	-0.030812405
117	0xbb372adf	-0.0027949137
118	0xbde417f2	-0.1113738
119	0xbd6cd240	-0.057817698
120	0x3cae0866	0.021244239
121	0x3d95f400	0.0732193
122	0x3cd69b21	0.026197018
123	0x3c676cd9	0.014125072
124	0x3d46d316	0.04854115
125	0x3bb2e015	0.0054588416
126	0xbd0264c7	-0.03183439
127	0xbd453477	-0.048145737
128	0xbe034175	-0.12817939
129	0xbdb9f986	-0.09080796
130	0x3c82f023	0.015983647
131	0x3d95c57e	0.07313059
132	0x3bd6270e	0.0065354174
133	0x3d194f63	0.037429225
134	0xbd801638	-0.06254238
135	0xbd11751e	-0.035512082
136	0xbdd54760	-0.10414004
137	0x3d9b8354	0.07593408
138	0xbcfc474b	-0.030795714
139	0xbd9d852d	-0.07691417
140	0xbd8dd94f	-0.06926214
141	0x3cbd2111	0.023087056
142	0x3d85b837	0.06529277
143	0x3d20e832	0.03928394
144	0x3c0d8239	0.0086370045
145	0xbb01a4ee	-0.0019782144
146	0x3bddff6b	0.006774833
147	0xbd01b066	-0.031662367
148	0xbc54060f	-0.012940898
149	0xbda0a8c7	-0.07844692
150	0xbdd8d7df	-0.10588049
151	0xbde1efb5	-0.110320486
152	0xbd416c5e	-0.047222488
153	0xbc90fd95	-0.017699042
154	0x3b816c18	0.0039496534
155	0x3c0c78a3	0.008573684
156	0x3d405d8c	0.046964213
157	0xbd00be34	-0.03143139
158	0xbcd6ea8e	-0.026234891
159	0xbdfb6429	-0.122749634
160	0xbde168a7	-0.11006289
161	0xbdd943a1	-0.10608602
162	0xbd6fb96d	-0.058526445
163	0xbd3bcaed	-0.045847822
164	0xbd2139e8	-0.039361864
165	0x3d4dcbfd	0.050243367
166	0x3d4233cc	0.04741268
167	0x3c829a44	0.0159427
168	0x3c9c3c5d	0.019071752
169	0xbd859ce4	-0.06524065
170	0xbd921d60	-0.07134509
171	0xbdc65868	-0.09684831
172	0xbe1fb586	-0.1559659
173	0x3cb1eb26	0.021718573
174	0x3d164ae3	0.03669251
175	0xbb4ed9e9	-0.003156299
176	0x3cfa2894	0.030536927
177	0x3d558a5b	0.0521339
178	0x3a7e9a9b	0.0009712369
179	0x3d476513	0.048680376
180	0xbbd36e34	-0.006452346
181	0xbdb6fd37	-0.08935016
182	0xbda5eadf	-0.08101439
183	0xbdbd4b83	-0.09242918
184	0xbd18b532	-0.037282176
185	0x3d4cfae0	0.05004394
186	0xbd5f31e6	-0.054490946
187	0xbd538da6	-0.05164876
188	0x3d4fc531	0.050725166
189	0x3d50fb8b	0.05102114
190	0xbd219350	-0.03944713
191	0xbe1ff1de	-0.15619609
192	0xbe1f74ac	-0.1557185
193	0xbe2f0ec1	-0.17095472
194	0xbdd67088	-0.104706824
195	0xbe83c021	-0.2573252
196	0xbddbe364	-0.10736731
197	0xbe18f141	-0.14935781
198	0xbd4ca365	-0.049960513
199	0xbd828633	-0.06373253
200	0xb6bf63eb	-5.7038756e-06
201	0xbc1285e7	-0.008943058
202	0x3cd15f1e	0.02555805
203	0xbda8fcc6	-0.08251338
204	0xbddb1f6f	-0.10699355
205	0xbdaef49d	-0.0854275
206	0x3bffaac0	0.0078023374
207	0xbd307b63	-0.04308642
208	0xbce2281e	-0.02760702
209	0xbdd4a465	-0.10382918
210	0x3c82f6a0	0.01598674
211	0xbcfcbca2	-0.030851666
212	0x3cc6b13e	0.024254438
213	0xbd88e26d	-0.06683812
214	0xbdfa1d6a	-0.122126415
215	0xbdfeb0c2	-0.124360576
216	0xbe8459c0	-0.25849724
217	0xbe60c339	-0.21949472
218	0xbea25e4e	-0.31712574
219	0xbe62ac88	-0.22136128
220	0xbe5f105b	-0.21783583
221	0xbe0631c3	-0.1310492
222	0xbe28a1f3	-0.16468029
223	0xbd960ff5	-0.07327262
224	0x3be24e64	0.0069063175
225	0xbca37c8d	-0.019956851
226	0xb93dd14b	-0.00018102412
227	0x3d4003d5	0.046878655
228	0xbe3a652a	-0.18202654
229	0xbc89e108	-0.016830936
230	0xbdd1d626	-0.10245924
231	0xbdac82b9	-0.08423371
232	0x3cac12e5	0.021005103
233	0x3dac5951	0.08415473
234	0xbca43e71	-0.020049306
235	0x3d7821c6	0.060579084
236	0xbe032bb1	-0.12809636
237	0xbe4f3005	-0.20233162
238	0xbe62b0a9	-0.22137703
239	0xbe6f37b4	-0.23361093
240	0xbec41a11	-0.38301137
241	0xbea3c1ed	-0.3198389
242	0xbea7ab82	-0.32748038
243	0xbe816885	-0.25275055
244	0xbe771cb9	-0.2413205
245	0xbe9a5760	-0.30144787
246	0xbde3f6ed	-0.11131082
247	0x3d2902bc	0.041262373
248	0x3cf84105	0.030304441
249	0xbbee7f79	-0.0072783795
250	0x3aaaca19	0.00130302
251	0x3cd27dee	0.025694814
252	0xbd290fc7	-0.041274812
253	0xbdde52c9	-0.10855634
254	0xbde4955d	-0.11161301
255	0xbe2f5b7c	-0.17124742

fc2.bias f4 [12]
0	0xbddda709	-0.10822875
1	0xbda6907c	-0.08133027
2	0xbd5baa52	-0.053629227
3	0xbc1df108	-0.009639986
4	0xbaad6418	-0.0013228683
5	0x3c713a9c	0.014723446
6	0x3bfa330c	0.00763548
7	0x3e66be52	0.22533539
8	0xbdc77176	-0.09738438
9	0xbc03d9df	-0.00804755
10	0x3d849509	0.06473739
11	0x3ca7dbfe	0.020490643
