models/best_param_tuned_model.pt (torch, 414335 bytes, 6 tensors)

conv1.weight f4 [8, 3, 3, 3]
0.048502095 0.040757317 0.24748243 -0.10903231 -0.035480894 -0.317027 0.33019906 0.1616063
-0.15660529 0.14068782 0.14659168 0.1960501 -0.042641584 -0.21303359 -0.4099476 -0.04043884
0.25781435 -0.12430724 0.008435646 0.10318234 0.15155381 0.15236983 -0.16438484 -0.32777467
-0.103125334 0.05544152 0.03194245 -0.197975 -0.29458094 -0.19314572 0.17881778 0.2581235
-0.118434705 0.06094734 0.075919926 -0.18187375 0.049589254 -0.14055964 0.015389863 0.05414752
0.24177323 -0.046631597 -0.08862447 -0.05113256 -0.08511419 0.014651826 0.028676286 -0.14886001
0.06480589 -0.16495669 -0.060814414 0.20238319 0.07111077 -0.11145004 0.047186855 -0.14303064
-0.09527159 -0.20986739 0.19266263 0.17492633 -0.0419293 0.025658824 0.2559611 -0.22184007
-0.19223446 -0.009423644 0.002619276 -0.007993099 0.06542623 -0.16164692 0.12679362 0.13371974
0.06631831 0.17252585 -0.22712122 0.005996097 0.14812548 0.0068383724 0.092571996 0.19151823
0.2688246 -0.14791363 -0.15250987 0.015384608 -0.13901375 -0.18913919 0.12895244 0.1309167
-0.03155375 0.078089036 -0.0057423217 -0.040575877 0.0525132 -0.16703469 0.06287594 -0.009414391
0.014935748 -0.009858637 -0.15267827 0.036963057 0.16063994 -0.100790635 0.046905242 0.16121492
-0.17864944 -0.032998208 -0.1295825 0.094852984 -0.1633241 0.11201496 -0.02472834 -0.1561242
-0.13625246 -0.08410177 -0.038268317 0.003050374 -0.023617698 0.09626344 0.12999487 0.07554454
-0.12388163 0.023344027 -0.030915095 -0.032013413 0.03127496 -0.1405588 0.3455595 0.30996796
0.29976833 0.12967986 0.22875808 0.2872398 0.19314548 -0.09148248 -0.071467854 0.24682714
0.27422625 0.09508709 0.22991598 0.1786564 0.30362627 -0.06837069 0.112842225 -0.045048766
0.15238754 -0.0064028413 0.07932343 0.0048604966 -0.011731201 0.0015100518 -0.13349797 0.0028743527
0.14718254 -0.16465065 -0.15606146 -0.05866725 -0.23252611 -0.045962807 -0.09476429 0.004243064
-0.13351893 0.0053315116 -0.17965816 -0.093402594 -0.04555881 -0.25071812 -0.1809897 -0.21589528
-0.07932328 -0.37226847 -0.26799864 0.021591738 -0.09538639 0.06820902 -0.27448672 -0.20329
-0.037604745 -0.2084028 -0.113737084 0.013705096 -0.054324433 0.1821088 -0.046245195 0.09003643
0.12825784 -0.05131392 0.10942653 -0.23402275 0.047367148 0.005425832 -0.20921937 -0.062478434
-0.23508605 -0.021342795 -0.25289246 0.11365634 -0.027381862 -0.1903599 -0.17369501 -0.053011112
-0.15684737 0.075160556 0.07834812 -0.21964465 -0.08798564 0.09293833 -0.1366869 0.25887752
0.15471904 0.069353096 0.2586168 0.13430382 0.14090016 0.08156446 0.03579517 0.2008094
00000000: 22aa 463d 25f1 263d 096c 7d3e 554c dfbd
00000010: 6a54 11bd 5d51 a2be da0f a93e 1f7c 253e
00000020: 235d 20be 7810 103e 211c 163e 5bc1 483e
00000030: f1a8 2ebd 7a25 5abe a7e4 d1be 32a3 25bd
00000040: 3e00 843e cb94 febd aa35 0a3c 4351 d33d
00000050: ec30 1b3e d606 1c3e 8054 28be 15d2 a7be
00000060: 6033 d3bd a616 633d 16d6 023d f5b9 4abe
00000070: 50d3 96be fec7 45be 021c 373e c328 843e
00000080: e58d f2bd eba3 793d e87b 9b3d 1d3d 3abe
00000090: 1a1e 4b3d deee 0fbe c425 7c3c cac9 5d3d
000000a0: 6793 773e c600 3fbd bf80 b5bd 6070 51bd
000000b0: 5950 aebd 360e 703c 88ea ea3c c26e 18be
000000c0: f3b8 843d 68ea 28be 8918 79bd 8a3d 4f3e
000000d0: 86a2 913d eb3f e4bd 0147 413d a076 12be
000000e0: c01d c3bd 7ae7 56be 5a49 453e e31f 333e
000000f0: 0fbe 2bbd 7432 d23c 550d 833e 0b2a 63be
00000100: 1cd9 44be a165 1abc 29a8 2b3b 7df5 02bc
00000110: 30fe 853d c586 25be 30d6 013e d4ed 083e
00000120: e5d1 873d 9eaa 303e 7792 68be e87a c43b
00000130: 35ae 173e 6d14 e03b 6396 bd3d 5b1d 443e
00000140: 61a3 893e ac76 17be 8c2b 1cbe b90f 7c3c
00000150: 9f59 0ebe b4ad 41be 1c0c 043e 070f 063e
00000160: 813e 01bd 25ed 9f3d 162a bcbb e432 26bd
00000170: 1518 573d 240b 2bbe 1ac5 803d d13e 1abc
00000180: 11b5 743c 1f86 21bc b157 1cbe 9366 173d
00000190: cc7e 243e 526b cebd b61f 403d 8615 253e
000001a0: e1ef 36be 2129 07bd 46b1 04be 4842 c23d
000001b0: 6f3e 27be 1968 e53d 1693 cabc 06df 1fbe
000001c0: c485 0bbe 8c3d acbd 3dbf 1cbd c9e8 473b
000001d0: e779 c1bc c425 c53d 601d 053e 19b7 9a3d
000001e0: a7b5 fdbd f93b bf3c a741 fdbc 7f20 03bd
000001f0: 2c1a 003d a5ee 0fbe 2ded b03e 1fb4 9e3e
00000200: 3c7b 993e ccca 043e 8f3f 6a3e 1811 933e
00000210: eec7 453e 2b5b bbbd bd5d 92bd 41c0 7c3e
00000220: 6267 8c3e 05bd c23d 186f 6b3e b4f1 363e
00000230: e774 9b3e ef05 8cbd d319 e73d 0e85 38bd
00000240: 7b0b 1c3e edce d1bb 5374 a23d cd44 9f3b
00000250: 3934 40bc eeec c53a b1b3 08be a35f 3c3b
00000260: 05b7 163e 2e9a 28be 93ce 1fbe 124d 70bd
00000270: 531b 6ebe 7f43 3cbd c813 c2bd 6709 8b3b
00000280: 30b9 08be f6b3 ae3b 4ff8 37be dc49 bfbd
00000290: e09b 3abd 205e 80be 5d55 39be a713 5dbe
000002a0: 3e74 a2bd f999 bebe 1e37 89be 28e1 b03c
000002b0: f159 c3bd 2cb1 8b3d 8689 8cbe 412b 50be
000002c0: 6f07 1abd 8b67 55be fdee e8bd 578b 603c
000002d0: 4c83 5ebd bb7a 3a3e 9a6b 3dbd 0565 b83d
000002e0: 0656 033e 8c2e 52bd 041b e03d a9a3 6fbe
000002f0: 0e04 423d 2dcb b13b 9a3d 56be 63e9 7fbd
00000300: 66ba 70be 16d7 aebc 1f7b 81be a8c4 e83d
00000310: ed4f e0bc b5ed 42be 1bdd 31be 2e22 59bd
00000320: 999c 20be c7ed 993d fb74 a03d 87ea 60be
00000330: d131 b4bd 7356 be3d a7f7 0bbe 988b 843e
00000340: ab6e 1e3e ff08 8e3d 6c69 843e f186 093e
00000350: 2248 103e 450b a73d f59d 123d fba0 4d3e

conv1.bias f4 [8]
-0.10735932 0.20147687 -0.3444452 -0.15681326 -0.3340414 -0.12524408 0.38384485 0.2557917
00000000: 34df dbbd f44f 4e3e 1f5b b0be a893 20be
00000010: 7907 abbe fc3f 00be 5087 c43e 21f7 823e

conv2.weight f4 [16, 8, 3, 3]
-0.10649907 -0.46999943 -0.5233743 -0.16554023 -0.16125181 -0.32080233 -0.0989978 -0.19727577
-0.39998633 -0.020434223 0.04724612 0.03165106 0.11615748 0.12074798 0.04474309 -0.006230464
0.17237636 0.17841573 -0.27149597 -0.2845714 -0.09320721 -0.044609576 -0.164982 -0.0436705
-0.11077769 -0.116320014 -0.07656535 0.12422775 -0.021822812 0.031483334 0.031034593 -0.06943626
0.085267045 0.12969011 0.11324653 -0.08022214 -0.055821434 0.054232284 -0.05364821 0.042888753
0.35043526 0.22572412 -0.2514843 -0.0007170878 0.039756294 -0.2675791 -0.12741402 -0.25867176
-0.16630176 -0.24760409 -0.26556143 -0.08389811 -0.02201603 -0.070161596 0.005297992 -0.062051028
-0.14832443 -0.119713664 -0.25655362 -0.19105113 -0.3616306 -0.36876792 -0.2746756 0.07968727
0.21673648 0.1763782 0.16088377 0.19543354 0.1905506 0.09556339 0.021989662 0.12105988
-0.5848432 -0.5030881 -0.39979994 -0.410561 -0.34195474 -0.27352512 -0.13434218 -0.08027136
-0.16053447 -0.568848 -0.64012784 -0.440967 -0.6140467 -0.59783995 -0.606522 -0.2708493
-0.34241387 -0.3197688 0.039847463 -0.032307826 0.10532941 -0.122944646 -0.09280748 -0.022404302
-0.0993745 -0.22480376 -0.23237902 -0.014011958 -0.12465802 -0.03952255 0.0995154 0.06782186
-0.05143631 0.066227615 0.09327195 -0.07525889 0.04201773 0.114891864 0.08465395 -0.119368985
-0.011732548 -0.03640629 -0.06506377 -0.14659947 -0.1454236 0.16518521 -0.00995096 0.14148754
-0.018777734 0.17183653 0.11735648 0.010379106 0.11151423 0.021363387 0.27955696 0.09028117
-0.16328378 0.19991294 -0.12108589 -0.056579527 0.40134317 0.35516995 0.09861404 -0.15146427
-6.768051e-05 -0.10040224 -0.13940234 -0.11321595 -0.12486171 0.12913032 0.088489026 -0.024313752
-0.0038295016 -0.07975974 -0.016835937 -0.10895576 -0.04426239 -0.2286704 -0.045383614 -0.0044745663
-0.10313625 -0.30141497 -0.37437177 -0.1425513 -0.30976188 -0.40067306 -0.37833562 -0.0075851944
-0.22621936 -0.18879926 -0.0774536 0.057256535 0.12837535 -0.029537689 -0.107035756 -0.01131588
-0.18016008 -0.012885978 -0.028714122 0.021382516 -0.014377809 -0.062331602 0.10184596 0.084325016
0.10100546 -0.04872431 -0.08590656 -0.016579958 0.11179217 0.26032233 0.12662654 0.17136379
0.26094782 0.10786443 -0.15939382 -0.038693573 0.051852096 0.13797434 0.1509372 0.12967049
-0.14274627 -0.048005886 0.03568289 -0.17121409 -0.03792295 -0.013600075 0.38832632 -0.2155304
0.12647994 0.09228629 -0.15048097 -0.01994504 0.016601928 -0.12376652 -0.21614224 -0.08379267
-0.17796285 -0.04747419 0.06442835 -0.056181327 0.015055235 -0.0082503045 -0.1440655 -0.17013064
-0.066840984 -0.16307145 -0.5045048 0.12462938 0.35077316 0.09401795 0.32247028 0.42220464
0.1535863 0.15828331 -0.058750313 -0.029728562 -0.011117251 0.13456939 -0.0020361962 0.0981598
0.052569147 0.11385009 0.24209426 -0.050366733 -0.085454196 -0.048028708 -0.15531734 0.09835145
0.24493107 0.23588283 0.050003745 0.030173749 0.04061772 0.03365639 -0.075263724 0.11290084
-0.042683154 -0.033994947 0.080654345 -0.070812024 -0.1082741 -0.1514499 -0.15589201 0.12434869
00000000: 2f1c dabd c4a3 f0be dcfb 05bf 6183 29be
00000010: 321f 25be 3440 a4be 5cbf cabd a902 4abe
00000020: 02cb ccbe ac65 a7bc 2685 413d 8ba4 013d
00000030: f9e3 ed3d b84a f73d 8844 373d ec28 ccbb
00000040: 6e83 303e 9db2 363e 8501 8bbe 58b3 91be
00000050: 6ce3 bebd 88b8 36bd 0bf1 28be d7df 32bd
00000060: 6adf e2bd 3039 eebd 4bce 9cbd 1e6b fe3d
00000070: c1c5 b2bc abf4 003d 423c fe3c 9934 8ebd
00000080: 7da0 ae3d 7ccd 043e cced e73d 814b a4bd
00000090: 04a5 64bd ac22 5e3d 3abe 5bbd 1eac 2f3d
000000a0: 406c b33e 3924 673e 8dc2 80be f3fa 3bba
000000b0: 7fd7 223d 2100 89be d278 02be a070 84be
000000c0: 024b 2abe ed8b 7dbe abf7 87be c6d2 abbd
000000d0: f65a b4bc e2b0 8fbd c79a ad3b 3829 7ebd
000000e0: 5ce2 17be 702c f5bd ff5a 83be e8a2 43be
000000f0: a527 b9be 26cf bcbe 48a2 8cbe 1433 a33d
00000100: 2bf0 5d3e 7d9c 343e b7be 243e bb1f 483e
00000110: b21f 433e bdb6 c33d aa23 b43c 3eee f73d
00000120: 49b8 15bf 62ca 00bf 94b2 ccbe 0d35 d2be
00000130: b114 afbe 7c0b 8cbe ff90 09be 5065 a4bd
00000140: 2663 24be 06a0 11bf 6bdf 23bf 6dc6 e1be
00000150: 2a32 1dbf 0a0c 19bf 0745 1bbf c2ac 8abe
00000160: df50 afbe bcb8 a3be 1837 233d 3655 04bd
00000170: f2b6 d73d 67ca fbbd d911 bebd 3a89 b7bc
00000180: dc84 cbbd f532 66be c4f4 6dbe 6992 65bc
00000190: b44c ffbd 66e2 21bd bbce cb3d 30e6 8a3d
000001a0: e1ae 52bd 58a2 873d 5d05 bf3d 5521 9abd
000001b0: c91a 2c3d 6d4c eb3d 0d5f ad3d ba77 f4bd
000001c0: df39 40bc c31e 15bd 2740 85bd 2c1e 16be
000001d0: ede9 14be 5026 293e 5a09 23bc 1ce2 103e
000001e0: c3d3 99bc eaf5 2f3e 9858 f03d 200d 2a3c
000001f0: 9361 e43d 4502 af3c 1722 8f3e 56e5 b83d
00000200: dd33 27be fab5 4c3e e1fb f7bd efbf 67bd
00000210: da7c cd3e d6d8 b53e 28f6 c93d 7319 1bbe
00000220: b2ef 8db8 b19f cdbd 7dbf 0ebe c4dd e7bd
00000230: 7fb7 ffbd bd3a 043e bc39 b53d a22d c7bc
00000240: 60f8 7abb 1359 a3bd 85eb 89bc 3324 dfbd
00000250: 7b4c 35bd 9328 6abe 2be4 39bd 629f 92bb
00000260: 1939 d3bd 1053 9abe a8ad bfbe f8f8 11be
00000270: 1c99 9ebe 0525 cdbe 35b5 c1be 398d f8bb
00000280: 0ca6 67be 9854 41be fe9f 9ebd d485 6a3d
00000290: d474 033e 06f9 f1bc 9035 dbbd 3e66 39bc
000002a0: e27b 38be b61f 53bc e139 ebbc 632a af3c
000002b0: e790 6bbc 6c4f 7fbd 9d94 d03d 98b2 ac3d
000002c0: f3db ce3d 2493 47bd c7ef afbd b1d2 87bc
000002d0: 4bf3 e43d f848 853e 63aa 013e fd79 2f3e
000002e0: f49a 853e 07e8 dc3d 2238 23be 277d 1ebd
000002f0: dd62 543d 2549 0d3e 488f 1a3e 57c8 043e
00000300: 142c 12be d2a1 44bd 3928 123d bf52 2fbe
00000310: 1855 1bbd d9d2 5ebc b5d2 c63e 00b4 5cbe
00000320: f583 013e 9800 bd3d af17 1abe c863 a3bc
00000330: c400 883c 4d79 fdbd 6454 5dbe 7e9b abbd
00000340: e53b 36be 4c74 42bd 03f3 833d 641e 66bd
00000350: 3baa 763c 492c 07bc e885 13be ba36 2ebe
00000360: ede3 88bd 34fc 26be 3a27 01bf b03d ff3d
00000370: 8a98 b33e 7c8c c03d d31a a53e 352b d83e
00000380: ba45 1d3e 0515 223e 2ba4 70bd 5089 f3bc
00000390: 2125 36bc 8fcc 093e b471 05bb 0108 c93d
000003a0: bf52 573d 3c2a e93d 8fe7 773e 594d 4ebd
000003b0: 9c02 afbd c0b9 44bd 820b 1fbe 7c6c c93d
000003c0: 36cf 7a3e 458b 713e bad0 4c3d f02e f73c
000003d0: c45e 263d 48db 093d de23 9abd 8e38 e73d
000003e0: 88d4 2ebd 493e 0bbd 1b2e a53d e505 91bd
000003f0: d0be ddbd af15 1bbe 28a2 1fbe 87aa fe3d

conv2.bias f4 [16]
0.12353854 0.13999496 -0.13511817 -0.018615898 -0.16464196 0.08023322 0.24716456 -0.14462695
-0.1628274 -0.080231056 -0.09950511 -0.015719574 -0.17169465 0.18322401 -0.016213613 0.065171614
00000000: c601 fd3d d75a 0f3e 6b5c 0abe 5e80 98bc
00000010: e797 28be 5051 a43d b518 7d3e 1619 14be
00000020: 3abc 26be 2e50 a4bd 56c9 cbbd 56c6 80bc
00000030: b9d0 2fbe 139f 3b3e 69d2 84bc b278 853d

fc2.weight f4 [12, 8464]
-0.019863775 -0.05795641 0.01652565 0.009371035 0.030363215 0.006116523 0.0294463 0.03262019
0.014386636 0.027870435 -0.02630506 -0.052496247 -0.013101016 0.019290475 0.041310348 0.017604943
-0.0106519805 -0.063252114 -0.07083954 0.023426734 0.034404255 -0.03269532 0.0047494723 -0.017417692
-0.05954892 0.009929207 -0.017487668 0.022036567 -0.036780547 -0.039557327 -0.0037956554 -0.0716205
-0.04916193 0.015881464 0.07267332 0.008514678 0.009964141 0.0021478399 0.024947086 -0.008748372
0.020410256 -0.0408809 -0.0784943 -0.058973543 -0.007898259 -0.0058959075 -0.051546182 -0.0031877728
-0.06079406 -0.019443184 -0.03455743 0.038377956 -0.019160805 -0.084358394 -0.10160589 -0.11224299
-0.052933216 -0.09913488 -0.040171657 0.029860793 -0.010552219 0.02152312 0.007947242 -0.015407077
-0.04509108 -0.037003554 0.060769938 -0.014893191 -0.03014667 0.029006274 0.044038884 0.07437399
-0.024572505 -0.031738095 -0.05012344 -0.07452018 -0.013974505 -0.11799429 -0.10720904 -0.19665006
-0.17713547 -0.27674365 -0.17063816 -0.16685593 -0.14597934 -0.03265729 0.029534323 0.027366824
0.030058155 0.021566154 -0.014095318 -0.0068808286 0.04422263 0.0808125 0.11487486 0.061789516
-0.006411351 -0.06434585 -0.063003294 0.0043753097 0.023883872 0.064557694 0.113772 -0.028708981
-0.016078709 0.10146853 -0.03741045 -0.03003967 -0.15388346 -0.1501631 -0.14904633 -0.0605089
0.060094606 0.06420264 0.08919351 0.06454539 0.054952197 0.07423613 -0.04250098 -0.100914925
0.004383928 -0.031745333 -0.011270623 0.008953923 0.0014905735 -0.012521219 0.067517005 -0.015737686
-0.017281774 -0.039761167 -0.03280154 -0.10569544 -0.11686341 -0.14259413 -0.15487024 -0.03795312
0.016407944 0.12722528 0.062680334 0.048280146 0.09271322 0.05786726 -0.14013179 -0.018517543
0.01231316 -0.03754218 -0.090347074 -0.06916999 -0.09062615 -0.1199933 -0.09905911 -0.056694675
-0.06816301 -0.05383354 -0.020175708 -0.13615759 -0.08537843 -0.07585086 -0.035680205 0.00997308
0.06923993 0.037838653 0.015135241 0.074130505 0.044681713 -0.07582018 -0.05496671 -0.054086246
-0.19068985 -0.2579472 -0.23202306 -0.23903573 -0.22116749 -0.10157617 -0.29699042 -0.076158635
-0.23295018 -0.18197185 -0.0060586976 -0.23024693 -0.024598818 -0.0652144 -0.12407541 -0.025929151
-0.08839433 0.09819818 0.1620703 0.018565007 -0.0744247 -0.18715316 -0.20853944 -0.23665069
-0.4069551 -0.2607875 -0.20810024 -0.25299874 -0.2827008 -0.36638024 -0.25199592 -0.14362992
-0.15775324 -0.11050331 -0.096227564 -0.078197435 -0.007912346 0.0008666026 -0.012296306 0.018241687
-0.03894321 -0.007904717 -0.25552636 -0.23088986 -0.08563617 -0.09137967 -0.19485977 -0.533925
-0.53883755 -0.7025677 -0.73755246 -0.64803445 -0.3796354 -0.36356154 -0.30942556 -0.07028737
-0.07165402 -0.009332869 -0.118352495 -0.025337877 -0.04309075 0.08703196 -0.04122203 -0.0046224333
-0.07411607 -0.09978494 -0.103308864 -0.20344931 -0.16429739 -0.14029251 -0.26744732 -0.29795405
-0.8788584 -0.8560382 -0.65244967 -0.37238112 -0.23817027 -0.13416943 0.03310195 0.03906663
-0.16244827 -0.13524656 -0.015755093 -0.025644537 0.06645406 0.048265796 -0.039573725 -0.16834591
00000000: 5bb9 a2bc b363 6dbd cd60 873c f888 193c
00000010: 47bc f83c 1d6d c83b 5e39 f13c c09c 053d
00000020: edb5 6b3c 8a50 e43c b67d d7bc 4e06 57bd
00000030: a5a5 56bc 0f07 9e3c 0a35 293d 3e38 903c
00000040: a585 2ebc 538a 81bd 5214 91bd 6ce9 bf3c
00000050: 7aeb 0c3d 87eb 05bd 76a1 9b3b 8caf 8ebc
00000060: 91e9 73bd 1dae 223c 4c42 8fbc 0886 b43c
00000070: 33a7 16bd dd06 22bd 88c0 78bb c5ad 92bd
00000080: 055e 49bd d819 823c c0d5 943d 2681 0b3c
00000090: a340 233c c6c2 0c3b d55d cc3c 5555 0fbc
000000a0: 6933 a73c bb72 27bd 9fc1 a0bd 3e8e 71bd
000000b0: b367 01bc 7532 c1bb 1722 53bd f4e9 50bb
000000c0: 3103 79bd 5047 9fbc 178c 0dbd 3432 1d3d
000000d0: 1ff7 9cbc 18c4 acbd c016 d0bd a7df e5bd
000000e0: 80d0 58bd 3a07 cbbd 098b 24bd 9f9e f43c
000000f0: 37e3 2cbc 4151 b03c 2635 023c f76d 7cbc
00000100: 6db1 38bd 0a91 17bd e6e9 783d 9202 74bc
00000110: 26f6 f6bc 919e ed3c 1e62 343d 6451 983d
00000120: 474c c9bc ceff 01bd 3c4e 4dbd 099e 98bd
00000130: 52f5 64bc fea6 f1bd 6a90 dbbd a25e 49be
00000140: 0063 35be 58b1 8dbe c5bb 2ebe 48dc 2abe
00000150: 9c7b 15be a7c3 05bd f7f1 f13c 6430 e03c
00000160: 853c f63c 81ab b03c 0cf0 66bc 9378 e1bb
00000170: ca22 353d 0681 a53d 8343 eb3d 0117 7d3d
00000180: 4f16 d2bb c2c7 83bd df07 81bd c25e 8f3b
00000190: 1ca8 c33c d336 843d 4b01 e93d 192f ebbc
000001a0: 7fb7 83bc bcce cf3d b33b 19bd c115 f6bc
000001b0: a093 1dbe 5bc4 19be 9a9f 18be 2ed8 77bd
000001c0: c325 763d ac7c 833d 16ab b63d 6030 843d
000001d0: 8e15 613d 1d09 983d 8215 2ebd 7cac cebd
000001e0: 0ea7 8f3b 6507 02bd 6ba8 38bc 7ab3 123c
000001f0: 595f c33a cd25 4dbc 5b46 8a3d 52ec 80bc
00000200: 8292 8dbc 9bdc 22bd e85a 06bd da76 d8bd
00000210: 1556 efbd 3204 12be 4e96 1ebe bb74 1bbd
00000220: f469 863c 5847 023e 8c5e 803d 67c1 453d
00000230: 6ee0 bd3d 3806 6d3d b57e 0fbe 1ab2 97bc
00000240: 23bd 493c d4c5 19bd e307 b9bd ffa8 8dbd
00000250: 349a b9bd 0cbf f5bd 81df cabd ad38 68bd
00000260: 0c99 8bbd 8f80 5cbd 8747 a5bc e56c 0bbe
00000270: e3da aebd b257 9bbd 6825 12bd 2166 233c
00000280: aacd 8d3d b4fc 1a3d cdf9 773c bcd1 973d
00000290: 2c04 373d 9c47 9bbd c624 61bd 8a89 5dbd
000002a0: 3344 43be a811 84be 7497 6dbe c8c5 74be
000002b0: bb79 62be 2b07 d0bd 210f 98be 0ff9 9bbd
000002c0: 7e8a 6ebe d456 3abe 0a88 c6bb dac5 6bbe
000002d0: 7683 c9bc 218f 85bd 401b febd 5f69 d4bc
000002e0: 1608 b5bd 211c c93d c2f5 253e a415 983c
000002f0: fa6b 98bd 14a5 3fbe 5d8b 55be 8f54 72be
00000300: 6b5c d0be f085 85be 3b18 55be 0d89 81be
00000310: 29be 90be 3196 bbbe 9c05 81be b913 13be
00000320: 118a 21be 8f4f e2bd f512 c5bd fa25 a0bd
00000330: c9a2 01bc b72c 633a 7276 49bc 976f 953c
00000340: ea82 1fbd c982 01bc 5ad4 82be 646e 6cbe
00000350: 0462 afbd 4425 bbbd 5289 47be 4faf 08bf
00000360: 42f1 09bf 7adb 33bf 3dd0 3cbf 96e5 25bf
00000370: 925f c2be bd24 babe 076d 9ebe d3f2 8fbd
00000380: 58bf 92bd e4e8 18bc cb62 f2bd 6191 cfbc
00000390: ed7f 30bd d03d b23d 6ed8 28bd c877 97bb
000003a0: 2bca 97bd 0c5c ccbd 9993 d3bd 0455 50be
000003b0: 933d 28be d7a8 0fbe dbee 88be 6f8d 98be
000003c0: ddfc 60bf 5225 5bbf f106 27bf bda8 bebe
000003d0: e8e2 73be b663 09be e995 073d 5504 203d
000003e0: d758 26be 137e 0abe d310 81bc 7e14 d2bc
000003f0: 1119 883d 5bb2 453d 0f18 22bd df62 2cbe

fc2.bias f4 [12]
-0.20390625 0.08870163 -0.11340158 -0.017054075 -0.029096633 0.026581775 -0.0078093437 0.15605646
-0.073294155 -0.058274195 0.109362654 0.05108973
00000000: cdcc 50be 33a9 b53d 163f e8bd fdb4 8bbc
00000010: 105c eebc 06c2 d93c 86e5 ffbb 44cd 1f3e
00000020: 3f1b 96bd ecb0 6ebd 87f9 df3d 7743 513d
